trained_model/2025-06-19_18-27-43/saved_model_2025-06-19_18-27-43.pkl (torch, 820950 bytes, 54 tensors)

conv_layers.0.f_lin.0.weight f4 [128, 5]
00000000: 87d0 26be 10d4 b83d 39a7 c33c 7f52 513e
00000010: 7632 073d 7faa 433e b39f 59be 0a46 5f3c
00000020: d8a9 1b3c 6c82 993d b53a fdbd a20c 31bd
00000030: 4327 fabc c171 96bd 8aac 51bd 095b 2a3c
00000040: fd26 5e3e 98f8 823d ac9c 8cbd 465c bc3d
00000050: 4343 06be 8ca9 2f3d b67f 373e 916a 55be
00000060: 0b49 4bbe 36a4 8d3d 287b 543e ccae 25be
00000070: 7b40 c33d 74fd ae3d a661 833d 40c3 5c3e
00000080: 6621 27be 6fe6 4abe e093 58be 7f24 5dbd
00000090: 0aa7 14be 69c6 433c 18ef 583e 8c5e 1abd
000000a0: b3fe fbbc 562a 5cbe 26fc bcbd b804 12be
000000b0: a0ca 473c ca12 f93d aae5 3f3c 0037 eebd
000000c0: d812 e5bc b656 ab3d 6f5a afbd aedf 3abe
000000d0: 9c7a 73bb 1f20 bdbd fc66 033e 5467 213e
000000e0: 461a 233e b2f4 eabd 3cd8 c73b 6419 23be
000000f0: e440 503e 1d6b 2d3d 4bd1 5bbd 15c2 c8bc
00000100: 8208 373e 152d 173d e692 3b3e 56bd 9e3c
00000110: 35cb a33d d423 393e a6b5 f0bd fc10 21be
00000120: 3b95 903b dea5 4f3e 4a5e 103e a6cf b2bd
00000130: b1d6 81bd 38be 323e d70e 803c 6ea3 71bd
00000140: bce6 223e 69eb ff3d 0f54 0a3d dcfb 893c
00000150: 8f68 003e fc8f 0fbe 1f38 393e 4903 973d
00000160: de4d dabd 22e7 0b3e 47fe b2bd aae8 26be
00000170: 3320 073e 9682 77bc 9690 203e cfc7 60bd
00000180: 6a82 2dbe 1c78 38bd f312 db3d 4c6b 4abd
00000190: cc2c d8bd 2dab 9e3d a20f 883d 3107 2fbe
000001a0: 3369 22be 5494 5abd a05d 3bbe f50d 3f3e
000001b0: 407b 193e c026 9d3c 6c61 f13d 3139 53be
000001c0: f8c5 46be 36c4 9ebc f94b 15bd 2c15 2e3e
000001d0: 42af 113e cf6a d13d f890 4dbe 675b 113e
000001e0: 78e4 26be 4d05 093d fef8 393e 23d3 ebbd
000001f0: 3fd1 7dbd a3d2 1cbe 0174 1ebe 57c1 14bc
00000200: 05a1 313e b5ba 97bc ac05 283e 70d6 f33d
00000210: abe4 fc3d 05cf 01be cefd a6bd 147f 393d
00000220: 39fe 583c 3000 7e3d a9ba d83d 4e03 113e
00000230: d22a 4fbe 29f9 5bbe 8db9 e43d 6d4a 0dbe
00000240: 828c bd3d 8e22 12bd ebaa 953d 45b2 493e
00000250: b06b 103e a8a5 583e a93f 4c3d 29d7 363e
00000260: 18f6 d53d 0014 1e3e e52b 33bd 1c91 45bd
00000270: e93a 72bd fede 14be 35c3 f73d 198e 2ebe
00000280: aef8 27be f446 8b3d f849 a0bd affd ccbc
00000290: 7e42 753d 58fb 43be 40e1 033e e42f 103e
000002a0: f80b ac3d 21b2 a5bd a767 6ebd 90d4 3a3e
000002b0: 891c 863c 50b5 c83d 62b1 c13d 3ce2 3abd
000002c0: 28c8 9bbd 5c41 44bd ca91 333e 5c2b 0abd
000002d0: 23c1 eb3b c80f 043e 6088 153d 9d25 543d
000002e0: 934c 893c 1f4a 213d e77f adbc 79d1 1c3e
000002f0: bae0 16be aba3 283c 5952 cabd 0271 03bc
00000300: ab2d ec3d 1ee1 b0bd b0ab 79bd 473e 09be
00000310: b526 6fbd 0950 cbbd 9d00 f5bc 902c 0dbe
00000320: 33e8 52bc 23ad 41be 57e7 413e a2be 3abe
00000330: 48d9 a0bd d546 303e aeb5 e23d dded 38be
00000340: 9fde 0b3e fa44 a0bc 33e7 f2bd 4df4 623e
00000350: 8fad 93bd 68c1 33be 0d35 d03d d2fb c73c
00000360: 463b 2b3e ffd9 d03c f419 24be f2ff 0abe
00000370: f8d2 f3bd a01c 07be b1bf 603d f8a4 c33c
00000380: d2ce a0bd 299a 523d d53a e93d f08c fdbd
00000390: 1c19 07be c090 ec3d a2dd d43d a079 4c3e
000003a0: 4cfd 32be 5b22 24be 5fee 613e 957a 61bd
000003b0: 2ff7 ddbd f6e4 caba 2888 a33d 7672 a43d
000003c0: 8aba cf3d a83e d4bd 78c4 133e 65f2 c23d
000003d0: 8718 b73c 7373 34be 5fac 883d 82e8 afbd
000003e0: 64e5 113d 9783 cc3d 9654 123e 9a4b 11be
000003f0: a6a1 25be b475 363e cadd 97bd 6c00 883d
-0.16290484 0.09024823 0.023883449 0.20441626 0.033007108 0.19108008 -0.21252327 0.013627538
0.009500943 0.07495579 -0.12364713 -0.04322494 -0.0305363 -0.073459156 -0.051189937 0.010397681
0.2169456 0.06395072 -0.0686582 0.09197287 -0.13111596 0.042886302 0.17919812 -0.20841433
-0.19852082 0.069160864 0.20750105 -0.16179961 0.09533783 0.08544436 0.06415109 0.21558857
-0.16321334 -0.19814466 -0.2115016 -0.053989884 -0.14516845 0.01194916 0.21184957 -0.037687823
-0.030761098 -0.21500525 -0.09227781 -0.14259613 0.012194306 0.12161787 0.011712471 -0.11631584
-0.027963087 0.08366148 -0.08562171 -0.1824939 -0.0037151938 -0.09234642 0.12832254 0.15762073
0.15927991 -0.11472453 0.006098775 -0.15927655 0.20337254 0.04233848 -0.053666394 -0.024506608
0.17874339 0.036908228 0.18317756 0.019377392 0.07997743 0.18080074 -0.11753397 -0.15729135
0.004412321 0.20278117 0.14098468 -0.08731012 -0.06339777 0.17455375 0.015632076 -0.05899375
0.1590833 0.12496073 0.03377157 0.016843729 0.12539886 -0.1401977 0.18087815 0.073736735
-0.10659383 0.13662389 -0.08739906 -0.16299692 0.13195877 -0.015106818 0.15680155 -0.054878052
-0.1694428 -0.04503642 0.10696974 -0.049418733 -0.10555419 0.07747493 0.06643607 -0.17092587
-0.15860443 -0.053364113 -0.18297434 0.18657668 0.14988422 0.019183517 0.1178616 -0.20627286
-0.19411457 -0.01938067 -0.036449406 0.17000264 0.14227012 0.1022545 -0.20074832 0.14195023
-0.16298091 0.03345232 0.18161389 -0.115148805 -0.06196713 -0.15314727 -0.1547394 -0.009079299
0.1734658 -0.018521646 0.16408414 0.11906135 0.123483025 -0.12676628 -0.08153878 0.045287207
0.013244205 0.062011898 0.105824776 0.14161417 -0.20231178 -0.21481766 0.111682035 -0.13797922
0.09255315 -0.035677485 0.07307991 0.1969691 0.1410358 0.21156943 0.0498654 0.17855515
0.10447329 0.15437317 -0.043743033 -0.04823409 -0.059138212 -0.1453819 0.1209778 -0.17046393
-0.16403458 0.068006426 -0.078266084 -0.02502331 0.059877865 -0.19138849 0.12878895 0.14080769
0.0840072 -0.08090616 -0.05820432 0.18245149 0.016371028 0.098002076 0.09457661 -0.04562591
-0.07606536 -0.047913894 0.17536083 -0.033732757 0.0071946546 0.12896645 0.03650701 0.051793683
0.016760146 0.039377328 -0.021179153 0.15314282 -0.14734164 0.010292928 -0.09878988 -0.008022549
0.11532148 -0.08636688 -0.06095475 -0.13402663 -0.058386523 -0.09927375 -0.029907519 -0.1378653
-0.012872743 -0.18913703 0.18935905 -0.18236783 -0.07853943 0.1721452 0.11069809 -0.18059488
0.13659142 -0.01956414 -0.11860504 0.22163506 -0.07210838 -0.17554247 0.10166369 0.02441207
0.1672183 0.025494574 -0.16025525 -0.13574198 -0.119054735 -0.13194513 0.05487031 0.023882374
-0.07851948 0.05141655 0.113881744 -0.12380397 -0.13193172 0.11551046 0.103938356 0.19968271
-0.17479438 -0.1602873 0.22063588 -0.055048544 -0.10838162 -0.0015479613 0.07984954 0.08029644
0.101430014 -0.10363513 0.14430416 0.09518889 0.022350563 -0.17622165 0.06673502 -0.08589269
0.035619155 0.09986036 0.1429008 -0.14188996 -0.16174945 0.17818338 -0.0741535 0.066407055

conv_layers.0.f_lin.1.weight f4 [128, 5]
00000000: 164a 9b3c 1905 543e 46c9 033e 257a e93d
00000010: 7332 c8bd d51f 2dbd c18f 533d 2921 1abe
00000020: d543 55be 3a28 0fbe 5303 9dbd 8453 9ebd
00000030: b094 283c 8fca 303e 183c 03be 899a 833d
00000040: ece7 cabd aa45 23bc 4ea8 2d3e 8ade ee3d
00000050: dd42 4abe 41d5 003e 6fa3 33be 8df4 d8bd
00000060: 3745 bf3d a418 b23d 2b98 b6bd a347 1bbe
00000070: c30f 46be c7b6 3bbe 21f6 66bc 1c60 4fbe
00000080: cbb1 afbd 52d7 103e 5b7e 003d 89e1 5abe
00000090: 1a0b 51be 2240 c0bd 2c89 57be c490 2ebe
000000a0: 8612 283d 0f51 cd3c ac98 13bd cf40 d3bd
000000b0: 2d19 43be eecb 6e3d c864 c43d c229 2dbe
000000c0: 126c 98bd a1a5 ad3d 9f91 a73d 96b0 b23d
000000d0: ae16 a2bd 2c37 503e bb0f ddbd 1173 463e
000000e0: 5f97 263e 8e01 b9bd c9ba f83d faeb ac3d
000000f0: 037e 18bd 927c ed3d adfe e4bd d547 b9bd
00000100: 3554 103e 7533 6ebd 2481 10be 587b 363e
00000110: b573 a93d 64e0 0bbd ef12 07bc 9146 e9bc
00000120: 52fa 3b3e f912 56be a5d3 f0bd 1935 af3d
00000130: b153 b93b 6b59 033e af49 2cbe f854 b73b
00000140: 5918 9cbb 9cb4 873d 74a5 8a3d 6cf9 393d
00000150: f4c0 27be 3560 f43d 5613 0fbd b843 eebd
00000160: af8e acbd 953d 083d 3ad6 c9bd eac2 33be
00000170: 0b5e 5f3d 06e5 cdbd e3f2 243e c30d 683d
00000180: dc38 60bd 6b95 e63b 0b88 1e3e a21f ec3d
00000190: 592b 143d 67c3 5e3d 5265 923d 80d5 8abd
000001a0: cca7 0bbe e4f9 8a3d cbe3 963d b696 d93d
000001b0: 4629 f73a 2660 513e 3091 333e cb74 92bd
000001c0: 258a 1fbd a262 cc3d 57a5 11be ee18 66be
000001d0: 8fa0 283e 6788 88bd 70c6 db3d 135e 50be
000001e0: 23fd 47bd 8299 c73c b628 c4bd 77ab 243e
000001f0: 9c2b 8b3d f874 463e 5cde 9ebd 58d4 22be
00000200: 3e32 63bd 00fc 823b 73ce cfbc beda 0ebc
00000210: f002 64be 4368 6bbd dc83 67bc 4dd9 1e3e
00000220: acab b8bd 254e e9bb dd51 9abd 1c21 4abc
00000230: 815f 0e3e ef3b 903d 563b 09be fb4a 34be
00000240: f510 3cbe de70 64be 83d6 493e 8b08 89bd
00000250: 0aaf 49be 58f1 083d b549 4fbe 6621 19bd
00000260: ca04 a2bc 0588 9bbd 907a 4e3e 9fcf 43be
00000270: fc78 53bc 7cc5 a33d ca09 013a 42fb b33c
00000280: 84b8 183e 4fef 53be 21d3 763d 5e85 eabd
00000290: c938 55be df3b 5bbe b426 d93d d91c 3abd
000002a0: cf57 58be 2a0e fa3c 768a 1b3d 09b4 3abe
000002b0: 6eda f83d dc23 143e 113f 1abe ef95 f53d
000002c0: f039 5fbe 67c6 c93c c54a 673d bfa3 2bbe
000002d0: da50 2b3e 01b1 77bd 4e2e bfba 3167 813d
000002e0: 2f00 6dbd bf24 55bc 7ebc 2a3e d02f f53d
000002f0: f688 70bd 9f29 9a3d cc60 333d 7a6d 33ba
00000300: c8f1 0d3d d990 2e3d 9a2d a5bc ff21 af3d
00000310: 1477 073e e212 e7bd 8413 1d3e 8983 353c
00000320: 31e0 f6bc 8a7d a13d 81a0 2d3e 9fc1 51be
00000330: d1e1 1abe 6a53 4fbe 5dde 1c3e 0b20 223e
00000340: 9198 473d 1f37 57be e1ff 3a3e 8b53 803d
00000350: 742b 37be 42b1 1abd 334e 9d3d 75b6 11be
00000360: da19 3bbe 9d56 02be d085 2abe ee71 c93d
00000370: fd04 4ebe b932 fe3d 841b 1cbe 53ac 703a
00000380: d43e ea3d 9d5c 0bbd 644b efbc ea41 233d
00000390: 00b1 d23d 2bec 363e 8446 163e 22eb 0a3d
000003a0: ffab 3d3e 4973 923d 2a7b d0bb 68d5 253e
000003b0: 7aae 1bbe dff0 073e 4fe7 4bbd a58e 103e
000003c0: 3d8e c2bd 9de0 c1bd 1774 a63c 09a4 34be
000003d0: 5e00 1ebd 89ad 06be 5afc 45be 6b47 5b3c
000003e0: 216b 583e 2576 1d3c c145 63be e049 c03d
000003f0: d3f6 a5bd 79b4 2d3e dff5 163a cb34 2b3e
0.018956225 0.2070507 0.12869748 0.1140025 -0.097752474 -0.042266686 0.051650766 -0.15051712
-0.20826657 -0.13980189 -0.0766665 -0.07730773 0.010289356 0.1726477 -0.12815893 0.064259596
-0.09907517 -0.00996534 0.16958734 0.1166354 -0.19752069 0.1258135 -0.17542814 -0.10593519
0.093393736 0.08696106 -0.089157425 -0.15164046 -0.1934195 -0.18331443 -0.014096768 -0.20251507
-0.08578833 0.14144638 0.031370502 -0.21375097 -0.20414391 -0.09387232 -0.2104842 -0.17047411
0.04103329 0.025063066 -0.03603427 -0.10315096 -0.19052573 0.05829995 0.09589535 -0.1691046
-0.07442488 0.08478857 0.08182072 0.08725087 -0.07914482 0.20333546 -0.10794016 0.19379832
0.16268681 -0.090335 0.121450014 0.084434465 -0.03722955 0.115960255 -0.11181388 -0.09046904
0.14094622 -0.058154542 -0.14111763 0.1782049 0.082740225 -0.034149542 -0.00824426 -0.028476031
0.18357208 -0.20905675 -0.11759118 0.085550494 0.0056557287 0.12827079 -0.16824983 0.005594846
-0.0047636447 0.066262454 0.06769839 0.045403883 -0.163822 0.119324125 -0.03493055 -0.1163401
-0.08425652 0.033261854 -0.098553136 -0.17554823 0.054533046 -0.100534484 0.16108279 0.05665375
-0.054741725 0.007036855 0.15481584 0.11529471 0.036174152 0.05438557 0.071482316 -0.06779003
-0.13638228 0.06785944 0.07367667 0.10624449 0.0018856905 0.20446834 0.17535853 -0.07151183
-0.038950104 0.0997975 -0.14223228 -0.22470447 0.16467498 -0.06666642 0.10731208 -0.20348386
-0.048825394 0.02436519 -0.095780775 0.16081034 0.06795427 0.19380558 -0.077572554 -0.15901315
-0.055467837 0.003997326 -0.025366997 -0.008719144 -0.22266746 -0.05747248 -0.014130559 0.15512581
-0.09017119 -0.0071199113 -0.075351454 -0.012336995 0.1390362 0.070426814 -0.13401541 -0.17606728
-0.18365844 -0.2230868 0.19710736 -0.066910826 -0.19695678 0.03343329 -0.20242961 -0.037385367
-0.019777674 -0.07594303 0.20163941 -0.1912217 -0.012907263 0.079966515 0.0004922418 0.021970395
0.14914137 -0.20696758 0.060259942 -0.11451219 -0.20822443 -0.21409558 0.10603085 -0.045437668
-0.21127246 0.030524332 0.037973844 -0.1823274 0.12151037 0.14466804 -0.1506312 0.11991488
-0.21799445 0.024630738 0.05646779 -0.16761683 0.16730061 -0.06047154 -0.0014585943 0.0631851
-0.057861503 -0.013009249 0.16673467 0.1197201 -0.058724366 0.0752747 0.043793485 -0.00068446214
0.03465441 0.042618606 -0.020163346 0.08551406 0.13229018 -0.112828985 0.15339476 0.011078724
-0.0301362 0.07885273 0.16955759 -0.20484017 -0.15125205 -0.20246664 0.153192 0.15832536
0.048729483 -0.21017121 0.18261673 0.062659346 -0.1788767 -0.037766702 0.07680931 -0.14229758
-0.1827158 -0.12728353 -0.16652608 0.098361835 -0.2011909 0.12412018 -0.15244871 0.0009180952
0.11437765 -0.03402387 -0.029210754 0.039857782 0.10287666 0.17863528 0.14675337 0.033915646
0.18522643 0.07150895 -0.0063623386 0.1619469 -0.15203276 0.13275479 -0.04978114 0.14116915
-0.09499786 -0.0946667 0.020319028 -0.176407 -0.03857457 -0.13152136 -0.19334546 0.013383727
0.21134616 0.009610687 -0.22194578 0.093890905 -0.081037186 0.16963376 0.00057586835 0.16719358

conv_layers.0.f_lin.2.weight f4 [128, 5]
00000000: bb9e 2b3e d2af 943d 1273 363e bc68 9cbc
00000010: 8f88 5c3e 0072 3c3e 8070 173e 0479 0b3e
00000020: 59b0 033e 7786 4a3e 7822 fdbd 16e6 a1bd
00000030: b740 23be a7bc 02be 052c 48be 5ba2 313e
00000040: 30b0 acbd ec29 153e 6d1a 1ebe 235f 4dbe
00000050: 38d3 09bd e495 56be 71a4 64be b1ff 0dbe
00000060: 55a7 b6bd c08c 19bc 9aca 8ebd 07c7 3fbc
00000070: 303d 27bd b8f6 c7bc f07f ccbc e1d6 3cbe
00000080: 9602 bbbd 70a3 823d d7bf c63d f5ae d83d
00000090: 169d 383e a8ce f33d 18ca b6bd fe14 4c3d
000000a0: 1133 e2bd 2fb4 a7bd 1c09 c4bc 35c5 dcbd
000000b0: 29d0 43be 312b 93bc 3ea7 d3bc 87fd bb3d
000000c0: 6e0d 0b3c cab3 47be bbce c53c d446 95bd
000000d0: 7ecf 463e 088f 04be 627d c0bc e03a 083e
000000e0: e0c0 453d 1913 0e3d 5b1e 453e 40cc b1bd
000000f0: 371c 003e 7d22 16be 4129 c0bd 5f6c 4c3e
00000100: 2c26 023e f2d3 a1bd c8e3 4ebe ad53 103c
00000110: 6a09 f23d d09f aa3d b8f0 f53d 4a46 6abd
00000120: 1df9 c7bd 84bc ad3d d5df e1bd 717e 853d
00000130: 18e0 0cbd 86f0 0abe add4 663d b153 cfbc
00000140: 7d3b 1d3d a7f0 d3bc b3fb 5b3e 94a9 143d
00000150: d313 5cbe 7104 963c d50f 0d3e df96 1c3e
00000160: 9c82 dc3d d97d 093e aa41 abbd 1644 53be
00000170: da40 dfbd 8aca 2ebd 4e81 a6bd 7910 d03d
00000180: b7df 7ebd 6bb4 7abd af5f c0bd 1473 1ebc
00000190: 4d59 c4bd e5e4 20be a139 5dbe fdf2 4d3e
000001a0: 498a f1bd 01f4 5b3d 9b57 0b3e f7f8 4bbe
000001b0: 5432 b7bd 3b33 dfbd 9efd 6c3d 64c1 0a3e
000001c0: 172a a9bd 11cf 3bbe c4b4 493e f1b1 f43c
000001d0: 7213 0b3e 689a 173e 9b3c 083d d3a5 0abd
000001e0: e85f 303c 3397 9cbd 918f 24be 5247 c43d
000001f0: 3883 ed3b 4f84 5bbe 3dc4 40be e7bc 57bd
00000200: 2fdc a5bd eed3 22be 958e c5bc 66be 24be
00000210: 46c2 10be 345b fcbc 4038 5f3d d587 06bd
00000220: d4f3 25be 44c8 07be 5edd 453e 34a7 a5bd
00000230: c229 9d3d 1acd 893d 7c7d fe3c b844 89bc
00000240: b28f 2abe 9174 4abe 5851 dcbd efed e7bd
00000250: 5f3f 76bd 525b a33d b6e1 e13c 922d 23be
00000260: 3023 833d 28fc 91bd 1f5d 26be d466 02be
00000270: ebb8 abbd aca8 f83c 6821 1ebd cfc9 403e
00000280: 67f6 e73c 00a9 0abd 88b5 22be 359c 963d
00000290: 135e 253e c177 86bd 0e30 c2bd c30a bebd
000002a0: efcd b2bc 22a5 853d 88ff cdbd 9017 253d
000002b0: 368c 873d e0f1 ecbd 73c3 64be 6cf9 963c
000002c0: 8022 d83d 355e 48be 8846 1e3e 1a73 c5bb
000002d0: 0bc7 2f3e c0c6 5d3e 5059 d3bd 6473 483e
000002e0: 9bad d13d 7e47 203e b012 60be 70ef 1cbe
000002f0: 05ed 50be 48ef 19be fe9d a63d 5d83 3abe
00000300: 9fff 543e 5801 e2bd e67f ed3d 092e 4fbe
00000310: 031c 293e 8696 2b3e ef74 55bc e8a3 c3bd
00000320: e44a b93d 7599 a5bd 810a 65be d605 c9bd
00000330: 0784 5ebe 1af9 27be fd12 983d 8136 89b8
00000340: c851 d93d 0ef3 d9bc ee95 b6bd b197 8b3d
00000350: dd96 453e 760c ef3d 74b3 2f3e 1e4f b83d
00000360: 00ac 11be dac5 043e 7f21 153e 1cac 9f3c
00000370: a1a3 1cbe 0a3f 19be 5be0 73bc b7ec d33d
00000380: 3e2e 7bbc 65d0 46be f3c4 a53d 7fee b93d
00000390: 582e 533e 9d26 23be 2f1b 0e3e 7ca1 683c
000003a0: 86bb c2bd 0c65 2e3e d783 1bbe 1668 f13d
000003b0: 2d31 823d ae08 733d 930f bebd 426b 143e
000003c0: c4ca 7e3d ec3b c83d de87 babc aba5 2ebe
000003d0: 3134 493e b28d e13c 749f 1c3e 0bdd 343e
000003e0: f22a 583c 3d1a 2fbe f1fa 68be 0bab 14be
000003f0: db21 4e3d 0cc0 d8bd 99fe 06be d063 ec3d
0.1675977 0.072600976 0.17817333 -0.01909291 0.21536468 0.18402863 0.14789009 0.13620383
0.1286024 0.19777857 -0.1236009 -0.079052135 -0.15942656 -0.12767278 -0.19548042 0.1734709
-0.084320426 0.14566773 -0.15439768 -0.20055823 -0.0336487 -0.20955616 -0.22328354 -0.1386707
-0.08918635 -0.009371936 -0.06972237 -0.011705167 -0.040829837 -0.024409637 -0.02496335 -0.18441345
-0.091313526 0.063788295 0.09704559 0.105802454 0.18028674 0.11904651 -0.08925265 0.049824707
-0.110448964 -0.08188664 -0.023930125 -0.10779802 -0.19122376 -0.017964931 -0.025836583 0.09179216
0.008487089 -0.19502178 0.024146428 -0.072889 0.1941509 -0.12945187 -0.023497287 0.13303709
0.048279643 0.03468618 0.19249861 -0.08681536 0.12510763 -0.14661594 -0.093828686 0.19963215
0.12709874 -0.079017535 -0.20204079 0.008809012 0.11818202 0.08331263 0.12008804 -0.05719594
-0.097643115 0.08483222 -0.11029021 0.065182574 -0.0343934 -0.13568315 0.056355167 -0.025308462
0.03838681 -0.025871588 0.21482734 0.036294535 -0.21491937 0.018312665 0.1377557 0.15291928
0.10767099 0.13426913 -0.08362134 -0.20631441 -0.10901041 -0.042673625 -0.08130132 0.10159392
-0.06222507 -0.061207216 -0.0939325 -0.009670991 -0.09587345 -0.15712316 -0.21604015 0.20112224
-0.11793954 0.053699497 0.13607638 -0.19919191 -0.08945146 -0.10898443 0.057859056 0.13550335
-0.08259981 -0.18340708 0.19697863 0.029870005 0.13581637 0.14804995 0.033260923 -0.03384955
0.010765053 -0.076460265 -0.16070391 0.09583916 0.0072483085 -0.2143719 -0.18824859 -0.052670386
-0.08098637 -0.15901157 -0.02411584 -0.16088256 -0.1413661 -0.030805208 0.054497004 -0.032844383
-0.16206294 -0.13259989 0.19322726 -0.08088532 0.0767398 0.06728573 0.031065695 -0.0167564
-0.16656378 -0.19771029 -0.107577026 -0.11324679 -0.06011903 0.07976402 0.027573448 -0.15935352
0.06403196 -0.07128173 -0.1624646 -0.12734538 -0.0838488 0.030353867 -0.038606077 0.18826984
0.028315736 -0.033852577 -0.15889561 0.07354013 0.16149168 -0.0656581 -0.09481822 -0.092793964
-0.021826712 0.06525637 -0.10058504 0.040305674 0.0661854 -0.115695715 -0.22340183 0.01842948
0.10553455 -0.19567187 0.15456593 -0.006025684 0.17165773 0.21657848 -0.103197694 0.19575268
0.10238191 0.15652272 -0.21882129 -0.15325713 -0.20402916 -0.15032685 0.08135603 -0.18214174
0.20800637 -0.110354125 0.1159666 -0.20232405 0.16514592 0.16756639 -0.013028367 -0.09552747
0.090474874 -0.0808591 -0.22367288 -0.09815566 -0.21730052 -0.16403618 0.07425497 -6.542821e-05
0.10611302 -0.026605155 -0.089153156 0.06816042 0.19295831 0.116722986 0.171583 0.089994654
-0.14225769 0.129661 0.14563559 0.019491248 -0.15296794 -0.14965454 -0.0148850335 0.10347884
-0.015330849 -0.19415434 0.08094206 0.09078693 0.20623147 -0.15932699 0.13877557 0.014198657
-0.095084235 0.17030734 -0.15187012 0.11787431 0.06357036 0.05933445 -0.09280314 0.1449404
0.06220509 0.09777054 -0.022769865 -0.17055385 0.19648816 0.027533386 0.15295202 0.17662446
0.013193833 -0.17099853 -0.22751977 -0.14518373 0.050325256 -0.10583505 -0.13183059 0.11542475

conv_layers.0.params.0 f4 [128]
00000000: e4b0 80bb f46f b83c b95d 36ba 43f7 08bc
00000010: f6a6 c83b fc82 083c 8b43 003c 3b13 8e3c
00000020: 1109 9b3c 064f 383b 7b49 a43c 24b5 7f3c
00000030: d0ad cb3b 488f 0abc 611a fd3a 8b30 953c
00000040: dbc0 5cbc d42e 88bc 761b 0f3b 906b 5dba
00000050: 2afa 6dbc 95bb 9f3c 5fd7 413c ce52 a8bc
00000060: 962f 913c 3da0 903c 9d97 a7bc 1a8f 96bc
00000070: ebae 9e3c e2e9 9abc edce 8ebc a464 c03b
00000080: f4d4 fcba 60ed 4a3b e629 88ba e336 74bc
00000090: aa2c 56bc fd4a 80bc d91e 7c3c bfcf e73b
000000a0: 0589 a33c 0b3f 43bc bdd5 453c c8d7 82bc
000000b0: 462e 6f3c 3525 6e3b 8905 81bc 3df6 853c
000000c0: 68cf 9dbc a95e 66bb b37f 493c 0a1c fcbb
000000d0: c518 a23c b7bf 9dbc 8654 d73b 3d30 49bc
000000e0: 1214 22bc 4e28 bdba a673 9a3b fd64 af3c
000000f0: 7684 523c 61f0 8fbc 5930 56bb b349 1c3c
00000100: 2ca8 603c 77fd 9cbc d099 8bbb 2aff c8bb
00000110: 576e 0dbc af98 dbbb bd56 9d3c f62e 773b
00000120: 80be 1b3c 13c0 a7bc d1fc 383a 69c8 8a3c
00000130: 1f9b 983c a9bf 833c f1ef 47bc 4cd8 60bc
00000140: 25df 86bc c1be 9ebc 692d 99bc 737f d93b
00000150: a7ee bd39 2a2b a1bc 3403 903c 39ac 69bc
00000160: 4943 67bc ddbc 7dbc e8f9 a43c 8454 8dbc
00000170: 036b 423c 3637 95bb 74a7 843b 3fcf 82bc
00000180: f1d4 e3bb 91a4 92bc a2bd 733b 08ef a63b
00000190: ec50 a73c 46b5 47bb 2b87 013c 849a 2dbc
000001a0: be80 8bbc dc77 12bb 15d9 35bb 456a a83c
000001b0: 4c44 2bbc 1657 9bbc 8223 b43c 027d b0bc
000001c0: ba2a aabb 994c 90bc a8a9 c53b 12fd 2a3c
000001d0: 51c7 8cbc 1093 a3bc 383c b4b9 018d 2e39
000001e0: aafb 14bc d2a9 6ebc ce6f 85bc 6db2 623c
000001f0: 2372 953c 2b8f 8eb9 f38b 48bc 3313 40bc
-0.003927337 0.02251432 -0.0006956715 -0.008359733 0.006123419 0.00833201 0.0078286035 0.017343154
0.018925222 0.0028123274 0.02005457 0.015607152 0.0062157884 -0.0084570125 0.001931023 0.018211624
-0.013473715 -0.016623892 0.0021836436 -0.0008446509 -0.014524976 0.019498626 0.011831134 -0.020547297
0.017722886 0.017654533 -0.020458037 -0.018378783 0.019370517 -0.018910352 -0.017432654 0.0058713723
-0.0019289539 0.003096424 -0.0010388463 -0.014905664 -0.013072172 -0.015660757 0.015388214 0.007074326
0.019962797 -0.011916886 0.012074885 -0.015972033 0.014598435 0.0036338095 -0.01574971 0.016352767
-0.019263938 -0.0035151637 0.012298512 -0.007693772 0.019787202 -0.019256456 0.0065713553 -0.012279567
-0.00989248 -0.0014431567 0.0047134934 0.02141046 0.012848964 -0.017570676 -0.0032682626 0.009539056
0.01371197 -0.01916383 -0.0042602792 -0.0061339336 -0.008632264 -0.006701551 0.0192064 0.00377172
0.009505868 -0.02047733 0.00070567155 0.016941266 0.018628655 0.016082602 -0.012203203 -0.013723444
-0.016463825 -0.019378068 -0.018698411 0.0066375076 0.000362267 -0.019673903 0.017579652 -0.0142622525
-0.014115163 -0.015486923 0.020138696 -0.017252214 0.011866334 -0.004553701 0.0040482823 -0.015967963
-0.006952875 -0.017900737 0.0037191887 0.0050944127 0.020424329 -0.0030473038 0.007905762 -0.010595921
-0.017029162 -0.0022349274 -0.00277478 0.020558486 -0.010453295 -0.018962424 0.021989588 -0.021543983
-0.0051930817 -0.01761465 0.0060321875 0.010436313 -0.017184885 -0.019967586 -0.00034377142 0.00016646461
-0.0090932045 -0.0145668555 -0.016288664 0.013836485 0.018242901 -0.0002719102 -0.012240398 -0.011723327

conv_layers.0.params.1 f4 [128]
00000000: edca e6bb 6a18 34bc 5d59 4c39 0cfd 3fba
00000010: 0253 3fbc f389 5138 0c31 87b9 e21b d6b8
00000020: cdc0 2539 4c52 6a3a fac5 1738 4cd3 cd39
00000030: f9ce 39bb 7a5b 093a 4614 8abc e25e 8cbc
00000040: bf3a 6ebc 3a85 b5b7 fb58 74b6 07c7 c1ba
00000050: 08a3 54bc 2c6a 8db6 8949 33bc ed63 15b6
00000060: 68d9 ccbb 7fc6 1fbc 810e fd39 4dd3 2a3a
00000070: ad7a 65bc 2b87 4839 f66a dbbb 51cd 2dbc
00000080: d762 40b7 b6d1 6cbb a16b 093a 2c87 5e39
00000090: 8999 143a 0906 153a 9fd7 b6bb 939f 26bc
000000a0: 0c1c 7439 2a9e a039 2542 22ba 0ec9 83bb
000000b0: 69e0 1abc 2aec dcba 1329 39bc fb0b f638
000000c0: 4e03 b7ba 559f ce39 81eb c8ba 34a4 9fb9
000000d0: 643a 85bc e604 e8bb 7cf1 09bc 8edb 05bc
000000e0: 90c6 6db9 7729 47bc 7704 99bc 6295 42b7
000000f0: 7067 74ba 6c72 93bc 7145 87bc fd20 09bb
00000100: 9721 0cbc 2721 4cbc 9c86 aebb 8a25 c639
00000110: e902 54bc 10e8 3cb7 f5cd 9fb7 3799 4fbc
00000120: f448 adbb 3d9e 35bc b8d5 bb38 c2b9 faba
00000130: 36d1 dabb c0f0 e739 ae6e b93a 8b8e 9cbb
00000140: 3f03 6dbc c87e ba38 cf99 5cbc bf66 8f38
00000150: 0d6c b239 9ebb 8eb7 e186 1a39 8bb8 78bc
00000160: 62e7 36ba 917c 20bc e511 cab6 84bb 48bc
00000170: c690 ecb6 b07b 85bc 5e8f 9abb 0a3e cdba
00000180: 7648 17bc 80bf 9e39 8dfe 563a e031 81b7
00000190: cb5f c039 2c0f 163a a32e 82b7 ecf9 91bc
000001a0: a24a 50ba 8393 cfb9 70d6 a2b6 3117 b938
000001b0: 9be6 00bb 698a c1b6 dce8 75bc ccbe d4b7
000001c0: 86bf 4b3a 4137 86b7 a8a1 9239 9aff ce39
000001d0: e036 6c3a 5f30 243a efbd 6d3a 9547 3fb6
000001e0: 61c4 0eb8 0de9 3bbc 46b4 a6b9 6c6b b239
000001f0: 6bb6 b839 16dd 0838 8c20 b039 6083 d0b9
-0.0070432336 -0.010992149 0.00019488246 -0.00073237787 -0.011677505 4.995796e-05 -0.0002578575 -0.00010209509
0.0001580745 0.0008938655 3.6185585e-05 0.00039258075 -0.0028352125 0.00052397663 -0.01685537 -0.017135087
-0.014540373 -2.163892e-05 -3.6410627e-06 -0.0014784046 -0.012978323 -4.2144875e-06 -0.010942825 -2.2260895e-06
-0.006251503 -0.009751915 0.00048266727 0.00065164716 -0.014006299 0.0001912384 -0.0066961003 -0.010608033
-1.1467105e-05 -0.003613574 0.0005242173 0.00021221925 0.00056686305 0.0005684798 -0.0055799033 -0.010169881
0.00023280102 0.0003063542 -0.0006189666 -0.0040217703 -0.009452918 -0.001685505 -0.011301297 0.000117324256
-0.0013962777 0.00039410093 -0.0015328975 -0.00030449184 -0.016263194 -0.007080662 -0.008419391 -0.008170022
-0.00022676052 -0.012155882 -0.018678887 -1.1598082e-05 -0.0009323275 -0.017998897 -0.016512604 -0.0020924204
-0.00855293 -0.012459076 -0.0053261053 0.00037793472 -0.012940147 -1.12597045e-05 -1.9050183e-05 -0.012670807
-0.0052882377 -0.01108509 8.956663e-05 -0.0019128846 -0.006677772 0.00044239126 0.0014147365 -0.0047777346
-0.014466106 8.892786e-05 -0.013464405 6.837909e-05 0.0003403131 -1.7015085e-05 0.00014736831 -0.015180717
-0.0006977228 -0.009795324 -6.0221523e-06 -0.012251738 -7.050202e-06 -0.01629433 -0.0047167977 -0.0015658748
-0.009233585 0.00030278787 0.0008201383 -1.5401223e-05 0.00036692465 0.00057243067 -1.5518925e-05 -0.017819367
-0.00079456915 -0.00039592021 -4.85294e-06 8.825807e-05 -0.0019668702 -5.7679613e-06 -0.015009131 -2.5361216e-05
0.00077723747 -1.5999774e-05 0.00027967733 0.0003948182 0.00090108626 0.00062633114 0.0009069135 -2.8502884e-06
-3.403833e-05 -0.011469138 -0.00031796301 0.0003403084 0.00035231127 3.263083e-05 0.00033593585 -0.00039770734

conv_layers.0.params.2 f4 [128]
00000000: 7542 6fbc 48b2 3dbc 69c8 4c38 027f 413a
00000010: bd46 633a 2e49 0dbb 5eee 32bc 74ee 2dbc
00000020: 29ee 1bbc 5160 44bc 3438 41bc dca0 24bc
00000030: 112c 49b9 5e9f 2d3a 967b 5fbc 22b0 77b5
00000040: bc46 e938 04a2 eab7 4b71 9cb7 52b9 6ebc
00000050: 1849 593a 158b 0439 c78a 813a e4ff 453a
00000060: 3d75 9abc 68ca 6c38 4880 9dbb 5a9a b7ba
00000070: 563a 22bc a079 b9b7 a9b3 89b7 fbf4 273a
00000080: 4070 953a 1f35 2c3a a14f d239 8a62 e4b9
00000090: 1995 74b7 4163 ae38 31cc 01b5 de79 503a
000000a0: ad2d 01b7 3df1 5dbc 5983 6ebc ae01 e1b7
000000b0: b502 743a 40b9 7eb5 d4d9 75bc 1308 c6bb
000000c0: 18ed 99bb 7715 6fb6 bd08 363a 671f 0eb7
000000d0: f1ca 2fbc 1376 3c3a 2c65 10ba e63a e539
000000e0: 1860 da39 cc75 a239 c3f7 63bc 8b51 e5bb
000000f0: 1c70 11bc a566 47bc c5ef 74bc b0a6 b9b7
00000100: 3f12 42bc 58f4 583a e657 0dbc c355 8d3a
00000110: 9ebc afbb 149a a939 6b7f 2239 3d9d f9b6
00000120: ba55 63bc 486b 0abc 443b da39 fffa b8bb
00000130: f980 4abc 3361 c6bb e71e 503a 4dda feb6
00000140: d083 ef39 c379 38bc 40f5 3dbc bdb5 5bbc
00000150: 6320 94bb 48ab 6bbc bc7b 61bc 3915 0a3a
00000160: 84f6 53bc 89a2 8b39 fd4c 7dbc 0586 ffbb
00000170: 13fa 9ebb 2531 cebb a0a2 3039 6ec9 84bc
00000180: ad40 bdbb ae82 fbba f4f7 00bc 27ef 2d3a
00000190: e7b3 81bb 8a03 88b5 6ff9 5ebb 0771 27bc
000001a0: 3752 f139 2f3e 8a39 5673 003a 035d 63bb
000001b0: b971 18bc 827c 84b7 c950 7939 47e0 2fb9
000001c0: 364c 493a d0bd d4bb 580a 40bc c644 5d39
000001d0: 0051 7fbb 0edf 7bbc 6360 79bc 2503 12b8
000001e0: 4944 063a 3938 27bc d7bd 3d3a ac53 3b3a
000001f0: 2eea d5bb 5751 bc38 6621 48bc 2ac6 53bb
-0.014603247 -0.01157815 4.8824037e-05 0.00073812914 0.00086699036 -0.002155851 -0.010921089 -0.010615934
-0.009517231 -0.011985854 -0.011793185 -0.0100481175 -0.0001918527 0.0006623174 -0.013640305 -9.227098e-07
0.00011123481 -2.7970418e-05 -1.8649405e-05 -0.014570551 0.0008288785 0.00012640313 0.0009883278 0.0007553084
-0.018854732 5.645529e-05 -0.004806552 -0.0014007792 -0.009901604 -2.2110355e-05 -1.6415333e-05 0.00064070494
0.0011401251 0.0006569195 0.0004011365 -0.00043560966 -1.4578248e-05 8.315454e-05 -4.835338e-07 0.000795273
-7.699634e-06 -0.013546285 -0.014557683 -2.6822872e-05 0.00093082647 -9.489195e-07 -0.015005548 -0.006043443
-0.004697453 -3.562627e-06 0.0006944051 -8.471171e-06 -0.010729537 0.0007189225 -0.000550824 0.00043722166
0.00041651796 0.00030986813 -0.0139140515 -0.006998246 -0.008876827 -0.012170468 -0.014949744 -2.2131338e-05
-0.0118451705 0.0008276156 -0.008626914 0.0010783005 -0.005363061 0.0003234899 0.00015496991 -7.439083e-06
-0.013875419 -0.008448429 0.00041624357 -0.0056451554 -0.012359851 -0.0060540675 0.0007939175 -7.5952034e-06
0.0004568384 -0.011259499 -0.011594117 -0.013410029 -0.0045204624 -0.014384098 -0.013762411 0.00052674446
-0.012937192 0.00026633244 -0.01546025 -0.007797959 -0.0048515885 -0.0062924796 0.0001684525 -0.01620933
-0.005775532 -0.0019188726 -0.007871617 0.0006635063 -0.0039582136 -1.013382e-06 -0.0034023186 -0.010219819
0.00046028357 0.00026367742 0.0004899999 -0.003469289 -0.009304457 -1.5793605e-05 0.00023776585 -0.0001677285
0.0007678898 -0.006492354 -0.011721216 0.00021101822 -0.0038958192 -0.015373005 -0.015220734 -3.481204e-05
0.00051218696 -0.010206276 0.0007238066 0.0007145952 -0.0065281605 8.979689e-05 -0.012214994 -0.003231416

conv_layers.0.params.3 f4 [128]
00000000: 5948 a9bb 9d12 1a3c b70b b2bb 5260 873a
00000010: 8057 fb3b 48c9 3e3c c90a 253c 8223 2b3c
00000020: 8bb5 2c3c 4859 533c ed04 dd3b 8578 a43b
00000030: 4289 033c 5243 22bc 0423 aebb 5037 d73b
00000040: cf65 5abc 5940 fdbb 7e7e 12bc d721 90bb
00000050: ad03 6bbc 472f 323c 964b 593c c281 2fbc
00000060: 96ac fb3b 33c3 353c 4d79 56bc bb23 55bc
00000070: 2b71 183c d011 3ebc 9f13 f4bb 0530 3a3c
00000080: a284 23bc 0843 f73b f447 23bc 4f7b 2dbc
00000090: e929 4cbc 31f7 2abc c54f 563c a242 4d3c
000000a0: 5962 363c 7404 f8bb a848 243c c7ad 72bc
000000b0: 25c4 403b 3d43 34bc 3522 12bc 3808 193c
000000c0: d1ea 35bc 3e3d ceba 46b5 353c 446a 3dbc
000000d0: b961 1e3c ee4f 38bc 2db6 4eba 5169 59bc
000000e0: 1d97 4bbb 5024 e73b 0e13 f43b 87d0 243c
000000f0: dd47 f13b bfef 3cbc 9ae8 e93b 2c92 333c
00000100: 40b0 543c 7793 4fbc c213 d8bb 6371 03bb
00000110: 48b8 aa3b 89c4 07bc 7dc1 413c 73a2 803b
00000120: 1de6 033b f886 3abc ac78 c2bb bdb3 223c
00000130: 635e b93b 9b7d 463b ea4e 48bc 966f 8fba
00000140: 2330 64bc 0ba1 1cbc 6842 20bc 021f 493a
00000150: 52dd 543c 179b 40bc b3ad 1c3c 7361 dfbb
00000160: 29ef 4ebc 042d 11bc d577 2a3c e9b0 4bbc
00000170: 341f 453c a995 2ebc d86f 3a3c f68c 3dbc
00000180: 8814 a2bb 3033 f2bb aea6 393c 9a11 96ba
00000190: 33a9 103c 0bf0 803b daab 1b3c 0edb 2c3b
000001a0: 76ac ddbb bfa0 2fbc f403 b83b 21c6 183c
000001b0: 1346 31bc 14ad 41bc 0204 f33b cf0f 41bc
000001c0: 596b 70ba 973b 33bc 520b b73b d5ba cf3b
000001d0: 76e6 2cbc c0f4 13bc 0cc7 54bb 5e61 0e3b
000001e0: aa6b 2abc 2e32 4bbc fb8b 5ebc b4b7 c8ba
000001f0: 8dcc cb3b 9a39 c6bb fdef 1dbc f8ac 8fbb
-0.005166095 0.009403852 -0.0054335254 0.0010328388 0.007670343 0.011644669 0.010073372 0.010445477
0.01054133 0.012899704 0.006744972 0.00501925 0.00802833 -0.009903746 -0.005314233 0.006567873
-0.013329937 -0.007728618 -0.008941291 -0.0043985653 -0.014344138 0.01087553 0.01326265 -0.010712089
0.007680486 0.011093902 -0.013090444 -0.013009007 0.009304325 -0.0116009265 -0.007448628 0.011363988
-0.009980353 0.0075458325 -0.009965885 -0.010588481 -0.012461164 -0.010434912 0.013080542 0.0125280935
0.011131846 -0.00756889 0.010027088 -0.01481194 0.0029413786 -0.011002359 -0.008919288 0.009340338
-0.011103348 -0.0015734804 0.011090582 -0.01156098 0.009666854 -0.0112495255 -0.00078854227 -0.013269738
-0.0031065412 0.0070538893 0.0074485606 0.010059482 0.007363303 -0.011531769 0.007138324 0.010960143
0.012981474 -0.012669436 -0.006594152 -0.0020056597 0.0052099563 -0.008286604 0.011825916 0.0039256155
0.0020126172 -0.011384718 -0.0059347954 0.009930548 0.0056570037 0.003028727 -0.012225846 -0.0010943289
-0.013927492 -0.00955988 -0.0097814575 0.0007672162 0.01299222 -0.011755726 0.0095628975 -0.006817037
-0.012630262 -0.00886083 0.010404547 -0.012432315 0.012031365 -0.010655799 0.011379205 -0.011569252
-0.004946295 -0.007391356 0.011331243 -0.0011449337 0.008829403 0.0039348654 0.009501422 0.0026375684
-0.0067649437 -0.010719477 0.0056157056 0.009324581 -0.01081993 -0.01182105 0.0074162493 -0.011783554
-0.00091712695 -0.0109395 0.0055860663 0.006339411 -0.010552993 -0.009030521 -0.0032467274 0.0021725516
-0.010401646 -0.0124021005 -0.013583179 -0.0015313537 0.0062194527 -0.006049347 -0.009639737 -0.004384633

conv_layers.0.params.4 f4 [128]
00000000: a0c8 803a dfdd 30bc e596 bb3b 7250 44bc
00000010: 8d5e e6ba 5275 203c 3f19 bf3a a6eb 4e3c
00000020: 804b 4d3c a580 fc3b 1c29 2f3b bdc2 11bc
00000030: f766 1c3c df45 223b 3ab0 37bc 7078 3abc
00000040: 793c 35bc 0095 45bc 664e ca3b 0163 f43a
00000050: 3efc 53bc fbd3 cbbb 4c34 0ebc b2be 423c
00000060: 41a8 0abc 54e2 9a3a 6226 313c f946 1e3c
00000070: 6d21 3dbc 907c 333c 582a 23bc 65e0 03bc
00000080: cfb1 403b 312a fe3b 43b9 3a3c 5811 1e3c
00000090: 7643 59ba c4e1 9fba b474 32bc 59f1 22bc
000000a0: 1b05 21bc e528 2c3a 06ab 073c 5e25 edbb
000000b0: f30d 5bbb 037b 16bc c2e0 63bc 05dd e73b
000000c0: f758 37bc 1ff5 403c 2030 593c 4889 213c
000000d0: 40e0 58bc 6f03 12bc 322e 6ebc f23f 45bc
000000e0: b2cb 173c 3d20 0fbc b65a 2bbc 3ba4 463c
000000f0: c502 1d3c 8960 2fbc d6e1 3db8 fcaf 533c
00000100: b2c3 21bc b64d c1bb e09b 863a 7b03 613b
00000110: 3dcc 7abb b455 9b3b 8f72 b839 52d0 09bc
00000120: 6f1d d6bb 2c37 3ebc f52c 4b3c 483e 193c
00000130: 1c5e 32bc da86 a6ba 7a2f 343c bd7f 38bb
00000140: 7f8c 2cbc 8698 cf3b dee4 24bc 4735 3d3b
00000150: 6b0c a93b 5d9f cb3b 9eba 5c3c 2e48 47bc
00000160: 23df ea3b 3d09 38bc a24b d2bb 5c92 37bc
00000170: 3108 5f3b 102e 18bc 681e e9bb 4675 eb3b
00000180: 94ef 33bc 0d11 703c d755 0c3c 74b2 2f3c
00000190: 2395 bbba 7983 2ebc 7994 afbb 5edc 48bc
000001a0: 7f5d 15bc bcf4 bd3b 1b11 513c 0678 c13b
000001b0: 7d3a 993a 4a2b cfbb addb 49bc 22c3 3b3c
000001c0: 85dd b4bb e1a5 223c 5ff1 a93b 542a a0bb
000001d0: fa0a 47ba bcd1 b93b e8ab ea3b e55a f13b
000001e0: e10c 263c 7539 3cbc 3ce5 363c 35c7 143c
000001f0: b8a6 cd3b 0215 113c ca6d ae3b 21db cdbb
0.0009825416 -0.010795086 0.005724775 -0.01198207 -0.0017575786 0.009793596 0.0014579667 0.012629425
0.012530208 0.0077057653 0.0026727384 -0.008896527 0.009546033 0.0024760885 -0.011211449 -0.011381254
-0.011061781 -0.01205945 0.0061738966 0.0018645228 -0.012938557 -0.0062203384 -0.008679461 0.011886286
-0.008462966 0.0011816719 0.010812374 0.009660476 -0.011543614 0.010954991 -0.009958826 -0.008049105
0.0029402857 0.0077564945 0.011396709 0.00964769 -0.00082879455 -0.0012198021 -0.010892082 -0.009945237
-0.009827877 0.0006567373 0.008280521 -0.0072371205 -0.0033425062 -0.009184602 -0.013908567 0.007075908
-0.011190644 0.011777191 0.013256103 0.009859391 -0.013237059 -0.008911951 -0.014537381 -0.0120391715
0.009264873 -0.008735714 -0.010458639 0.0121241165 0.00958318 -0.010704168 -4.5271438e-05 0.012920376
-0.009873318 -0.0058991564 0.0010269843 0.003433435 -0.0038268708 0.004740441 0.00035180568 -0.008411484
-0.0065342705 -0.011609834 0.012400855 0.009353228 -0.010886695 -0.0012704984 0.010997647 -0.002815231
-0.010531544 0.006335321 -0.010064332 0.0028870867 0.005158951 0.006214066 0.013472227 -0.012163205
0.0071677133 -0.011232671 -0.0064177075 -0.011204328 0.0034031982 -0.009288326 -0.0071142204 0.007185611
-0.010982413 0.014652503 0.008565388 0.010723699 -0.0014311414 -0.010651463 -0.0053582755 -0.012259571
-0.0091165295 0.005796997 0.012760426 0.0059042005 0.0011690404 -0.006322299 -0.012320441 0.0114600975
-0.0055195712 0.009927244 0.0051862444 -0.0048878584 -0.0007592883 0.0056707542 0.007161606 0.007365572
0.0101349065 -0.011488308 0.011163052 0.009080698 0.006275978 0.008855106 0.0053231465 -0.0062822257

conv_layers.0.params.5 f4 [128]
00000000: a94a 48bc f2af bcbb e25e 3e3c 6ca5 1a3c
00000010: 25ff 003c 2bbf 31bc a8e1 78bb ee12 42bc
00000020: d2ed 10bc 358d d5bb edd8 07bc 40f5 44bc
00000030: 2cf5 2ebb 048c b03b 12a0 35bc 62da 413b
00000040: d385 0e3c 32b5 9f3a 2f7d ec3a fb06 27bc
00000050: df6d 4a3c a2eb f03b 6d12 433b d88f 773b
00000060: c767 40bc 63a6 523c a85d 7a3b 2766 bfbb
00000070: 3b66 27bc ef68 b53b d99b 24bb fa25 f73b
00000080: 03a2 9b3b 8daa 153c 34f2 d9ba c752 303c
00000090: 6213 91bb cd8a 463c de81 8c3b 3b9b 243c
000000a0: 2426 353c af42 18bc a12f fdbb 5f35 e33b
000000b0: 2454 3e3c dc99 66bb 76a4 60bc c0db f13a
000000c0: be0e 47bc 7236 293c 966d 373c 7987 d83b
000000d0: 1eda 533a 83ba 623b dfb1 c1ba 46cb 313c
000000e0: 9ed0 383c fe61 263c c1d9 1ebc 5327 6abc
000000f0: dc8a 5bbc c19f 82bb f7ed 5bbc a457 0d3c
00000100: 4432 4ebc 4cd6 2b3c 217c 1ebc 2b75 f93b
00000110: 135a adbb d572 0a3c 5f58 4f3c 9c30 f1ba
00000120: 872d c6bb dc96 1dbc 44dd 3abc e7f6 23bc
00000130: f929 3fbc 1d7a 37bc d3eb 373c 1087 d93b
00000140: 99a2 3d3c 6a36 16bc 1ca2 49bc a9d0 973b
00000150: f61c 903b e9b8 2fbc b3c6 24bc f357 723b
00000160: 2073 64bc f9ca 993b cfab 54bc da92 d2bb
00000170: 6639 70bb 6d17 b7bb 654e 363c a75e 57bc
00000180: a2ca cabb 760d 2abb e150 a7bb 76c6 283c
00000190: 705c fcbb 5ad3 24bc 10c7 40bc bcfe 1dbc
000001a0: 43b2 01bc aa76 31bc 4ec4 1e3a 134d 8eb9
000001b0: 88eb 06bc 7841 ee3b aa53 1cbc fb4f 0bbc
000001c0: 5529 bf3b bfc5 14bc c3e9 0abc cdd0 b439
000001d0: a465 e23b 8304 31bc a1fb 1abc 017b 0f3c
000001e0: edc0 803b 6612 c6bb 7236 c23b 68c0 153c
000001f0: cd5b 0abc 679e 2d3c 7f0a 00bc 76fe c0bb
-0.012224832 -0.005758279 0.0116193015 0.009438854 0.007873331 -0.010848801 -0.0037976298 -0.0118453335
-0.008845763 -0.0065170773 -0.008291465 -0.012021363 -0.0026696427 0.005387785 -0.011085527 0.002957963
0.008698898 0.0012184738 0.0018042679 -0.010194535 0.012355297 0.0073523084 0.0029765621 0.0037774947
-0.011743492 0.0128570525 0.0038202796 -0.005841035 -0.010217245 0.0055361907 -0.0025117307 0.007542369
0.004749538 0.009134901 -0.0016627968 0.010761923 -0.0044273594 0.012118054 0.0042879423 0.010046775
0.011056457 -0.009293242 -0.007726625 0.0069338526 0.01161674 -0.0035186922 -0.013711086 0.0018452331
-0.012149511 0.010327922 0.011195561 0.0066079465 0.0008081513 0.0034596033 -0.0014777741 0.010851687
0.011280207 0.010155199 -0.009695471 -0.014291602 -0.013399806 -0.0039863293 -0.013423434 0.008626852
-0.012585226 0.010488104 -0.009673149 0.0076128445 -0.0052902787 0.00845023 0.012655347 -0.0018401328
-0.0060479078 -0.009618487 -0.011405293 -0.010007597 -0.011667722 -0.011198548 0.0112256585 0.006638415
0.011574411 -0.009168247 -0.012306716 0.0046330285 0.0043979837 -0.010725238 -0.010057139 0.0036978691
-0.013943464 0.0046933857 -0.0129804155 -0.0064261975 -0.0036655306 -0.0055875094 0.011127089 -0.0131451255
-0.0061887065 -0.0025947965 -0.005106077 0.010301223 -0.007701449 -0.010060156 -0.01176621 -0.009643253
-0.007916036 -0.010831514 0.00060564734 -0.00027141775 -0.008234866 0.007270988 -0.009541431 -0.008502956
0.0058337846 -0.0090803495 -0.008478585 0.00034487844 0.006909089 -0.010804298 -0.009459407 0.008757354
0.0039292485 -0.0060446737 0.0059269005 0.0091401115 -0.008444739 0.010596848 -0.007815002 -0.005889709

conv_layers.0.params.6 f4 [128]
00000000: 5707 7f3f 9330 823f e094 803f 66eb 803f
00000010: 08c8 7c3f da71 803f 9bbb 803f 8ba3 813f
00000020: efc7 7e3f b220 7c3f 3a80 803f 8244 7e3f
00000030: 4b0f 7c3f 6fba 813f f53f 7e3f 45d6 7d3f
00000040: bd62 7f3f 3b70 7f3f e986 7b3f 40bb 7c3f
00000050: fd18 7e3f 0258 7e3f 0c57 803f ec1c 823f
00000060: 4719 7d3f 07c1 803f 2d51 813f e48b 823f
00000070: dfff 803f bfa1 813f 6cbd 813f 3baf 7c3f
00000080: 0446 803f b883 7c3f 19e9 813f f533 803f
00000090: aefe 813f 8e9e 813f 96ef 7c3f f294 7c3f
000000a0: ae3d 813f 5066 7c3f 12ed 803f ee14 823f
000000b0: 816f 803f cc94 7d3f 172a 7c3f 93ae 7e3f
000000c0: c14a 7d3f 1349 7d3f d6b3 803f f317 813f
000000d0: 9652 803f 6b65 7d3f d432 7c3f fcf3 7e3f
000000e0: 6af1 7b3f dc8f 7c3f 2db6 7e3f 7cce 813f
000000f0: 59b5 803f 1bad 823f ba47 7d3f c91b 7d3f
00000100: cbcc 803f 9a98 803f 2c17 7e3f cefe 7d3f
00000110: 7cbe 7b3f b035 813f a60c 803f 6c7c 803f
00000120: 3fbf 7f3f 101e 803f ec7f 813f ecda 813f
00000130: 7c9e 7e3f b070 7f3f f779 7f3f 16ea 803f
00000140: fcec 7c3f b189 803f 579f 7e3f 2770 7f3f
00000150: 7e00 7d3f f141 7e3f 2bb3 813f a088 803f
00000160: 801c 7f3f 5827 7d3f a481 7f3f 3d5a 813f
00000170: 4138 803f f921 7d3f 644f 7d3f 5c7e 813f
00000180: ad68 7d3f c054 813f f575 803f 0647 7e3f
00000190: 2171 803f a5c3 7d3f 1d4e 803f b8a6 7e3f
000001a0: 043d 813f 9b96 7d3f 89b0 7e3f d047 7f3f
000001b0: 2910 7f3f 77db 813f dd2d 813f 0ad0 813f
000001c0: dc46 7e3f 3d9c 813f 46d4 7f3f 0c3c 803f
000001d0: 881d 813f 042a 803f 5e9a 803f 1826 7d3f
000001e0: d83d 803f 289b 7f3f 20f7 803f 7fd9 7f3f
000001f0: 7b59 803f 8924 813f 41f4 813f cf80 813f
0.99620575 1.0171074 1.0045433 1.0071838 0.98742723 1.0034745 1.0057253 1.0128034
0.99523824 0.9848739 1.0039132 0.99323285 0.98460835 1.013502 0.9931634 0.99155074
0.9976004 0.99780625 0.9825273 0.9872322 0.9925688 0.9935304 1.0026565 1.0165076
0.98866695 1.0058907 1.0102898 1.0198941 1.0078086 1.0127486 1.0135932 0.9870488
1.0021367 0.98638487 1.0149261 1.0015856 1.0155847 1.0126512 0.9880308 0.9866477
1.0096948 0.98593616 1.0072348 1.0162637 1.0034028 0.9905517 0.98501724 0.9948513
0.9894219 0.9893963 1.0054882 1.0085434 1.0025203 0.98982877 0.9851506 0.9959104
0.98415244 0.9865701 0.9949673 1.0141139 1.0055343 1.0209078 0.9893757 0.9887052
1.0062498 1.004657 0.9925411 0.99216926 0.9833753 1.0094509 1.000386 1.003797
0.99901193 1.0009174 1.0117164 1.0144935 0.9946058 0.9978132 0.9979548 1.0071437
0.9879911 1.004202 0.99461883 0.99780506 0.98828876 0.9931937 1.0132803 1.0041695
0.9965286 0.9888816 0.9980719 1.0105664 1.0017167 0.98879963 0.98949265 1.0116687
0.9898785 1.0103989 1.0035998 0.99327123 1.0034524 0.99126655 1.0023838 0.9947314
1.0096745 0.9905793 0.9948812 0.9971895 0.99634033 1.01451 1.0092121 1.0141613
0.9932687 1.0125805 0.9993328 1.0018325 1.0087137 1.0012822 1.0047109 0.9888625
1.0018873 0.99846125 1.0075417 0.9994125 1.0027307 1.0089275 1.0152665 1.0117434

conv_layers.0.params.7 f4 [128]
00000000: 2029 803f 5c02 803f cceb 7f3f 6a55 803f
00000010: 32a0 7c3f b101 813f 4ae6 7e3f 4cb4 7e3f
00000020: 084a 7d3f b016 7d3f 9bc0 7e3f 3537 7e3f
00000030: bf29 803f aa22 7d3f 936e 7e3f 2cfd 803f
00000040: 74d7 803f 4478 813f 423e 7d3f 4e18 7f3f
00000050: 3478 813f bcaf 813f 1d58 7c3f 2ba9 803f
00000060: e22f 7f3f 95f3 7b3f eb22 7f3f fbdc 7e3f
00000070: adb5 803f ddaa 813f 21bc 7e3f 71c6 7c3f
00000080: 2b77 813f 57f3 803f d58a 803f 03c0 803f
00000090: cd48 7c3f 86a4 7f3f 51aa 813f 69cb 7e3f
000000a0: a7ed 7c3f 9a23 7c3f d95a 7e3f f942 7e3f
000000b0: 59c1 7d3f 597b 813f b26b 7f3f 6f77 7e3f
000000c0: ee64 813f d251 803f 9666 813f c185 7d3f
000000d0: a689 813f 25e7 803f 232d 813f f8e5 803f
000000e0: 1f5e 7d3f bc61 813f 6023 813f 0d4c 803f
000000f0: d803 803f b6ab 803f ac0d 7d3f 976d 7f3f
00000100: 6840 813f 743c 7d3f 1d89 7c3f b349 7d3f
00000110: 8f20 7f3f f56d 7e3f 9b2d 7f3f 194b 7f3f
00000120: 2f43 803f c1ae 803f ae17 803f a4f6 803f
00000130: 89be 803f daf5 7d3f 499b 7c3f ab1e 7f3f
00000140: a426 7f3f 4334 7c3f 6143 813f 857c 7e3f
00000150: 0543 7e3f 6f0d 7d3f a519 7e3f c4ae 803f
00000160: c4ca 7f3f ba82 7f3f 010b 813f be76 813f
00000170: 9d1b 803f 8e27 803f 5680 7e3f a00a 803f
00000180: 663a 803f 6b43 7f3f 2892 7c3f 3ee9 803f
00000190: 5b0e 7e3f e4d8 7e3f c03e 7f3f d2b9 813f
000001a0: aa0f 7d3f 4830 803f ce7d 813f ba13 803f
000001b0: 65c2 7d3f 0740 7f3f 82bc 813f f50e 7f3f
000001c0: ba4d 803f f859 813f ba78 813f 905e 813f
000001d0: 0738 7e3f c2a3 7c3f afda 7e3f 40c0 7c3f
000001e0: be21 803f 8fb4 7d3f d5bc 803f 355e 813f
000001f0: f281 803f c6e9 7e3f c1e7 7c3f 9798 803f
1.001255 1.000072 0.9996917 1.0026066 0.9868194 1.0078641 0.99570143 0.9949386
0.9894109 0.98862743 0.9951264 0.9930299 1.001274 0.9888102 0.9938747 1.0077262
1.0065751 1.0114827 0.9892312 0.9964646 1.0114808 1.0131755 0.9857195 1.0051626
0.9968244 0.9841855 0.99662656 0.9955594 1.0055443 1.0130268 0.9950581 0.987403
1.0114492 1.0074261 1.0042368 1.0058597 0.98548585 0.9986042 1.0130101 0.9952913
0.9880013 0.98491824 0.9935737 0.9932094 0.9912315 1.0115768 0.99773705 0.9940099
1.0108926 1.002497 1.0109432 0.9903222 1.0120132 1.007054 1.00919 1.0070181
0.9897174 1.0107951 1.008892 1.0023209 1.0001173 1.0052402 0.98848987 0.99776596
1.009778 0.9892037 0.9864672 0.9894058 0.99659055 0.9938653 0.99678963 0.99723965
1.0020503 1.0053331 1.0007226 1.0075269 1.0058147 0.99203265 0.98674446 0.9965617
0.99668336 0.98517245 1.0098687 0.9940875 0.99321014 0.98848623 0.9925788 1.0053334
0.9991877 0.9980885 1.0081483 1.0114362 1.0008427 1.0012071 0.99414575 1.0003242
1.0017822 0.99712247 0.98660517 1.007118 0.99240655 0.995497 0.99705124 1.0134833
0.98852026 1.0014734 1.0116518 1.000602 0.9912475 0.9970707 1.0135653 0.996322
1.002372 1.0105581 1.0114968 1.0106983 0.9930424 0.98687375 0.99552435 0.9873085
1.0010297 0.99103636 1.0057627 1.0106875 1.0039656 0.9957546 0.9879113 1.0046567

conv_layers.0.params.8 f4 [128]
00000000: 37dc 7c3f ae39 7c3f b231 7f3f f660 7e3f
00000010: 7879 7e3f 3910 813f 24d8 7d3f 061e 813f
00000020: fd79 7f3f e03c 7d3f 03c6 7c3f a9c1 803f
00000030: cc41 7f3f c7ce 803f ccd4 803f d105 803f
00000040: 91b5 7e3f f043 7e3f 7510 803f c19c 803f
00000050: 26b0 7e3f b19e 7f3f 5eb7 7f3f a31a 7d3f
00000060: b9e3 803f 9b0f 7f3f 70b6 7d3f fffb 7c3f
00000070: 16bb 803f a306 7e3f d5ab 7f3f d768 7f3f
00000080: d439 7c3f e193 7e3f 64b9 803f f84b 803f
00000090: d9ad 803f f602 813f e7ba 7f3f e596 7f3f
000000a0: c2f6 7f3f 5325 803f bca0 7c3f 95ee 7e3f
000000b0: dd34 7f3f 5f72 7f3f 192a 813f 4a2f 7d3f
000000c0: a0b4 813f 02d5 7e3f 8a7e 803f 11a2 7f3f
000000d0: b008 7d3f 71c4 7d3f efbe 7f3f f3ce 7c3f
000000e0: 703e 7e3f 727b 7f3f 8a3a 803f 4f82 813f
000000f0: da76 803f 61b8 7e3f bdc9 7f3f aafc 803f
00000100: d67c 813f 291b 803f 8304 803f 8085 7e3f
00000110: fb3d 7e3f 5fab 7f3f 53cc 803f 226e 7f3f
00000120: 0bc8 7e3f dbe4 803f af14 7f3f 7726 813f
00000130: a20b 813f efc2 803f 5f4b 7f3f c865 7e3f
00000140: 193e 803f d3c8 7c3f ee86 803f 87cc 7c3f
00000150: 7879 813f 0ba1 803f 62fb 803f da0e 7d3f
00000160: b325 803f fdbc 7d3f a012 813f a394 7f3f
00000170: 0a7b 7e3f 06ba 7d3f 8fee 803f d620 803f
00000180: a93a 7e3f f927 7f3f 75a8 7d3f 4d72 7e3f
00000190: fffd 803f d341 813f df49 803f 0077 7f3f
000001a0: 196e 813f 4f5f 7e3f ac5d 7e3f 6765 7c3f
000001b0: c15a 803f 4e20 813f d483 813f e9bc 803f
000001c0: 29de 7e3f 8be2 7f3f 2bee 803f 9a6d 803f
000001d0: eaf5 7d3f f509 813f 382c 803f fa58 7f3f
000001e0: 5015 7d3f bc17 813f 6e86 7c3f 9014 803f
000001f0: a018 813f 126f 813f 2dde 7c3f 458f 7c3f
0.9877352 0.9852551 0.99685204 0.993667 0.99404097 1.0083076 0.9915793 1.0087287
0.99795514 0.9892101 0.9873964 1.00591 0.99709773 1.0063103 1.006494 1.0001775
0.994958 0.99322414 1.0005022 1.0047837 0.9948753 0.9985152 0.9988917 0.9886877
1.0069495 0.9963319 0.991065 0.98822016 1.0057094 0.99228877 0.9987157 0.9976935
0.9852574 0.99444395 1.0056577 1.0023184 1.0053054 1.0079029 0.99894565 0.9983962
0.999859 1.001139 0.9868276 0.995828 0.9969004 0.9978389 1.0090972 0.9890028
1.0133247 0.99543774 1.0038617 0.9985667 0.9884138 0.9912787 0.99900717 0.9875328
0.9931402 0.9979774 1.0017865 1.0117892 1.0036271 0.9950009 0.99917203 1.0077107
1.0116222 1.0008289 1.0001377 0.99422455 0.99313325 0.99870867 1.0062355 0.99777424
0.9952399 1.0069841 0.99640936 1.0089864 1.0081675 1.0059489 0.9972438 0.99374056
1.0018951 0.98743933 1.0041177 0.98749584 1.0115194 1.0049146 1.0076716 0.98850787
1.0011505 0.991165 1.0083809 0.99836177 0.9940649 0.99111974 1.0072802 1.0010021
0.9930826 0.9967037 0.9908517 0.9939316 1.0077513 1.0098213 1.0022544 0.99790955
1.0111724 0.9936418 0.9936168 0.9859223 1.0027696 1.0087984 1.0118356 1.0057651
0.9955774 0.9995505 1.0072683 1.0033448 0.9920336 1.0081164 1.0013494 0.9974514
0.98860645 1.0085368 0.98642623 1.0006275 1.008564 1.0112021 0.98776513 0.9865611
