trained_model/2025-06-19_18-34-19/saved_model_2025-06-19_18-34-19.pkl (torch, 820950 bytes, 54 tensors)

conv_layers.0.f_lin.0.weight f4 [128, 5]
00000000: 5ad2 31bd 3139 09be fbf0 493e df4f a43d
00000010: 6707 203e cd86 c43d 1270 26be 7376 f6bd
00000020: b598 323d 4ccf 11bd 81a5 07be edc8 173e
00000030: 7c11 e9bb 8146 303d d4a2 44be 91ea 40be
00000040: cc4a afbc 20c2 ecbd fd55 e8bd 05cd adbd
00000050: 1967 813d d19b 2f3e eac0 29bd eb04 1dbe
00000060: f166 95bd 0b09 e7bd 8138 533e e27f 453e
00000070: 0b90 b5bc a409 403e a1f3 cabc 1719 47bd
00000080: 92a0 adbc 9cf3 453d 77de 43be 5e05 3d3e
00000090: 67ac e5bd 69c7 3c3e cf2d cc3d 313c a1bd
000000a0: d536 24be 1cc1 b73d 5999 3bbe ae6d 52be
000000b0: f578 4e3e e35f 67bd 21ff d63d eac9 c83d
000000c0: f57b 663d 1247 3e3e 7fc4 85bd 4acb 53be
000000d0: 574d 79bd 25e5 233e 1aed 123e d353 3a3e
000000e0: 618d 58be 57fa 9b3d 3a92 5dbe 7ba2 1c3e
000000f0: 39ce c43c 5700 223e 2703 3abe f303 0dbe
00000100: 63df 25bd c60a 8abd 8044 d6bb 9b8a 04be
00000110: 3adb b5bd 1dfc 4e3e 0cda 463e 61b8 103e
00000120: 90a1 43be 32cb 74bd 867f fb3d 074c 11be
00000130: cc2e 0fbe 8ccc 63bc 6f88 cb3c b6b8 f3bd
00000140: b69c 0c3e d1d8 b13d c14e 303e 8182 263e
00000150: 9fa4 e7bc 73e7 12be bccd 95bd 803f 08bd
00000160: e9f8 893d 7e07 4dbe 0a72 61bd 7a78 f73c
00000170: 07a8 44be bb29 0fbe 0353 a3bd 2455 ab3d
00000180: d7d5 c0bd 80bd 3e3e b62a 203e 4e40 d13d
00000190: 668f 203e ce45 093b 7648 943c e785 c23d
000001a0: 4700 003d 5a36 3c3e b5ac 9dbd 3526 5d3d
000001b0: c386 0fbd 9b48 0abe ce3c a0bd ff04 153e
000001c0: 9166 29bd 9000 88bd 01a1 223e 2575 c13d
000001d0: 5dc7 c8bd 960c 453e d931 613e d7c4 57bd
000001e0: 54e3 cb3d e3e6 22be 02cf 983d a1c9 1b3e
000001f0: 83ef fa3d 1235 b43c 1b15 70bc 0af8 09bc
00000200: 967b 4c3e 82fc adbd 1763 d6bd e06a fd3d
00000210: fe14 b5bd 10f6 393e 8a89 24be 53f0 d7bd
00000220: 8763 963d 8aa9 e7bd 763e 9c3d d7b9 193e
00000230: 17ec 5b3d 6275 38be 1bc0 19be f5ee b63d
00000240: fdbe 60be 5679 dd3d 2cac 46be 1826 23be
00000250: cad3 22be bea1 df3d 4c2a 47be f425 a83c
00000260: a706 d63d 9d6f 6dbd aa99 ad3d 3740 ac3d
00000270: 402b 363e 6df0 9bbd 0245 3f3e 5db4 aabc
00000280: e3dc d7bd 001e 17bd dba8 e1bd 1225 aebd
00000290: c94a 45bb 74a1 203e 1317 1b3e acfa 8a3d
000002a0: 8a37 363e dc5d 55bd 99b4 37be 71ad 573e
000002b0: d7e1 4abe 78ed 083e a1f6 253e dcba 443e
000002c0: ee13 4dbe e4a5 583e 2da8 2ebe b6d3 493e
000002d0: 17da 18be 2916 c9bd 08e3 6ebd 13e1 a73a
000002e0: 1763 febc ad30 083d f134 23be 4e59 3b3e
000002f0: db67 5a3e e2ae f93c 01bf aa3d 4c2e 99bb
00000300: eee9 04be 881e a7bc 584f d6bd 265b 423d
00000310: 351c 283d 7a60 763d f30a a0bd fd67 b9bd
00000320: c788 47be 51af 203e a192 b83c de95 77bd
00000330: 043d 9cbd b9d9 03bc 934d 49be a40b c03d
00000340: 405d 993d 71dd 58be efd1 36be 0db7 673c
00000350: 7613 063e 61a7 d63c b7ef b13a 4df2 30be
00000360: 1d5c 563e e651 023e 2375 17bd 6c14 203e
00000370: 5658 253e 582d 0bbe 5a47 853b faef 36bc
00000380: 3745 0c3e b5ce 1c3e d3a6 4dbd 07c9 0bbd
00000390: 0aaf cf3c 9ea1 553e ccc2 273e 51cb dbbd
000003a0: 2372 00bb 6410 723d 1838 c9bc b5e2 803d
000003b0: 49e5 e4bd a4a3 a93d a54a 543d 67de 0ebe
000003c0: 2cc4 16be 3e00 c0bb 3682 1c3e 4125 143e
000003d0: 4abe 023e 3d61 03be b874 cdbd 7814 80bb
000003e0: 03e5 9d3d 42b3 96bd cd1a d6bd bd74 02be
000003f0: 0d39 c43d a99a cc3d 9592 073e e8ce 4e3e
-0.043413498 -0.13400723 0.19720833 0.08023047 0.15627824 0.09596024 -0.16253689 -0.12034311
0.043602664 -0.035598084 -0.13246728 0.14822741 -0.00711268 0.043035988 -0.19202739 -0.1883948
-0.02139797 -0.11560464 -0.11344526 -0.0848637 0.063184924 0.17149283 -0.041443743 -0.15333907
-0.07295025 -0.11281022 0.20627023 0.19287065 -0.022163412 0.18753678 -0.024774374 -0.048607912
-0.02119473 0.048328027 -0.19127832 0.18459079 -0.11214524 0.18435444 0.09969675 -0.07872809
-0.16036542 0.089723796 -0.18320216 -0.20549652 0.20163329 -0.05648793 0.10497881 0.09804137
0.05627056 0.18581799 -0.06531619 -0.20683017 -0.060864773 0.1600538 0.1434826 0.18196039
-0.21147682 0.07616108 -0.21637812 0.15296356 0.024024116 0.15820442 -0.18165265 -0.13771038
-0.04049624 -0.06740336 -0.0065389276 -0.12943499 -0.08879705 0.20213361 0.19419116 0.14132835
-0.191046 -0.059764095 0.122801825 -0.14189158 -0.13982695 -0.013903748 0.02484533 -0.11900465
0.13731655 0.086839326 0.17217542 0.16260721 -0.02827674 -0.14346103 -0.07314631 -0.033263683
0.06736929 -0.2002239 -0.055040397 0.030208815 -0.19204722 -0.13980763 -0.079748176 0.08365849
-0.09415787 0.18626976 0.15641293 0.10217343 0.15679702 0.0020946148 0.018100958 0.09498196
0.031250264 0.18380108 -0.07698957 0.053991515 -0.03504063 -0.1350426 -0.078240976 0.14552687
-0.04135758 -0.06640732 0.1588173 0.09446172 -0.098036505 0.19243082 0.21991672 -0.052677955
0.09955469 -0.15908389 0.074613586 0.15213634 0.122527145 0.021997962 -0.014653469 -0.0084209535
0.1996902 -0.08495428 -0.10468119 0.123739004 -0.088418946 0.18160272 -0.16068092 -0.10543885
0.07343202 -0.11311634 0.07629101 0.15012299 0.05369195 -0.18013528 -0.15014689 0.08932296
-0.21947856 0.108141586 -0.19401616 -0.159325 -0.15901104 0.10919522 -0.19449729 0.02052591
0.104504876 -0.05796777 0.08476575 0.084106855 0.17789936 -0.07614217 0.18678668 -0.020837957
-0.10540178 -0.036893845 -0.11018535 -0.08503164 -0.003010439 0.1568659 0.15145521 0.06786093
0.17794624 -0.052091464 -0.17939986 0.21062256 -0.19812714 0.13371837 0.16207363 0.19211906
-0.20027134 0.21157032 -0.17056341 0.19709668 -0.14926945 -0.0981868 -0.058321983 0.0012808166
-0.03105311 0.033249546 -0.15938164 0.18295786 0.2132868 0.030478898 0.08337212 -0.0046747085
-0.12979862 -0.0204003 -0.10464352 0.047450207 0.041042525 0.0601506 -0.078145884 -0.09053037
-0.1948577 0.15691878 0.022530856 -0.06044566 -0.07628825 -0.008047515 -0.19658498 0.0937722
0.07488489 -0.21178223 -0.17853521 0.014142764 0.13093361 0.02620286 0.0013575469 -0.1727993
0.20933576 0.12726554 -0.036976945 0.1563279 0.16146979 -0.13591516 0.0040673437 -0.011165613
0.13698278 0.15313227 -0.050207924 -0.03412726 0.02535202 0.20862433 0.16382903 -0.10732139
-0.001959928 0.059097663 -0.02456288 0.06293241 -0.11176545 0.08283165 0.051829 -0.13952027
-0.14723271 -0.005859404 0.15284047 0.14467336 0.12767902 -0.12830062 -0.10032028 -0.00390869
0.07709696 -0.073584095 -0.104543306 -0.12739845 0.09581194 0.099904366 0.1323951 0.20196116

conv_layers.0.f_lin.1.weight f4 [128, 5]
00000000: 8107 9cbd e80a 403e dc7e aebd dfc4 ba3d
00000010: 6803 363d 6c2e f83d 2a9e 153e d300 83bd
00000020: 0449 d8bd 3d18 593e c14a 9cbb a74e d23d
00000030: 0525 3d3d 2c15 9f3d b5cd 7cbd 095f 47bd
00000040: b5b4 f0bd fb7d 173e 44f8 873b 276e cd3d
00000050: adb9 cdbd c250 4e3e 778d d73d f4ca 293e
00000060: 05ce 433e 9b47 99bd 5635 013e 2b50 cc3d
00000070: cd3d 47ba 9e64 05bd df6e de3d 01d3 1abe
00000080: d516 9a3d c1ab 723c d9c0 f8bc 9430 18be
00000090: 9bf3 2abe 1ece 22be 65c1 303e 2ab8 0dbe
000000a0: 5fff 27be 1361 43be c884 1f3e b65e 4abe
000000b0: 80db a5bb 13b1 4b3e 81a4 ac3d af95 493d
000000c0: 8031 233e 1e8f b83d 5b90 64bd 233b 36be
000000d0: 57bb 60bd 0a27 0e3e 4ff6 b2bd ee71 3e3e
000000e0: 79ed f4bc 719d 4cbe 4e39 303e 6c9a ae3d
000000f0: bc03 163e 8984 27be 3d82 0c3d d771 23bd
00000100: aedb 513e 9db4 0f3d 09c2 4a3e 2cf1 de3c
00000110: af17 993b 7e63 15be e1e1 fbbd ada8 2b3e
00000120: ba99 4138 0bbc 2b3d 488e 52be 17c2 3abe
00000130: 8180 693d fb6a 39be 7671 40be ba57 803c
00000140: 9059 c03d a5be 0e3d 5f73 58bc acd5 cfbd
00000150: e076 f3bd 570c 99bd 2733 dd3c 2105 7f3d
00000160: 858d 853c dbfa 4f3d 377c 90bd 6e40 e83d
00000170: fb2d 363e a73c bfbd cfbb c0bc cb76 883b
00000180: b0a4 c23b 3e87 08be cc67 c1bd 83ef f5bd
00000190: 280b f5bc 7920 20bd 1e6a 463e d777 133c
000001a0: 2466 4fbd 9a0b 11be 49d6 343c 8b64 46be
000001b0: 5edc 8a3d 0dad d3bd 114a 27be c4c2 d0bd
000001c0: 6671 3abd ab86 013e f173 c03d c375 123e
000001d0: 0c8a 18be 5073 aabd d509 183e 775b 113e
000001e0: 3f51 41be 4b62 febd 0ae3 a13a 9991 093e
000001f0: f797 423c a254 15be 587e 7fbd d1b5 f3bd
00000200: 0e50 a43d 759e fdbd 17d4 9abd 8d77 443e
00000210: 6e71 d53a 8642 44be c84a 8fbc c67f 9abd
00000220: f375 02bd 2e20 8c3d 5886 42bd 2501 083e
00000230: 2471 2fbb cb3c cd3d d8bf d03d 3d67 14be
00000240: 0fee 353e edc5 bb3d e3cc af3d c7e3 9e3d
00000250: ecb1 2a3e e4ca 303e be2b 663d 5aec 1f3e
00000260: b72c 0d3d c36b 9a3d eda8 2dbd 3197 b1bd
00000270: 0fe4 47be 664b 17be 6bca 95bd 83b7 d43d
00000280: c183 cbbd 8364 12be 0637 453e ed1a ff3d
00000290: acf2 7f3d d00c 87bd f3af 47be 65d7 48be
000002a0: 466c 1ebb 9ed2 33be 8770 e63d e4c9 6fbd
000002b0: 0f69 72bd be17 67be e968 f8bd 48e6 83bd
000002c0: c49a 203d 2514 cbbd b608 e23c 6b37 043e
000002d0: 3f3d e8bd 0ab9 73bd 274f 52be 12d8 25be
000002e0: 01f6 a43c 5855 39be 978b 193e fa8e e73d
000002f0: 12bf 06be 814f eebd 49a6 1abe 4e1c d23c
00000300: 71bd 02be b2fa 5e3c 5fb5 1a3e 2e5d a13d
00000310: 5982 16be 97ee 2b3d a4cd 65be 5172 513e
00000320: 189b 163e d867 053e 1c12 123e 0877 9e3d
00000330: 24b4 2cbe 1d4e 20bd ac1f 2dbd 18e5 573d
00000340: 0336 843d de32 223d 182a 8c3d 1800 3d3d
00000350: 80a0 243e 31ee f93d cbe4 c0bd 77f3 543d
00000360: edd6 923d 6099 a8bd 2c5f 373e 0126 53be
00000370: f02f f2bc ec90 0b3e 3da4 b2bd ad60 123e
00000380: 4595 02bd 7a99 b2bd 0898 b9bd da59 e03d
00000390: e891 2c3e 12ac e8bd de1b 393e f2d6 57be
000003a0: e94e 8f3d eb5e 11be 02fd f4bd b3ef debd
000003b0: 0588 483d 71be 4d3e 2256 c5bd b164 0abe
000003c0: dff7 193e 6371 46be c18a 67bd e0bf 413e
000003d0: b7d9 073c c679 cf3d 8874 2fbe 11d3 aa3d
000003e0: b2e1 533e db2a cabd 7b13 553d fd57 293e
000003f0: f9f7 ce3d 1e1c 41be b5de f3bd 68c1 c23c
-0.07618619 0.1875416 -0.0852029 0.091195814 0.044436842 0.12118229 0.14611116 -0.063966416
-0.105608016 0.21200652 -0.0047696535 0.10268908 0.046177883 0.0776771 -0.061719615 -0.048674617
-0.11753217 0.14794151 0.0041494686 0.100307755 -0.100451805 0.20147994 0.10525029 0.16581327
0.19121559 -0.07484361 0.12618002 0.09976228 -0.00076004566 -0.03256666 0.10860991 -0.15119554
0.07523886 0.014811457 -0.030365394 -0.14862281 -0.1669449 -0.1589894 0.17261274 -0.13839784
-0.1640601 -0.1908 0.15577996 -0.19762692 -0.005061567 0.19891767 0.08429814 0.049215015
0.15936852 0.090116724 -0.05580173 -0.17795996 -0.05486616 0.1388208 -0.08738386 0.18598148
-0.029898392 -0.19981934 0.1720936 0.085255474 0.14649862 -0.16359152 0.034303892 -0.039903488
0.20493957 0.035084356 0.19800581 0.02721461 0.0046720128 -0.14588735 -0.12298942 0.16763563
4.6157955e-05 0.04192738 -0.20562088 -0.18238102 0.057007316 -0.18107216 -0.18793282 0.015666831
0.09392083 0.03484978 -0.0132111 -0.101481766 -0.11887908 -0.07473057 0.02700193 0.06226075
0.016302833 0.050776344 -0.07054942 0.11340414 0.17790978 -0.093377404 -0.023527054 0.004164552
0.0059400424 -0.13332841 -0.09443626 -0.12008574 -0.029912546 -0.03909347 0.19376418 0.00900074
-0.05063452 -0.14164582 0.011037418 -0.19374292 0.06780313 -0.10335741 -0.16336848 -0.101933986
-0.0455183 0.12649028 0.09397114 0.14302735 -0.1489641 -0.08322775 0.148475 0.14195047
-0.18878649 -0.12421092 0.0012350988 0.13434447 0.011877052 -0.14583066 -0.06237635 -0.11899913
0.08023082 -0.12383739 -0.07559984 0.1918623 0.0016284415 -0.19166002 -0.017491713 -0.07543902
-0.031850766 0.06842075 -0.0474914 0.13281687 -0.0026770318 0.10021361 0.10192841 -0.14492507
0.17766593 0.09168611 0.08584001 0.07758289 0.16669434 0.17264897 0.05619406 0.15617505
0.03446647 0.07540085 -0.04239743 -0.086714156 -0.19520591 -0.14774856 -0.07313999 0.103865646
-0.099372394 -0.14296155 0.19259271 0.124563076 0.06248729 -0.06594241 -0.19500713 -0.19613416
-0.0024173423 -0.17560813 0.11251932 -0.058542147 -0.059182223 -0.2256765 -0.12129385 -0.06440407
0.039210096 -0.09915952 0.027592044 0.12911765 -0.11339807 -0.05950264 -0.20538007 -0.16195706
0.020136835 -0.18098962 0.14994656 0.113065675 -0.13158825 -0.11636258 -0.15102495 0.025648262
-0.12767579 0.013609575 0.1510825 0.07879101 -0.14698161 0.041975584 -0.22441727 0.20453764
0.14707601 0.13027894 0.1426472 0.07737547 -0.16865593 -0.039136995 -0.042266533 0.052708715
0.064556144 0.039599292 0.06843966 0.046142668 0.16076851 0.122036345 -0.09418639 0.05199
0.071699 -0.08232379 0.17907399 -0.20619966 -0.029563874 0.13629502 -0.08722732 0.14294691
-0.031880636 -0.087206796 -0.09062201 0.10954638 0.16852534 -0.11360945 0.18077037 -0.21078089
0.06997473 -0.14196365 -0.1196232 -0.10885563 0.048957843 0.20092179 -0.09635569 -0.13514973
0.15035962 -0.19379191 -0.05652881 0.18920851 0.008291653 0.10130648 -0.17134297 0.08341039
0.20691565 -0.09871455 0.05202053 0.16537471 0.10105891 -0.18858382 -0.11907712 0.023773864

conv_layers.0.f_lin.2.weight f4 [128, 5]
00000000: c42b 833d c01b 753d 4c12 b03c e8c0 093e
00000010: f5d3 22be ff33 673d 21c1 1bbe 6546 afbc
00000020: 9612 ca3d fc24 bf3d ffde 0dbe 5db2 cd3c
00000030: e4bc bc3d 6143 62be 5dab 0abd 6a80 aabd
00000040: b4aa 433d 9f36 ecbd 8a4f 913d 7116 25be
00000050: a71e 3abe 9e0c 363e af78 83bd cfbb 0c3e
00000060: 09a5 c33d b2b2 23be 5c65 2e3e 96c0 12bc
00000070: 1c73 1dbe 8a08 433e 50d4 233e 5f98 81bc
00000080: 0602 863d 5816 113c 8a79 d0bd ccef b4bd
00000090: ae30 303e cbef 493e fe2f fd3b aefa 6d3c
000000a0: 3275 dc3d ee58 20be 3392 5bbb 5043 333e
000000b0: f86b 2c3e d26d 67bd c313 113e c507 57be
000000c0: 3bda b53c a691 2fbe 40f7 053d 14d9 b53d
000000d0: 9bcb 1e3e cc28 203e 4442 efbc 5485 e9bb
000000e0: e6ac caba ccd2 3fbd d559 f3bb e675 fbbd
000000f0: 954d 233e c6a8 18be 47d4 5f3d c08f c63d
00000100: 6c08 c4bd 8d61 53be 3397 a1bb 2c16 30be
00000110: 54ab 553e 3eaf 0abe dc7e f33c 7e22 d8bd
00000120: ecb7 3f3e 5eb9 d5bd ad8a b3bc ee97 173d
00000130: faf1 f43b 7d64 0e3e 0923 703d 4782 e33d
00000140: cc89 41bd 2a22 373e 462f 303e 89ed 58be
00000150: 19b7 323e 47e2 a73d 5def bebd 1ce9 b53d
00000160: d410 053e bb7f 493e 7386 933d f002 e8bc
00000170: fa57 b5bb 987c efbd e8f6 41be bab5 0b3d
00000180: d852 293e 97d8 1abe 4105 f13d dc04 a33d
00000190: 8729 5dbd c4e8 573e 45f5 9b3d e900 eebd
000001a0: ea9d 06bd 127f 103e 5441 9ebd 3f7b 98bc
000001b0: 40f6 923d f41e 35be 4877 19be 1f7a 2abe
000001c0: 35a8 2abe b920 1d3e f5e8 0c3e af3b 19be
000001d0: 345b dd3d 1d91 2ebe fbe3 18be e2b6 2d3e
000001e0: 8aa6 383d 8444 ee3d db25 c93c b76d 48be
000001f0: 7055 493e 4f4e 4fbe ffdd fb3c 6835 133c
00000200: 4ef5 573e 4af5 4bbe c221 58be 9cb9 333d
00000210: 38ca 1dbc 9016 a13d c3c2 acbc 6542 23be
00000220: 9a5d 343e c7d1 7fbd 452f 8cbb 5f65 afbd
00000230: ffd6 7f3d e8b2 76bd 988c d1bc 021e fa3d
00000240: ec2b 4a3e 7d5b 0d3e b637 373e e389 2bbd
00000250: 22cf 8b3d ce11 933d b1dc 12be 801c 63bd
00000260: 2427 fa3d eb12 98bd cc2c ffbd 369d d13a
00000270: d911 343e 8788 f6bd b014 513e d0fc 6abe
00000280: 188c a43c 78a1 2cbe 3236 0dbc b29a 52bd
00000290: 9ac7 c3bd 5cd6 993d 9e3b 49be 5a47 8c3b
000002a0: 2062 603e 0e17 e1bc 6126 41be 331e 13be
000002b0: 3385 2bbe c6c9 003e 0725 05be 5665 a23d
000002c0: b39a 55bd 6c6a 8e3d 43b8 fd3c c8d4 bc3d
000002d0: 92b2 0ebd c095 50bd 8abb 62bd f99a 3f3d
000002e0: befa 3d3e 8df2 ef3d e2d7 99bb 3680 353e
000002f0: 21bd d53d fe26 3a3e 859b 4e3d 34d2 c33d
00000300: 0b20 da3d d5bc 15be 456a a4bd 7358 42bd
00000310: 7133 523e ca13 7b3c 94c5 dc3d 5011 58be
00000320: 617d 1b3d 7187 803d 6e40 4c3e 5b7c 1b3e
00000330: db48 c7bd 96b3 3a3d abc6 d93d 4feb 89bd
00000340: 3243 3a3e f665 1e3b d8cb 8fbc df2e 523c
00000350: 32dc e7bd dc5b 253e 0844 89bd a606 c83d
00000360: dff5 563d e2bc ff3c f847 65be 4599 f2bd
00000370: 102d 0fbd af1e 85bd e999 50be 217b 973d
00000380: 3dea ec3d 9de3 40bd f9e4 ee3d f6e6 4fbd
00000390: 32b6 403e 1a14 53be f570 4dbe 92ed 17bd
000003a0: 88ec f73d 3073 1bbd d854 103e e7cd 3f3e
000003b0: 6424 dfbc 9b2c f0bd 0a01 20bc 08f1 e53d
000003c0: 3774 a03d 0cf1 40be 837c 193c 5960 1b3c
000003d0: 9f37 96bd af6b 343d a875 f83d e550 da3c
000003e0: 95c3 49be 8e8e 21be 77b8 3d3e 155e 593d
000003f0: 0d4b 453e 6a43 b03d 79bb 1b3e e54d 953d
0.06404832 0.059840918 0.0214931 0.13452494 -0.15901168 0.05644607 -0.15210392 -0.021395871
0.09866826 0.09333226 -0.13854598 0.025109464 0.092157155 -0.22096016 -0.03385483 -0.08325274
0.047770217 -0.11533856 0.07095249 -0.16121842 -0.18175755 0.1777825 -0.06419503 0.13743518
0.09552962 -0.15986136 0.17030853 -0.008957049 -0.15375942 0.19046226 0.1599896 -0.015819727
0.06543355 0.008855425 -0.10179432 -0.088348 0.1720607 0.1972038 0.0077266684 0.014525099
0.10764541 -0.15658924 -0.003350389 0.17506146 0.16838062 -0.056501217 0.14167695 -0.20999058
0.022198787 -0.17145404 0.0327065 0.08879295 0.15507357 0.15640563 -0.029206403 -0.0071264897
-0.0015462905 -0.04683189 -0.0074264803 -0.12278347 0.15947564 -0.14908132 0.054645803 0.09695387
-0.09571919 -0.20642681 -0.0049313544 -0.17195958 0.20866138 -0.13543412 0.029723577 -0.10553454
0.18722504 -0.104357466 -0.021916712 0.037010126 0.007475135 0.1390552 0.058627162 0.11108833
-0.047250554 0.17884126 0.17205533 -0.21184362 0.17452659 0.08197456 -0.09322999 0.08882353
0.129947 0.19677632 0.072033785 -0.028321713 -0.0055341693 -0.11693686 -0.18941844 0.034108855
0.16535509 -0.15121685 0.1176858 0.07959911 -0.05399468 0.21084887 0.07615141 -0.11621267
-0.032865442 0.14110973 -0.07727304 -0.018613456 0.07175875 -0.17687589 -0.14986908 -0.16648148
-0.16665728 0.15344514 0.13760741 -0.14964174 0.10808411 -0.17047544 -0.14930718 0.16964296
0.0450807 0.11634162 0.024554184 -0.19573103 0.19661498 -0.20244716 0.030745504 0.008984901
0.2108967 -0.19917789 -0.21106628 0.043878183 -0.009630732 0.078656316 -0.021088963 -0.15943296
0.17613831 -0.06245592 -0.004278096 -0.08564257 0.062460896 -0.060229212 -0.025579736 0.12212755
0.19743317 0.13804431 0.17892346 -0.041879546 0.06826617 0.0718113 -0.14342 -0.0554471
0.12214497 -0.07425483 -0.12459716 0.0015992287 0.17584933 -0.12037759 0.20418048 -0.22948003
0.020086333 -0.1685847 -0.008618878 -0.05141706 -0.09559555 0.07511589 -0.19651648 0.0042809667
0.21912432 -0.027476814 -0.18862297 -0.14366989 -0.1675003 0.1257697 -0.13002406 0.079294845
-0.052149486 0.06953892 0.030971652 0.09220272 -0.034838267 -0.050924063 -0.055354632 0.046778653
0.18552682 0.11716185 -0.0046949247 0.1772469 0.10436464 0.18178937 0.050441284 0.095615774
0.10650643 -0.14622815 -0.08028082 -0.047447633 0.20527436 0.015324542 0.107798725 -0.21100354
0.037961368 0.062758334 0.19946453 0.15184157 -0.09730693 0.045581423 0.10633596 -0.06734335
0.18189695 0.002416966 -0.017553255 0.012828558 -0.11321296 0.16148323 -0.06702429 0.09766893
0.052480575 0.031217996 -0.22390735 -0.1184564 -0.034955084 -0.06499993 -0.20371212 0.07396532
0.11568115 -0.04709207 0.11664767 -0.05075737 0.18819502 -0.20613137 -0.20062621 -0.0370918
0.12105662 -0.03795165 0.14094865 0.1873089 -0.027239032 -0.11727258 -0.009765873 0.11227614
0.07834666 -0.18841952 0.009368065 0.00948342 -0.07334828 0.044048008 0.12131816 0.026649902
-0.19703515 -0.15777037 0.18527399 0.05306824 0.19266911 0.08606608 0.15208234 0.07290248

conv_layers.0.params.0 f4 [128]
00000000: 5b17 933c 7606 b63a 5c40 90bc 5288 48bc
00000010: e18a 4f3c bd7f 0a3c e79b 70ba ecea 163c
00000020: a5ab 69bc 437c f43b c2d7 043b ce3f 683c
00000030: 6eba 80bc edd1 13bb 6a14 223b 88ab b7bb
00000040: 79a2 993c 9216 2c3b 9135 aebb bd24 64bc
00000050: e74d 6ebc 5ee4 39bc f697 34bc 6a8d 343b
00000060: c9f7 37bc 5390 e5bb 5cbf 9fbb cb2a 8c3b
00000070: 607a 0b3c 8a34 f9bb 67e1 923c 88fa eabb
00000080: 6dff 68bb 60a2 893c d95c e7bb 79fb a2bb
00000090: 961d 273b 3794 dd3b af5b 86bc 2f1b 8d3c
000000a0: cbbf 8fbc bf62 4a3c 640b be3b 27b9 8abc
000000b0: 2a8d 83bc bd35 96bc fb09 42bb 7d79 b6bb
000000c0: 4ed3 013b 61fb e5ba a787 973b 655f d93b
000000d0: 19a5 c13b d6c2 57bc 8ab3 09bc dc39 5e3b
000000e0: d645 19bc fd04 f53b c711 62bc e11a 853c
000000f0: 7e0b 27bc fa04 0fbc 0fb4 9f3b cd6c 0b3c
00000100: 7f28 4c3c a7e5 57bc 2bf3 0e3c b6fc eb3b
00000110: ba62 803c 2a46 523c aecf 10bc 7d2c bcbb
00000120: bbc5 723c 200b 413b 8ca7 5cbc e753 893b
00000130: c25b 87bb 6290 7abc 21d4 8d3c 5c4e 113b
00000140: 9d96 083c bed4 38bc 8cf9 86bc 6a42 d2bb
00000150: 722f 15bc eb6e 03bc f852 9cbb ceab 4a3b
00000160: c7a6 5abc 0b29 65bc 3d39 de3b bbaa e73a
00000170: 6e3c 98ba cbdf b0bb 83c8 01bb 54b7 5f3c
00000180: 4995 17bc 0935 3c3c d5dd 5ebc 1ac3 93bc
00000190: 9d8f 963c 4978 3dbc 7077 28bb 0252 86bc
000001a0: 08a1 1b3c 9eee fdbb ed9a 7dbc 0820 213c
000001b0: 4b41 4c3b 7ff3 6c3c 89a9 7abc 31b8 1bbc
000001c0: af72 6d3b 459c 743c fa67 82bc 608b 98bc
000001d0: 4dc2 ebbb 5a36 213c 1ae5 35ba bc72 ea3b
000001e0: 25b0 37bc c436 1d3b f21e 8dba 7c80 ee3b
000001f0: deca 83bb 7de0 18ba ae49 f33b e4fd eabb
0.017955473 0.0013887424 -0.017608814 -0.012239533 0.012667389 0.008453307 -0.00091785047 0.009211283
-0.014262115 0.007461102 0.0020270203 0.0141753685 -0.015713897 -0.0022555545 0.0024731406 -0.005605165
0.01875423 0.002625857 -0.005316444 -0.013924775 -0.014544941 -0.011345951 -0.011022558 0.002755011
-0.01122851 -0.00700573 -0.0048751067 0.0042775623 0.008513063 -0.00760514 0.017929746 -0.007170979
-0.0035552636 0.01680106 -0.007060629 -0.0049738255 0.0025499812 0.0067620534 -0.01640114 0.017224876
-0.017547509 0.0123526445 0.0057996977 -0.01693399 -0.016058523 -0.018336171 -0.0029608 -0.0055686818
0.0019809785 -0.001754623 0.0046243253 0.0066336864 0.0059095738 -0.013169011 -0.008404622 0.0033908999
-0.009355029 0.0074774013 -0.013798184 0.016248168 -0.010195611 -0.008729214 0.0048737596 0.008509827
0.012460827 -0.013177312 0.008724968 0.0072017564 0.015672076 0.012834111 -0.008838577 -0.005742608
0.01481765 0.0029456094 -0.013467681 0.00419091 -0.0041308114 -0.015293213 0.017313065 0.002217195
0.00833669 -0.01128119 -0.016476415 -0.0064166086 -0.00910555 -0.00802205 -0.004770633 0.0030925157
-0.013345427 -0.013986836 0.0067817257 0.0017674783 -0.0011614689 -0.005397772 -0.0019803352 0.013654549
-0.009251901 0.011487254 -0.013602694 -0.018037368 0.018379027 -0.011564323 -0.0025705956 -0.016396526
0.009498842 -0.0077493927 -0.015478832 0.009834297 0.0031166847 0.014462351 -0.015299209 -0.009504364
0.0036231687 0.014929836 -0.01591872 -0.018621147 -0.0071947933 0.009839619 -0.0006938741 0.0071547907
-0.01121143 0.0023988942 -0.0010766669 0.0072785 -0.0040219864 -0.0005831791 0.007424555 -0.0071713794

conv_layers.0.params.1 f4 [128]
00000000: b6e7 cdbb ef9e 90bc d124 7a3a 165a 07b7
00000010: 51fe 4bba 715d 133a 7402 06bc dbb4 d539
00000020: d0fd deb6 3696 54bb 47cf 25b7 82a1 febb
00000030: e7d5 a4bb d7f1 5e3a aebf cc39 f676 56bc
00000040: d07e c2bb 7885 7d38 4097 623a 75f1 41bc
00000050: 9597 71bb 64bf ff39 5a7e 76b9 7d0b eabb
00000060: e2eb f4bb a908 433a 4305 95bc 872d 103a
00000070: 4fdf 2fbc b92a 06b6 3114 4038 fcdb 9439
00000080: a00d abb5 8bae ac39 0f50 bf38 99c1 0f39
00000090: 7f76 8cbc d8af 23bc c63e 03bc 8fe3 d6bb
000000a0: 9231 013a 8703 3db9 a475 1dbb d360 2f39
000000b0: 57f2 a739 0264 e7bb d46d 8939 f89d 06bc
000000c0: 226e c6b8 5720 3cbb 2604 26bc e719 d0bb
000000d0: 51e5 d239 f0bd 9eb6 6459 43ba dca9 96bb
000000e0: 85a8 763a f36b 483a 75b2 78bb b973 563a
000000f0: a8b7 0b3a 4f50 92bc fc47 cb39 ae2a 8938
00000100: c644 ebbb 7185 a138 8e53 8b3a f554 3138
00000110: 8459 ecb9 5f38 9039 1c1a f639 2d9f 02bc
00000120: 11c5 483a bc19 b4b8 c8f7 fdb7 35da f1bb
00000130: ab3a c4b6 984e 33bc 0e43 63bc 6932 27ba
00000140: fde5 8cb6 f35c 2cbb 1248 d6ba 113a 92ba
00000150: 7bfb 35bc 5f8e 1dbb 14bd 90ba 4711 87bc
00000160: 8fd1 0ebc 6859 d137 6de0 8f39 f001 54b7
00000170: e5a2 a939 6093 9eb5 05ff 9fbb 008f 1fbb
00000180: e62f 1d3a 6b46 883a 58af b0ba 4981 2db7
00000190: 270d e4bb d5b4 90bb bdbd 07bc 2f1b 90b8
000001a0: 087e cc3a 7978 923a cc4b 03bc c136 953a
000001b0: 3205 0bbc 5d4c c539 5857 fbbb e94b 41b6
000001c0: d877 d7bb a6f4 63bc bfbb 2c38 f4d3 d2b7
000001d0: 84db 54bb 60cd 17b6 648b 8b39 74ed 5039
000001e0: e366 33bc 8dd9 82b9 d788 abba 64bd 2ab9
000001f0: e1dd 9f39 07b6 5ebc 9f3f cdbb 4e5f ed39
-0.0062837256 -0.01765391 0.0009542229 -8.067602e-06 -0.00077817315 0.0005621529 -0.008179296 0.00040761274
-6.6456632e-06 -0.0032438166 -9.883027e-06 -0.007770718 -0.005030382 0.0008504665 0.00039052725 -0.013089886
-0.0059355274 6.0444203e-05 0.0008643754 -0.011837353 -0.0036864032 0.00048779987 -0.00023507458 -0.007142483
-0.0074744085 0.000743995 -0.018190986 0.0005499948 -0.010734393 -1.9992424e-06 4.5795172e-05 0.0002839266
-1.2744458e-06 0.0003293644 9.122502e-05 0.00013709663 -0.017146347 -0.009990655 -0.008010572 -0.006557889
0.0004928346 -0.00018025759 -0.0024026418 0.0001672537 0.0003203328 -0.0070614824 0.00026212505 -0.008216374
-9.4618896e-05 -0.00287058 -0.010132825 -0.006350744 0.00040225175 -4.7308786e-06 -0.000745198 -0.0045978855
0.00094092666 0.000764548 -0.0037948166 0.0008180696 0.0005329796 -0.01786056 0.0003877281 6.540619e-05
-0.0071798293 7.701934e-05 0.001062976 4.227921e-05 -0.00045080122 0.0002750782 0.0004694023 -0.007972521
0.000765876 -8.587862e-05 -3.0275332e-05 -0.0073807486 -5.848085e-06 -0.010944031 -0.013870968 -0.0006378056
-4.1990993e-06 -0.002630052 -0.0016348383 -0.0011156221 -0.011107321 -0.0024041159 -0.0011042678 -0.01648773
-0.008716955 2.4956375e-05 0.00027442296 -1.2636636e-05 0.00032355558 -1.1814809e-06 -0.0048826956 -0.002434671
0.0005996212 0.0010396963 -0.0013479991 -1.0341705e-05 -0.0069595757 -0.004416088 -0.008284983 -6.8715184e-05
0.0015601525 0.001117482 -0.008013677 0.0011384116 -0.008485125 0.00037631663 -0.0076703243 -2.8803427e-06
-0.006575566 -0.013913309 4.1182848e-05 -2.513265e-05 -0.0032479474 -2.2620297e-06 0.00026616 0.00019924884
-0.010949823 -0.0002495762 -0.0013087046 -0.00016283017 0.00030492156 -0.013593203 -0.0062636877 0.0004527517

conv_layers.0.params.2 f4 [128]
00000000: 958a 77bb 750a d6bb ce30 173a ca56 81b6
00000010: 8270 0e3a 7ff0 d8bb 7b8f 50bc 084d 59bb
00000020: ffea 79ba 58be 1f39 ef64 98b6 8737 90b6
00000030: 4bc8 36bc ce00 293a 8976 e6bb 4650 5fbb
00000040: 6788 adbb 0498 49bc a305 53bb a0ff 8339
00000050: 7c66 25bb e09b 81bc 2e99 2aba 4ee2 7abb
00000060: 2365 3cbc 93c6 e1bb 624b c438 d95b e8bb
00000070: ef4c 76bb 6141 93b9 d1f8 443a 0af1 be38
00000080: 1d8c 4f3a 730e 1c3a c95a 12bc 70d1 2ebc
00000090: d821 c0bb ef05 eebb f42a 393a 08a6 77bc
000000a0: d073 e6b8 9511 393a f505 fdbb b27b 763a
000000b0: 07fd 59bb 4b12 d839 bc4b 3a3a 1b33 f039
000000c0: 5af2 443a 43eb 7c3a 4e04 a1bb ac55 0fbc
000000d0: 6a2b 88bc 2849 8a3a 814f efb7 8655 8539
000000e0: 207a 83ba e06d 85b7 063d 80bb 2c08 3a3a
000000f0: 243b 543a 49cf 6739 7887 06bc f6ad 2fbb
00000100: e5e0 b4ba 2384 90bc e5f8 8cbc 531b 63bc
00000110: ca20 feba e656 9aba 9e53 6839 32d8 7639
00000120: bd72 9bb6 c684 5cb6 93f7 45bc a8a4 853a
00000130: ad52 6a3a 0937 32bb f765 a3bb 3605 8dbc
00000140: 46bd cfbb 2469 90b8 4fc3 98bc 0c28 0c3a
00000150: 06af 15b7 4dc7 c039 0066 ee39 0c7d 4fbc
00000160: 635c 593a 5b04 023a 3cc6 d239 fe38 9ab7
00000170: b37c 8a3a 7230 82bc 6ee2 c5b8 934f 8239
00000180: 7ddd 3cb7 0a69 12bc ff5f 32b7 6841 173a
00000190: 2884 3a39 fe13 8939 f3a8 7fbc a547 d6bb
000001a0: f611 af3a 4e9d 9e38 c77c 47b6 804e 12bc
000001b0: 8f92 7739 a182 11bc 1404 07bb cc52 56bc
000001c0: 7c58 0038 f92f 4f39 59b1 1abb 6448 30bc
000001d0: ae0f 74bc b095 a83a f5bf b638 59a5 d9b6
000001e0: 17d3 92bb 6b84 d039 4a8e 53bb caf1 eb39
000001f0: a552 0e3a bca9 953a b016 0eb6 44d5 1f3a
-0.003777181 -0.0065320083 0.00057674653 -3.854603e-06 0.0005433635 -0.0066204662 -0.012729521 -0.0033157486
-0.00095336133 0.0001523433 -4.541703e-06 -4.2979987e-06 -0.011156152 0.0006446958 -0.0070331735 -0.0034074946
-0.0052958014 -0.01230431 -0.0032199405 0.00025176723 -0.0025238087 -0.015821397 -0.0006507811 -0.003828186
-0.011498722 -0.006890127 9.3600494e-05 -0.007091027 -0.0037582477 -0.00028086736 0.0007513883 9.104803e-05
0.0007917302 0.0005953081 -0.008932778 -0.010670051 -0.0058634095 -0.007263891 0.00070635905 -0.0151152685
-0.000109888264 0.000705981 -0.0077216574 0.00094025873 -0.0033262388 0.0004121236 0.0007106622 0.00045814444
0.000751292 0.0009648094 -0.0049138432 -0.008748453 -0.016622264 0.0010550367 -2.8528042e-05 0.00025431457
-0.0010030903 -1.5906e-05 -0.0039135246 0.00070965546 0.0008095971 0.00022107096 -0.008211009 -0.002680657
-0.0013799934 -0.017641133 -0.017208526 -0.013861495 -0.0019388434 -0.0011775165 0.00022156394 0.00023540927
-4.6327173e-06 -3.285984e-06 -0.012082952 0.0010196166 0.0008938711 -0.0027193448 -0.0049865204 -0.017214399
-0.006339702 -6.886039e-05 -0.018647818 0.00053465436 -8.921843e-06 0.00036769584 0.00045470893 -0.012664091
0.000829166 0.00049597555 0.00040202017 -1.838477e-05 0.0010565728 -0.015892241 -9.435868e-05 0.0002485482
-1.12572425e-05 -0.008936176 -1.0631978e-05 0.0005769939 0.00017787574 0.00026145572 -0.0156042455 -0.0065393024
0.0013356793 7.5633274e-05 -2.972594e-06 -0.008929849 0.00023610353 -0.008881242 -0.0020601796 -0.013081264
3.0599986e-05 0.0001975893 -0.0023604243 -0.010759447 -0.014896316 0.0012861993 8.714191e-05 -6.486353e-06
-0.0044807303 0.0003977151 -0.0032280856 0.0004500284 0.0005429185 0.0011418383 -2.1172855e-06 0.00060971477

conv_layers.0.params.3 f4 [128]
00000000: bde2 5d3c e387 9a3b 16be 04bc 9ed8 b8bb
00000010: 98a0 1b3b fce6 72bc 8143 3bbc 38f3 a3ba
00000020: f96c 293b 9f95 55bc 128d 183c 2db8 7f3c
00000030: caee 413b 08de edbb fd54 4dbc 3223 183c
00000040: cc40 eabb cf3c 7e3a c6b4 a5bb ec65 37bc
00000050: e171 31bc 608e 11bc 6ba2 3bbc ada2 2b3c
00000060: 9048 1fbc 992a 213c 8555 12bc 7c79 53bc
00000070: d28d 633c 332c 2bbc 0ade 423c 5b3b c8bb
00000080: c2fe 1abc c5af 6dbc 1316 143c 6007 6ebb
00000090: aff3 3b3c 5b42 443c fc8f 5fbc 48b8 63ba
000000a0: 22e5 18bb 4a08 7b3c 1b71 35ba 0cce 56bb
000000b0: 0204 8c3a 8bf2 45bc a670 00bb e920 3dbc
000000c0: 8e65 4a3c 5941 823c fe6b 4e3c a5d0 e43b
000000d0: 471b 63bc f167 57bc 5b0c 313b cb43 cf3a
000000e0: b441 0a3c ab1f 62bc 03d2 7abc f3e3 a0ba
000000f0: e8cf 8c3b 3ca3 563c 7bbe 56bc fa81 65bc
00000100: 6a25 a8bb 91d2 95b9 b505 cf3b bf4f 6b3c
00000110: 669c 5e3c b4e5 72b9 ccbb 843b 9b56 043b
00000120: d04c 183c c408 203c bc07 37bc 3cc8 50bc
00000130: a9df 2c3c a25e bfba f10a 853c ce04 573b
00000140: 5a2c 783c 6b77 2cbc b3a9 20bc a314 d63b
00000150: bbb7 dabb 2373 ebbb 4d91 3b3c cb5a d23b
00000160: 0b9e 30bc 1de8 0e3c bf94 49bc d53a 673c
00000170: 2d01 81bc 11a8 e8bb 48fe f1bb 1a5f 21bc
00000180: 405d 14bc 6fdf 3c3c 94c3 c9bb 277b b3bb
00000190: a550 643b bf5b b3bb 12e7 f33a 0fe5 4ebc
000001a0: 9eb3 68bc 1381 243b 9585 9a3a 7c4d 433c
000001b0: 74f0 333b bf19 613b ce32 1bbc 317b 3bbc
000001c0: 56c1 4cbc 3d4b fb3a 1809 0dbc d90a ca3b
000001d0: 8c22 103b a971 743c 6247 583c df8f ff3b
000001e0: eb83 37bc 5caf 433c 53ae 853b dcf3 f0b9
000001f0: 60a2 07bc f3cf 913a fd14 353b e96d d83b
0.013542828 0.004715906 -0.008101961 -0.005641057 0.0023746844 -0.014825579 -0.011429668 -0.0012508398
0.0025852306 -0.013036161 0.0093109775 0.015607876 0.0029591792 -0.007259134 -0.01253247 0.009285735
-0.0071488377 0.0009698392 -0.0050569503 -0.011193734 -0.0108303735 -0.0088840425 -0.011452298 0.010475797
-0.00972189 0.009836816 -0.008931522 -0.012907382 0.013888793 -0.01044755 0.011893759 -0.0061105913
-0.009460153 -0.014507239 0.009038466 -0.0036320314 0.011471673 0.011978711 -0.013645168 -0.0008686823
-0.0023329933 0.0153218005 -0.0006921456 -0.0032776622 0.0010682347 -0.0120817525 -0.0019598394 -0.011543491
0.012353314 0.0159003 0.0125989895 0.00698288 -0.013861484 -0.01314734 0.002701542 0.001581305
0.008438516 -0.013801496 -0.01530886 -0.0012274965 0.0042972453 0.013100442 -0.0131069375 -0.01400804
-0.005131413 -0.0002857638 0.006317819 0.014362275 0.013587093 -0.0002316449 0.0040507074 0.0020193222
0.009295657 0.009767715 -0.011171278 -0.012743052 0.010551372 -0.0014600346 0.016240569 0.003280926
0.015147293 -0.010526518 -0.009806084 0.006533222 -0.0066747344 -0.007185356 0.011448217 0.006419515
-0.010779868 0.008722332 -0.01230353 0.014113148 -0.015747631 -0.007100113 -0.007385049 -0.009849334
-0.009055436 0.01152788 -0.006157348 -0.0054773274 0.0034838107 -0.0054735835 0.0018608293 -0.012627854
-0.01420298 0.0025101348 0.0011789078 0.011920329 0.0027456554 0.0034347621 -0.009472562 -0.011442945
-0.012497267 0.0019172203 -0.008608125 0.006165844 0.0021993248 0.014919677 0.013200613 0.007799133
-0.011200885 0.011943664 0.004079619 -0.00045958057 -0.008278459 0.0011124596 0.0027630918 0.006604899

conv_layers.0.params.4 f4 [128]
00000000: 0085 72bc f312 69bc a9e3 933b b10c 5f3c
00000010: 75bd 3dbb 0f42 66bc a1c7 06bc 7df7 6f3c
00000020: bb9a 7c3c e5c4 47bc 2166 6b3c 9f42 b1bb
00000030: a313 34bc d3da e73a 7f41 ce3b 725e 883a
00000040: 84de 5cbc a6e2 2abc d067 52bc c523 50bc
00000050: 2845 5dbc a55c 0f3c ae06 363c ff98 09bc
00000060: 9a8c d2bb 692f 583c bd67 5abc 6e19 53bc
00000070: f994 7dbc 04cc 29bc 7c39 65bc 7b77 513c
00000080: 2396 223c 9ed5 633c c736 373c 6348 52bc
00000090: 1cb4 4ebc 8e8e 463b c2f5 67bc 86de 8fbb
000000a0: e615 4ebc 6c2e c9bb 6b25 d73a fb60 1dbc
000000b0: 330d 2cbc d375 4fbb b313 b9bb 3647 48bb
000000c0: 2d90 443c 7096 443c efb6 2ebc 160c 55bc
000000d0: 6f28 c03b be8e 653c de0e 0d3c 0d3c 83bb
000000e0: 882e 513c 6e89 3cbc 30a9 2fbc 9409 093c
000000f0: e146 5dba 4958 6cbc f13e 4f3c 6fd1 3b3c
00000100: 8aa7 72bb 72a3 1ebc 731d c8bb 8dc8 b93b
00000110: c28c 3dbc 7d30 edbb f6fb 3d3b 9286 3a3c
00000120: ccb9 eb3b c1f9 2e3c d3c9 1c3c e202 15bc
00000130: 732a 303c dcc0 0fbc 3bda 48bc 0ca3 f2bb
00000140: 963e 46bc 2730 d73b 1b28 14bc 7340 2bbb
00000150: eb41 09bc 71c2 60bc fd0a 53bc ab5d 42bc
00000160: f512 1bbc cc70 793c 3c5d 84bb f5e7 15bc
00000170: 6a9c b13b 38c4 fabb f191 e23b 00c3 30ba
00000180: 7712 313c a525 143c 97fc 273c dd1d 6b3c
00000190: ccce 64bc 2599 453c c5c6 89ba c027 36bb
000001a0: f7f2 c83b d724 92bb 0e75 40bc 7129 5ebb
000001b0: 46ec f5bb e498 b0ba 8504 5fbc bb54 3d3c
000001c0: 8a29 2cbc 6847 36bc b452 23bc 6051 d93b
000001d0: 7301 23ba e285 6cb9 1dbb ff3b 29c1 443c
000001e0: bdf0 3cbc 30de 22bc 72ef 5a3c ef05 59bb
000001f0: 1115 08bb 68ab 1bbc b31b 4cbb d475 463c
-0.0148022175 -0.014225709 0.004513223 0.013613866 -0.0028952037 -0.0140538355 -0.008226306 0.014646408
0.01541775 -0.012192939 0.014367611 -0.005409553 -0.01099101 0.0017689116 0.006294429 0.0010404123
-0.013480786 -0.010430014 -0.012842134 -0.012703841 -0.013505258 0.0087501155 0.011109991 -0.0083982935
-0.0064254524 0.013194897 -0.013330397 -0.012884481 -0.015477412 -0.0103635825 -0.013990756 0.012784834
0.009923491 0.013905911 0.0111824935 -0.012834641 -0.012616184 0.0030297372 -0.014157714 -0.0043905405
-0.012578463 -0.006139567 0.001641435 -0.0096056415 -0.010501194 -0.0031655922 -0.0056481003 -0.0030560023
0.011997265 0.011998758 -0.010663732 -0.01300337 0.005864195 0.014011083 0.008609502 -0.0040049613
0.012767442 -0.011507375 -0.01072149 0.0083641 -0.0008441043 -0.014425346 0.012649284 0.011463507
-0.003702613 -0.009682523 -0.0061070262 0.0056696595 -0.011569204 -0.0072384463 0.0028989292 0.011384623
0.0071937796 0.010679663 0.009569603 -0.009094926 0.010752308 -0.008774009 -0.012259061 -0.0074046906
-0.012099883 0.0065670195 -0.009042765 -0.0026130944 -0.0083775325 -0.013718233 -0.012881038 -0.0118631525
-0.009464969 0.015224647 -0.0040394347 -0.009149541 0.0054202573 -0.0076527856 0.00691437 -0.00067429245
0.010807625 0.009042178 0.010253093 0.014350382 -0.01396532 0.012060438 -0.0010511508 -0.002779469
0.0061324793 -0.004459958 -0.011746658 -0.0033899213 -0.0075049726 -0.0013473299 -0.013611917 0.011555846
-0.010507951 -0.011125423 -0.009968448 0.006632015 -0.00062181725 -0.00022556589 0.007804288 0.012008944
-0.011532006 -0.009940669 0.013362752 -0.003311511 -0.002076451 -0.009501316 -0.003114444 0.012113053

conv_layers.0.params.5 f4 [128]
00000000: 3c1c 17bc 4c71 25bc 3bd2 3b3c 6047 cabb
00000010: a840 153c 0d82 4abc 66db e43b 40c6 53bc
00000020: 1e0b 333b 2405 08bc c29a 6abc 7955 48bc
00000030: f3d7 c7bb b0a8 543c c59c 61bc 6429 5abc
00000040: 036f cc3b d6d2 dabb 6eb8 6abc c77b 2bbc
00000050: 983d 2bbc ec8a 4abc ae1b 313c 23f5 183a
00000060: f60f f0bb 7f44 b83b b448 413c a0fe 19bc
00000070: 8b5f 6ebc 7319 4bbc 6877 3f3c 9645 be3b
00000080: 6f4e e73b 7735 333c 8829 853c e1e0 3dbc
00000090: cde1 55bc 231d 4cbc 7098 ba3b 39b5 5bbc
000000a0: 99a4 0f3c 9108 2b3c 29b4 b33b 0230 4b3c
000000b0: 8b35 70bc e8cc 443c a8c4 643c 76e0 c9bb
000000c0: 35c6 b53b 7f13 3d3c a192 38bc 3d2d 04bc
000000d0: aa83 34bc 9deb 393c 2b97 2bbc 5931 5bbc
000000e0: 110c 3c3c f4a7 14bc e307 ac3b ad18 0a3c
000000f0: 004e 6a3c 7a38 24bc 7677 4abc a9f5 ffbb
00000100: 6845 18bc 0099 5fbc de17 2fbc 2a8f 30bc
00000110: 20a8 19bc 237e 29bc 5173 c73b 74aa 543c
00000120: f793 33bc 1e03 3e3c 4b4b 79bc 27f7 4f3c
00000130: 6016 9f3a 5619 f8ba f874 37bc a303 5fbc
00000140: 53f4 e6bb f30f 573c 3681 56bc c1f0 493c
00000150: 442c 63bc e361 483c 617a 5e3c b1c8 eabb
00000160: b981 143c 82ac 163c 2b2b 593c 8b36 82bc
00000170: f8c1 4a3c 269b 65bc 15e2 223c 61d5 213c
00000180: e4f2 0abc a40d 3abc 1a70 cc3b a8a3 453c
00000190: d63c 57bc 1c83 3f3c f4fc 62bc 6263 69bc
000001a0: b5c5 433c 0a7f 56bb f631 593c 1b8e 02bc
000001b0: fcf5 293c 11ae 2bbc e694 e4bb d192 14bb
000001c0: 3553 70bb 7a84 3abb fb54 3ebc e014 963b
000001d0: 3598 26bc eb7d 063c 72ec 7dbc 3651 6c3c
000001e0: c3d3 62bc 2090 243c 2950 21bc 214b 3c3c
000001f0: 70f4 26bc 60c2 613c ba12 85bc bcd3 ba3a
-0.00922304 -0.010097813 0.011463697 -0.0061730593 0.0091096535 -0.012360108 0.006984162 -0.012925684
0.0027319859 -0.008302007 -0.014319124 -0.0122274095 -0.006098741 0.012979671 -0.013770287 -0.013315532
0.0062388196 -0.0066779656 -0.014326198 -0.010466523 -0.010451697 -0.012362223 0.010809822 0.0005834868
-0.0073261214 0.0056233997 0.011797119 -0.009399086 -0.014549146 -0.012396204 0.0116861835 0.005806635
0.0070589106 0.01093804 0.016255155 -0.01158926 -0.013054323 -0.012458119 0.0056944415 -0.013409906
0.0087672705 0.010439054 0.0054841232 0.012401583 -0.014661203 0.012011744 0.013962902 -0.006160791
0.0055473098 0.011540293 -0.011265428 -0.008067426 -0.011017719 0.0113476785 -0.010473053 -0.013378465
0.011477486 -0.009073246 0.0052499636 0.008428735 0.014300823 -0.010023231 -0.012357583 -0.0078112674
-0.0092938915 -0.013647318 -0.010686843 -0.0107763205 -0.009378463 -0.010345015 0.006086745 0.012980092
-0.010960571 0.011597423 -0.015215705 0.012693203 0.0012137406 -0.0018928449 -0.011197321 -0.013611707
-0.0070481687 0.013126361 -0.01309233 0.012325467 -0.013865534 0.012230369 0.013578982 -0.0071650376
0.009064131 0.0091964025 0.013254921 -0.015895149 0.012375347 -0.014014041 0.0099415975 0.009877534
-0.008480761 -0.011355791 0.0062389495 0.0120629445 -0.013137063 0.011688974 -0.013854254 -0.014244886
0.0119489925 -0.003272953 0.0132565405 -0.007968451 0.010373589 -0.010478512 -0.006975758 -0.0022670517
-0.003667069 -0.002846031 -0.011616941 0.004580125 -0.010168125 0.008208732 -0.0154982675 0.014423659
-0.013844433 0.010044128 -0.009845772 0.0114925215 -0.010190114 0.013779253 -0.016244281 0.0014253776

conv_layers.0.params.6 f4 [128]
00000000: cac1 7e3f 628e 7d3f e4d9 7d3f 3f79 803f
00000010: 09ba 7d3f ef0e 813f 528a 803f 7e50 7d3f
00000020: cb97 7d3f 793d 823f 36d1 7e3f 2f4c 7d3f
00000030: ca4d 803f afa3 7f3f 4529 813f 081d 7e3f
00000040: e5ef 803f d4cd 7d3f 9016 7d3f 505d 7d3f
00000050: f08b 813f 8a90 7d3f d0e5 7f3f cd02 813f
00000060: f927 7b3f 90fe 7d3f f2c9 7c3f f176 813f
00000070: ecd2 7e3f c41b 7e3f 8014 803f 7938 813f
00000080: 55dd 7f3f b40a 803f 1431 813f 721e 7d3f
00000090: 5fe7 803f aa95 803f 24e8 813f 6088 7f3f
000000a0: fea8 7c3f e6ba 7c3f 05be 7e3f 5ba9 7d3f
000000b0: b0af 7e3f 1d1a 7f3f 1cfc 7e3f 26f7 803f
000000c0: 970c 7f3f 4f40 803f 3417 813f c042 7d3f
000000d0: 9d2f 813f bc2b 813f 269a 7e3f 20fb 7e3f
000000e0: 16d7 7d3f e3cd 813f 856b 813f f4b4 813f
000000f0: bec6 7f3f 2907 803f b046 813f 7fef 813f
00000100: 0371 803f 6ea9 7e3f c3ab 803f e65e 803f
00000110: f7d0 803f f167 803f e2e4 7b3f dd68 7c3f
00000120: 0bee 803f 2e15 7d3f 7d59 813f 4f41 813f
00000130: 3018 803f b686 7f3f b2fc 803f a26e 7d3f
00000140: 0f6c 803f f6e5 7f3f ae93 803f cf15 7f3f
00000150: 7e86 803f a113 803f 2bb3 7e3f 393e 803f
00000160: 0a16 7f3f ac18 803f 3914 823f 2eb1 7e3f
00000170: bc60 803f 1297 7f3f fc61 7c3f 82d3 803f
00000180: 54db 7f3f 3fa8 7e3f 1661 803f 7430 7f3f
00000190: fc3a 803f f1c0 7e3f 9693 7d3f e77d 823f
000001a0: 183c 823f bb80 7d3f 0b05 803f d856 7d3f
000001b0: 1eb1 7d3f 01e4 803f 3759 7e3f c8ec 803f
000001c0: 3b8a 7e3f 7906 803f d40e 813f 9e65 7d3f
000001d0: f3a4 803f d216 7f3f 2de6 7f3f 727f 7f3f
000001e0: 00f7 803f 3cf8 7e3f 3b05 7f3f 87ce 803f
000001f0: d01b 803f b98d 7f3f 4a19 803f a060 7d3f
0.9951445 0.99045384 0.991606 1.0037001 0.9911199 1.0082682 1.0042212 0.98950946
0.9905974 1.017501 0.9953798 0.9894437 1.0023739 0.99859136 1.009072 0.9926305
1.007321 0.99142194 0.9886255 0.9897051 1.012083 0.99048674 0.9996004 1.007898
0.9810787 0.99216557 0.98745644 1.0114423 0.9954059 0.99261117 1.0006256 1.0095359
0.999471 1.0003266 1.0093102 0.9887458 1.0070609 1.0045674 1.0148969 0.99817467
0.9869536 0.98722684 0.99508697 0.9908654 0.9948683 0.9964922 0.9960344 1.0075424
0.99628586 1.0019625 1.0085206 0.9892998 1.0092655 1.0091472 0.9945396 0.99601936
0.9915632 1.0140957 1.0110937 1.0133348 0.9991263 1.0002185 1.0099697 1.0151213
1.0034488 0.9947728 1.0052418 1.0028961 1.0063771 1.003172 0.9839612 0.9859751
1.0072645 0.9886044 1.0105435 1.0098056 1.0007381 0.9981493 1.0077116 0.9899694
1.0032977 0.9996027 1.0045068 0.9964265 1.0041044 1.000599 0.9949214 1.0018989
0.99643004 1.0007529 1.0162421 0.99489105 1.0029521 0.9983989 0.9858701 1.0064547
0.99944043 0.99475473 1.0029628 0.9968331 1.0018001 0.99513155 0.99053323 1.0194672
1.0174589 0.9902455 1.0001539 0.9896064 0.99098384 1.0069581 0.9935488 1.007226
0.9942967 1.0001975 1.008265 0.9898318 1.0050339 0.99644196 0.99960595 0.9980384
1.0075378 0.99597526 0.99617356 1.0063027 1.0008488 0.99825627 1.0007718 0.98975563

conv_layers.0.params.7 f4 [128]
00000000: 295b 7f3f 1a64 7f3f 8e5f 803f 7713 7f3f
00000010: 06d7 803f 0eb9 803f 77ae 7d3f 7f6e 813f
00000020: 8df5 7d3f fee1 7d3f 89f1 7f3f c967 7e3f
00000030: b9c7 803f 08b6 7e3f 19e4 7e3f 4adb 7b3f
00000040: 1693 803f 0953 813f ab0c 813f 0361 813f
00000050: 1e81 813f a70f 7d3f ad23 813f 3ab2 7d3f
00000060: 0588 7c3f 3169 803f ada2 7d3f 3368 813f
00000070: da10 813f cd36 813f 36bd 803f 8cf3 7f3f
00000080: 4d39 7d3f bc22 813f 4bcb 7d3f ccbf 813f
00000090: 9a09 7f3f 517e 7f3f 2297 803f 7996 7e3f
000000a0: 1d59 7e3f 1c06 803f 2ad1 7c3f 957b 813f
000000b0: 3908 813f dea3 7c3f 07b5 7e3f c276 803f
000000c0: 4201 813f 4192 813f 84f3 7f3f 43c9 813f
000000d0: 6378 7f3f 5c6e 803f a95a 7c3f 555b 7f3f
000000e0: 413e 803f e8ee 7f3f 7f8e 803f 1c77 7c3f
000000f0: 52f2 7d3f a866 803f 7634 803f ed84 803f
00000100: b658 7e3f 00c5 803f faaf 7f3f 40c7 803f
00000110: 8db7 803f 0cf8 7e3f e8c8 7d3f 6714 803f
00000120: f96c 7c3f 8f5d 7f3f 7828 813f 8c70 803f
00000130: 2356 7d3f b858 803f efb9 813f 5c2b 7e3f
00000140: 2778 7f3f 3006 813f ac6c 7f3f 0df6 803f
00000150: e2d7 813f bca0 803f f3ec 813f 68b1 813f
00000160: 9d5a 7e3f ff0d 803f aabe 7d3f af97 803f
00000170: 7365 7f3f 90d0 7e3f c5da 7e3f 817b 7e3f
00000180: 06a0 803f 3062 803f 39cd 7d3f cb74 803f
00000190: 14d3 813f 7de2 803f b316 7c3f 64e4 7e3f
000001a0: d77a 7c3f 1883 7e3f 3047 803f 689b 7f3f
000001b0: 3c0a 7f3f 5116 7f3f 2d01 813f 1948 7e3f
000001c0: 777c 803f 1482 7e3f 1d19 813f ac5e 803f
000001d0: bef9 7e3f 5d18 803f 4b60 7e3f 1a64 7e3f
000001e0: 8df2 7d3f 2c81 7f3f 09de 7e3f 2f18 803f
000001f0: 056e 7e3f 120b 7e3f cbe9 803f 0711 803f
0.99748474 0.9976212 1.0029161 0.99639076 1.006562 1.0056474 0.9909434 1.0111846
0.99202806 0.9917296 0.9997793 0.99377114 1.006095 0.9949651 0.995668 0.98381484
1.0044887 1.0103465 1.0081991 1.0107731 1.0117528 0.9885201 1.0089012 0.9910008
0.9864505 1.0032102 0.9907635 1.0109924 1.0083268 1.0094849 1.0057743 0.99981
0.9891556 1.0088725 0.99138325 1.0136657 0.99624026 0.9980212 1.0046122 0.99448353
0.99354726 1.0001864 0.9875666 1.0115839 1.0080634 0.9868754 0.99494976 1.0036242
1.0078509 1.0122758 0.9998095 1.0139545 0.9979307 1.0033679 0.98575836 0.99748737
1.0018998 0.99973917 1.0043486 0.98619246 0.99197876 1.0031328 1.001601 1.0040566
0.9935411 1.006012 0.99877894 1.0060806 1.0056015 0.9959724 0.99134684 1.0006226
0.9860378 0.99752134 1.0090475 1.0034347 0.9895956 1.0027075 1.0134867 0.9928491
0.9979271 1.0080013 0.99775195 1.0075089 1.0144007 1.0049052 1.0150436 1.0132265
0.99357015 1.0004271 0.99119055 1.004629 0.99764174 0.9953699 0.99552566 0.994072
1.0048835 1.0029964 0.9914127 1.0035642 1.0142541 1.0069119 0.98472136 0.99567246
0.9862494 0.99418783 1.0021725 0.99846506 0.9962499 0.9964343 1.0078484 0.9932876
1.0037984 0.99417233 1.0085789 1.0028892 0.99599826 1.0007435 0.9936568 0.9937149
0.9919823 0.99806476 0.9955755 1.000738 0.99386626 0.9923564 1.0071348 1.0005196

conv_layers.0.params.8 f4 [128]
00000000: d75b 7e3f 7d7d 7f3f 5be5 803f cd2d 803f
00000010: 6c06 803f 1bc2 7f3f 0ce1 7d3f 6cb2 7f3f
00000020: 849c 7d3f 5c25 803f 1c59 813f 316b 813f
00000030: 95e5 7d3f 2d05 803f 37b5 803f c89e 813f
00000040: cd7d 803f 3483 7d3f 7c6a 803f 37b7 803f
00000050: 205c 803f b652 7d3f 2a12 803f 192c 7c3f
00000060: 9676 813f 3994 7f3f 7d07 803f e505 803f
00000070: 386b 803f fea2 803f b51e 803f ffa4 7d3f
00000080: 342b 7e3f 3e91 803f ee3b 7c3f a535 813f
00000090: 827d 813f b6bc 813f b58a 7d3f ca08 813f
000000a0: 3083 7f3f ef35 7f3f 88ef 7e3f 3f18 803f
000000b0: 806b 803f e6a2 803f 8f18 7f3f 8a77 7e3f
000000c0: 133a 7e3f 3d1d 803f 4917 803f cc88 803f
000000d0: cb13 803f 43e2 7e3f 8ff4 7f3f 065e 803f
000000e0: b10a 803f f446 803f 3dc3 7c3f 7f7e 7f3f
000000f0: d73a 803f 80c8 803f 0485 803f 37b3 7e3f
00000100: d98d 803f e4d2 813f a5d4 803f c90f 813f
00000110: 6048 7d3f d3b7 803f cd66 7d3f 0899 803f
00000120: 2629 7f3f 666e 803f cda4 813f f23a 7d3f
00000130: b9fd 7d3f bd18 7d3f cc90 7e3f dd3c 813f
00000140: 4eb7 803f d924 803f c8df 7f3f 8fea 7e3f
00000150: 615a 813f 2bf2 803f 392a 7e3f da79 7c3f
00000160: 1022 803f 61b2 7f3f 79a5 803f 513a 813f
00000170: 4201 7f3f f9b3 813f 806d 7e3f abba 7d3f
00000180: c127 803f 84c5 7d3f e100 7e3f 7206 803f
00000190: 675b 7f3f 96e6 7f3f 9924 803f edf2 803f
000001a0: 5010 7f3f 4833 7f3f b49e 803f 9045 803f
000001b0: df42 803f 4767 803f cf68 7e3f 8e9d 7f3f
000001c0: 9608 7e3f 178c 7e3f 5e82 813f 546c 7e3f
000001d0: 2ec6 7d3f ec96 7e3f 7305 823f c566 803f
000001e0: 775b 803f 54e0 7d3f a28d 7d3f 070f 813f
000001f0: d3d6 803f a16d 803f 7a1b 823f 95f0 7d3f
0.99358886 0.99800855 1.0069994 1.0013977 1.000196 0.99905556 0.9917152 0.99881625
0.9906695 1.0011401 1.0105319 1.0110837 0.9917844 1.000158 1.0055302 1.0126581
1.0038391 0.99028325 1.0032496 1.0055913 1.0028114 0.9895433 1.0005543 0.9850479
1.0114315 0.99835545 1.0002285 1.0001799 1.003272 1.0049741 1.0009371 0.9907989
0.9928467 1.0044324 0.98528945 1.0094496 1.0116427 1.0135715 0.99039775 1.0080807
0.9980955 0.9969167 0.99584246 1.0007399 1.0032806 1.0049713 0.9964685 0.9940115
0.99307364 1.0008923 1.0007106 1.0041747 1.000604 0.99564 0.9998254 1.0028694
1.0003263 1.0021653 0.9873541 0.9980239 1.0017956 1.0061188 1.0040593 0.9949221
1.0043288 1.0142484 1.0064894 1.0082942 0.9893856 1.0056099 0.98984987 1.0046701
0.9967216 1.0033691 1.0128418 0.9891807 0.99215275 0.9886587 0.9943969 1.0096699
1.005594 1.0011245 0.9995084 0.9957666 1.0105706 1.0073904 0.99283177 0.9862343
1.0010395 0.9988156 1.0050498 1.0095922 0.99611294 1.0133048 0.99385834 0.9911296
1.0012132 0.9912951 0.9922009 1.0001967 0.99748844 0.9996122 1.0011169 1.0074135
0.99634266 0.99687624 1.0048432 1.0021229 1.0020407 1.0031518 0.99378675 0.99849784
0.9923185 0.9943251 1.011791 0.99384046 0.99130523 0.9944904 1.0157913 1.0031363
1.0027913 0.9917042 0.9904424 1.0082711 1.0065559 1.0033456 1.0164635 0.99195224
