trained_model/2025-06-19_18-24-57/saved_model_2025-06-19_18-24-57.pkl (torch, 820950 bytes, 54 tensors)

conv_layers.0.f_lin.0.weight f4 [128, 5]
-0.11441998 -0.007071576 0.09249492 0.06977693 -0.11217733 0.20211992 0.011261126 0.18954414
0.16625677 0.12329633 0.13386405 -0.13323238 0.18546692 0.03744048 -0.10727694 0.14320968
-0.0071107866 -0.008624611 -0.06443419 0.11612653 0.17667228 -0.0010004102 0.09756222 -0.13204281
-0.17254794 -0.16448697 0.19701658 7.490039e-05 0.11732813 0.15865566 -0.1764049 0.076539755
0.16768238 -0.008189828 -0.11384403 -0.12210267 0.08197447 0.18033321 -0.048898306 0.066669054
0.094859034 -0.060842793 -0.052667193 -0.22135702 0.09023371 0.0117257135 -0.12523277 0.063907586
0.080644995 0.078426085 -0.0020813497 -0.065828495 0.041706096 -0.048169903 -0.00068429235 -0.0675819
-0.08867529 0.05040368 0.22395277 -0.15295708 0.07269533 -0.11797332 0.17555085 -0.19228604
0.099730656 -0.20211568 -0.21218716 -0.0021694473 -0.13744074 0.04204415 0.19107123 -0.10985991
-0.061432205 0.042703755 -0.007664525 0.030532407 0.10677784 -0.17900658 0.1048808 -0.03194204
-0.19792153 0.14498912 -0.00689436 -0.11952866 0.014270075 0.03051537 -0.040727142 -0.19036053
0.15402949 -0.13233192 -0.13108459 0.11053887 -0.13263398 0.19074164 -0.08588714 -0.1103438
-0.03936491 0.06774066 0.052300647 -0.12570222 0.17447849 0.16182743 0.068118915 -0.128792
0.07434928 -0.02659756 0.20661144 -0.16019006 0.040779293 -0.17983873 0.11157884 -0.20419076
-0.16357768 -0.20489469 0.025848532 -0.040723916 0.03487242 0.018175686 0.13598125 -0.11033531
-0.0349651 -0.012212376 0.08403708 0.013620603 -0.067628264 -0.029288623 0.21565919 0.11869643
-0.031621765 0.12099021 0.019936295 0.14113516 -0.18122847 0.19334182 0.020864485 0.028103875
0.18222153 -0.14982174 0.07114113 0.07073118 0.13365708 0.018012146 0.04548035 0.17246881
0.20094606 0.06630186 -0.19058275 0.10267451 0.01814099 -0.20213364 0.17597702 0.072034456
-0.21921295 0.03548386 -0.009353632 0.09496325 0.020880185 -0.20657848 0.19422106 0.016000506
0.070945404 0.0138392765 -0.050084714 0.067623325 -0.076438054 0.0734379 -0.010354915 -0.08785096
0.11548412 -0.014978522 0.06420562 0.18610868 0.04519742 0.10633216 0.00045180612 0.20095064
-0.061889883 -0.0027856478 -0.07454083 -0.105041355 0.03158011 -0.04525903 -0.18516111 -0.07005155
0.010122923 -0.19022332 0.038523536 0.059827372 -0.030732011 0.1954267 -0.20501633 0.09268284
0.18914112 -0.016968792 0.13914397 0.05998028 -0.18660104 0.029257726 -0.010244723 -0.08584595
0.05739164 0.15871954 -0.21342939 0.03505915 0.09030428 0.07104185 -0.10973843 0.1729879
0.12561843 0.05634527 -0.12188258 0.2025447 -0.048300806 0.041395444 0.07309435 -0.13772658
0.12995616 -0.17948477 0.02404077 -0.054915182 -0.094225064 -0.07255251 -0.09354342 -0.008476314
0.03438393 0.025054412 -0.16815569 -0.13227603 -0.13489406 0.106035 -0.16965434 0.11220908
0.14142905 0.058140002 0.13724206 0.020163985 -0.031545926 0.09562269 0.08390703 0.064398
0.18512496 -0.00242785 -0.12248393 -0.16961518 -0.16790484 -0.0030996695 0.13145292 0.08627593
-0.17922564 0.08464496 0.17239171 0.22595787 0.105171256 -0.08331101 0.108046256 -0.1457712
00000000: 0655 eabd aeb8 e7bb fa6d bd3d 35e7 8e3d
00000010: 3abd e5bd 86f8 4e3e 9680 383c dc17 423e
00000020: 373f 2a3e c982 fc3d a813 093e 126e 08be
00000030: 0aeb 3d3e 305b 193d 03b4 dbbd 8fa5 123e
00000040: 9a01 e9bb 3e4e 0dbc 13f6 83bd bfd3 ed3d
00000050: 94e9 343e 3220 83ba b4ce c73d 3b36 07be
00000060: 68b0 30be 466f 28be b7be 493e d713 9d38
00000070: bb49 f03d a176 223e 7ca3 34be e0c0 9c3d
00000080: eeb4 2b3e a12e 06bc 0f27 e9bd f710 fabd
00000090: 3be2 a73d 45a9 383e 9749 48bd c989 883d
000000a0: 7445 c23d 4b36 79bd 8eb9 57bd 6aab 62be
000000b0: 74cc b83d 351d 403c 053d 00be fbe1 823d
000000c0: 3429 a53d db9d a03d 4167 08bb 17d1 86bd
000000d0: 03d4 2a3d ce4d 45bd 1562 33ba 6168 8abd
000000e0: 649b b5bd 1774 4e3d e053 653e c8a0 1cbe
000000f0: 4ae1 943d ff9b f1bd 9ac3 333e a2e6 44be
00000100: 963f cc3d 6af7 4ebe 9747 59be 492d 0ebb
00000110: 44bd 0cbe 7d36 2c3d 2da8 433e 3cfe e0bd
00000120: 56a0 7bbd 22ea 2e3d b226 fbbb 191f fa3c
00000130: 57ae da3d 804d 37be bfcb d63d a8d5 02bd
00000140: f1ab 4abe 0778 143e 15ea e1bb 71cb f4bd
00000150: 08cd 693c 5ffb f93c 81d1 26bd dfed 42be
00000160: e8b9 1d3e 0582 07be 0a3b 06be 3462 e23d
00000170: 34d1 07be c751 433e 99e5 afbd eefb e1bd
00000180: 1a3d 21bd 9dbb 8a3d 3439 563d 15b8 00be
00000190: 7daa 323e 17b6 253e ee81 8b3d 0de2 03be
000001a0: 6f44 983d 20e3 d9bc f391 533e dd08 24be
000001b0: 3008 273d a527 38be 7283 e43d 6217 51be
000001c0: e880 27be eacf 51be 4dc0 d33c 1fce 26bd
000001d0: 62d6 0e3d 2de5 943c ab3e 0b3e 7bf7 e1bd
000001e0: 9137 0fbd 6b16 48bc a21b ac3d f328 5f3c
000001f0: b080 8abd b2ee efbc c3d5 5c3e 1d17 f33d
00000200: d385 01bd b7c9 f73d 7151 a33c bc85 103e
00000210: f593 39be 66fb 453e ffeb aa3c 193a e63c
00000220: 4898 3a3e df6a 19be 71b2 913d 82db 903d
00000230: 67dd 083e 358e 933c 9a49 3a3d aa9b 303e
00000240: cec4 4d3e 45c9 873d 2028 43be 0347 d23d
00000250: 6a9c 943c 1ffc 4ebe 5233 343e cd86 933d
00000260: 5c79 60be 8657 113d fa3f 19bc 187c c23d
00000270: ec0c ab3c 4f89 53be e3e1 463e 7e13 833c
00000280: d34b 913d 22be 623c a125 4dbd 197e 8a3d
00000290: 8e8b 9cbd 9c66 963d a9a7 29bc 34eb b3bd
000002a0: f082 ec3d 7a68 75bc 3c7e 833d 4693 3e3e
000002b0: ee20 393d adc4 d93d 64e0 ec39 01c6 4d3e
000002c0: 3f80 7dbd 6a8f 36bb dda8 98bd ec1f d7bd
000002d0: 255a 013d 8861 39bd e09a 3dbe 3077 8fbd
000002e0: 9eda 253c e7c9 42be dbca 1d3d 8c0d 753d
000002f0: b3c1 fbbc f01d 483e cdef 51be 80d0 bd3d
00000300: 36ae 413e 2302 8bbc c27b 0e3e e2ad 753d
00000310: 5814 3fbe e6ad ef3c 7cd9 27bc 00d0 afbd
00000320: 7f13 6b3d 6087 223e 3c8d 5abe 2f9a 0f3d
00000330: 73f1 b83d 647e 913d 8bbe e0bd bd23 313e
00000340: 1ea2 003e 4cca 663d 939d f9bd e167 4f3e
00000350: 11d7 45bd 458e 293d 7eb2 953d 3208 0dbe
00000360: 3a13 053e dbca 37be 26f1 c43c beee 60bd
00000370: 12f9 c0bd 6996 94bd b193 bfbd 3de0 0abc
00000380: 2ad6 0c3d e93e cd3c 0131 2cbe 5e73 07be
00000390: ab21 0abe e128 d93d deb9 2dbe e0cd e53d
000003a0: c7d2 103e 3624 6e3d 2f89 0c3e f12e a53c
000003b0: 4d36 01bd d4d5 c33d 73d7 ab3d 19e3 833d
000003c0: 6691 3d3e 901c 1fbb dbd8 fabd 9aaf 2dbe
000003d0: 3fef 2bbe d323 4bbb 989b 063e 6fb1 b03d
000003e0: ed86 37be 565a ad3d 7487 303e 8061 673e
000003f0: 0764 d73d f69e aabd 5b47 dd3d 0c45 15be

conv_layers.0.f_lin.1.weight f4 [128, 5]
0.13490245 0.01640319 -0.1716993 -0.033777714 -0.11659454 -0.08879727 0.14094743 -0.10376787
0.07658552 -0.042594325 0.056176517 0.04096673 0.18193921 -0.12832521 0.026706137 -0.19061361
-0.1200757 0.13447212 0.102050155 -0.18349068 0.10355115 0.14299758 -0.19890401 0.041359354
0.14054416 0.06369781 0.03676353 0.1259315 -0.14296333 -0.043615747 0.001254655 -0.11448279
-0.07867003 -0.17655234 0.14941399 0.029560702 0.13602927 0.1445362 -0.16094518 0.18232897
-0.06898596 0.006957453 -0.08779795 -0.0026214276 0.092781365 -0.013188287 -0.19042803 0.014072621
-0.17381184 0.013304607 -0.01654638 -0.09997871 -0.1344212 -0.11235343 -0.11151076 0.16446358
0.02023421 -0.13993084 0.09807016 -0.14818226 0.16403325 0.050996047 -0.16581856 -0.16674219
-0.08845495 0.10104081 0.024352778 -0.033707086 0.024056872 -0.11191762 0.19765039 0.072332285
-0.1818432 0.0503715 1.6837652e-05 -0.05701561 0.04977739 -0.16421834 -0.028588802 -0.057564717
0.16542627 -0.19123201 0.14301077 0.18304844 -0.018476222 -0.13748893 -0.13721558 -0.16518594
0.035232816 0.057235155 -0.1827522 -0.049945813 -0.13144107 -0.014363229 0.13079289 0.10270538
-0.21582936 0.1890936 -0.18261342 -0.20413825 -0.022349007 0.15808512 -0.015776413 0.19992849
-0.10752082 0.06732313 -0.11124757 -0.11390111 0.121111184 -0.18516728 0.19419006 -0.15627828
-0.023994656 0.1185691 -0.20904118 -0.16086484 -0.2093992 0.03825143 -0.20460926 0.100409836
-0.16427119 0.20242125 0.06551846 0.19628318 -0.025434198 -0.08301092 -0.00078910805 0.19021606
-0.14995487 0.0514366 -0.017362926 -0.07929115 0.13724703 -0.022962842 -0.08290751 0.08826538
-0.1850783 -0.17899895 0.13443783 -0.024552513 -0.012081585 -0.028081669 -0.2141507 -0.21974531
-0.18144627 0.054023888 0.024998846 0.1459031 0.029729446 0.1515943 -0.14550492 0.21736097
-0.1563566 -0.22516108 -0.056310553 -0.14261271 0.06676337 0.09260123 0.108615875 -0.09796405
0.10867173 0.18118176 -0.15012579 -0.041234855 0.011112319 -0.11238059 0.011917412 0.14468113
0.02737889 0.04658462 0.18990591 0.1287423 0.048721615 -0.07033109 0.098608054 0.18821654
-0.19671239 -0.11668037 0.18167183 0.15523368 -0.02106755 -0.045534454 -0.12542817 0.086724356
-0.00016386961 -0.21395941 0.21813655 -0.117274426 0.0023416858 -0.020419033 -0.16886437 -0.0916822
-0.084960684 0.07510869 -0.09613895 0.15963528 -0.026140435 0.10510263 -0.024917126 0.20219965
0.05483665 0.15838574 0.11630838 -0.20605826 -0.124565564 0.033256393 -0.027057122 -0.036023866
-0.06259562 -0.054122925 -0.098925166 0.11968474 0.17672396 -0.028951498 0.07066796 0.16320084
-0.03206833 0.014257951 -0.16254751 0.14295836 0.0048142225 0.11645774 -0.13384867 0.0539184
-0.07066798 -0.15673177 0.10964945 0.13001892 -0.051181674 0.19119316 0.12587221 -0.03399658
0.18749033 -0.19141127 -0.014353681 -0.124704264 0.005941961 0.13483669 -0.06812824 0.16426249
-0.20746872 -0.15504952 0.0015471217 0.1312008 0.09293455 -0.120017506 -0.16490658 0.038496364
-0.15727487 0.16777118 -0.17827123 -0.1629433 -0.14629927 0.16008934 0.019949023 -0.09123887
00000000: de23 0a3e fc5f 863c f1d1 2fbe 805a 0abd
00000010: 1ec9 eebd 58db b5bd 8654 103e 4084 d4bd
00000020: ded8 9c3d 6377 2ebd 5919 663d bbcc 273d
00000030: 464e 3a3e af67 03be d4c6 da3c 3730 43be
00000040: 40ea f5bd 0fb3 093e acff d03d fbe4 3bbe
00000050: a012 d43d f56d 123e 7ead 4bbe 6d68 293d
00000060: cfea 0f3e ff73 823d 5b95 163d 30f4 003e
00000070: fb64 12be 6da6 32bd 3c73 a43a f475 eabd
00000080: c11d a1bd 23ca 34be fbff 183e 4929 f23c
00000090: 424b 0b3e 4c01 143e d0ce 24be 72b4 3a3e
000000a0: 8348 8dbd 59fb e33b 69cf b3bd 42cc 2bbb
000000b0: 2804 be3d af13 58bc 91ff 42be da90 663c
000000c0: bbfb 31be 91fb 593c 468c 87bc a3c1 ccbd
000000d0: b6a5 09be 8e19 e6bd c15f e4bd 2469 283e
000000e0: 37c2 a53c 084a 0fbe 02d9 c83d 17bd 17be
000000f0: 55f8 273e 3be1 503d 57cc 29be 77be 2abe
00000100: de27 b5bd 7cee ce3d 7a7f c73c 7110 0abd
00000110: eb12 c53c 1135 e5bd dd64 4a3e f322 943d
00000120: 1b35 3abe 5952 4e3d 953e 8d37 3389 69bd
00000130: 60e3 4b3d da28 28be 1033 eabc fbc8 6bbd
00000140: 8165 293e 53d2 43be 6a71 123e 0d71 3b3e
00000150: 725b 97bc e6c9 0cbe 3e82 0cbe 8126 29be
00000160: 4950 103d 696f 6a3d 6523 3bbe fb93 4cbd
00000170: 7d98 06be c053 6bbc 92ee 053e 3357 d23d
00000180: 5f02 5dbe c1a1 413e 03ff 3abe 9e09 51be
00000190: 4415 b7bc 11e1 213e 893d 81bc 0eba 4c3e
000001a0: e033 dcbd b6e0 893d c4d5 e3bd fc44 e9bd
000001b0: 2409 f83d 7e9c 3dbe c2d9 463e 6a07 20be
000001c0: 7190 c4bc 5bd4 f23d e40e 56be c1b9 24be
000001d0: be6c 56be 88ad 1c3d 1785 51be aca3 cd3d
000001e0: b536 28be 8447 4f3e 8b2e 863d 75fe 483e
000001f0: 615b d0bc a101 aabd 25dc 4eba 00c8 423e
00000200: c58d 19be 2faf 523d b23c 8ebc 6663 a2bd
00000210: 7c8a 0c3e 921c bcbc 6acb a9bd 7bc4 b43d
00000220: 2a85 3dbe 804b 37be 12aa 093e 5a22 c9bc
00000230: d7f1 45bc 870b e6bc 524a 5bbe ea04 61be
00000240: 0dcd 39be 2748 5d3d 61ca cc3c 9f67 153e
00000250: 2b8b f33c 893b 1b3e 3eff 14be e093 5e3e
00000260: f21b 20be a090 66be e5a5 66bd 1109 12be
00000270: 3cbb 883d b7a5 bd3d 0072 de3d 60a1 c8bd
00000280: 498f de3d b687 393e 93ba 19be e1e5 28bd
00000290: 7210 363c cb27 e6bd 4041 433c 4a27 143e
000002a0: b249 e03c 84cf 3e3d b276 423e 06d5 033e
000002b0: 5190 473d bf09 90bd 05f3 c93d d6bb 403e
000002c0: f96e 49be 1ef6 eebd 2e08 3a3e 94f5 1e3e
000002d0: db95 acbc 5682 3abd 3e70 00be 8a9c b13d
000002e0: 6ad4 2bb9 2d18 5bbe 305f 5f3e 932d f0bd
000002f0: f876 193b d145 a7bc c8ea 2cbe e1c3 bbbd
00000300: deff adbd 96d2 993d 7fe4 c4bd 6e77 233e
00000310: 7724 d6bc 0c40 d73d 001f ccbc 6d0d 4f3e
00000320: 659c 603d df2f 223e 1733 ee3d f000 53be
00000330: 3b1c ffbd db37 083d e6a6 ddbc c38d 13bd
00000340: 2232 80bd 00b0 5dbd 4799 cabd 461d f53d
00000350: 20f7 343e b12b edbc 5dba 903d 1f1e 273e
00000360: 155a 03bd 2e9a 693c db72 26be ad63 123e
00000370: a0c0 9d3b 6581 ee3d a00f 09be 8ad9 5c3d
00000380: 60ba 90bd 4b7e 20be e48f e03d ae23 053e
00000390: e0a3 51bd 24c8 433e a5e4 003e ff3f 0bbd
000003a0: 77fd 3f3e 5101 44be b42b 6bbc f364 ffbd
000003b0: c8b4 c23b a112 0a3e d286 8bbd 6d34 283e
000003c0: ae72 54be 4dc5 1ebe cac8 ca3a 8159 063e
000003d0: 7854 be3d bdcb f5bd 45dd 28be 5dae 1d3d
000003e0: aa0c 21be 35cc 2b3e bc8c 36be 9cda 26be
000003f0: 7acf 15be 76ee 233e 226c a33c 72db babd

conv_layers.0.f_lin.2.weight f4 [128, 5]
0.08486322 0.06800508 0.043667477 -0.05532704 0.1328538 -0.10209586 -0.07610083 0.0874033
0.02242739 -0.17770709 0.09710956 0.0541136 0.02723993 0.12177772 -0.14883114 0.07678957
0.0025791274 -0.019799113 0.09406941 -0.05209689 -0.119977035 -0.17790565 -0.023787497 -0.1895134
-0.03718974 -0.086668186 -0.07251828 -0.068764314 -0.15996885 0.060949847 -0.027910413 -0.01086696
-0.053374913 0.0616952 0.1138873 0.16225755 0.15588248 0.013831428 0.017692419 -0.059936218
-0.09634347 -0.08844615 0.04948007 0.012041454 -0.09609884 -0.14790562 -0.0060744938 0.019876959
-0.08935505 -0.064567156 -0.07892025 0.0027267353 0.16438287 -0.051746503 0.17752983 -0.096533924
-0.12155305 -0.05988237 -0.07285635 0.038858164 0.03128517 0.14096713 -0.027090043 -0.10453369
-0.1447442 -0.060308833 0.19552468 -0.017533688 0.1613902 -0.095562615 -0.09162723 0.14771587
-0.13702074 -0.14796677 0.06798297 0.008901346 0.19201583 -0.03612236 -0.1161769 0.09106228
-0.17571145 -0.090033405 0.2092238 -0.15488103 -0.03278985 -0.0326088 0.0057232045 -0.18686649
0.10015767 -0.07202411 -0.062151987 0.13867255 0.17364228 -0.12642147 0.17907213 0.002166646
0.0399807 0.018019535 0.037941154 -0.15765233 -0.0514507 -0.09865094 0.15080436 0.033434805
-0.08131075 -0.06638727 0.19340797 -0.12159015 0.047629073 0.02615437 0.028757876 -0.13702106
-0.08197781 -0.11389042 -0.18480602 -0.018421033 -0.19641255 0.11082303 0.15758872 -0.021886973
-0.19678725 0.13704075 -0.022682242 0.15250164 0.08079582 -0.13815853 0.207339 -0.16327895
-0.15926534 -0.061681055 0.03968304 -0.1779505 0.20976102 -0.064382605 -0.013686024 0.19060862
-0.12225205 0.21578582 -0.094172366 -0.05325428 0.13590574 0.1823287 0.027490525 0.02643902
-0.008171933 0.16560262 0.08963154 -0.045340966 0.14735508 0.14810242 0.13601026 0.21572556
0.024832796 -0.05655452 -0.15249485 -0.07315724 0.08178572 -0.13102987 -0.081081614 -0.18653981
-0.1525687 0.19940929 -0.023241092 -0.07401596 0.18151422 -0.14710595 0.13145365 0.083394155
-0.013436223 0.1806041 0.16748044 -0.09153854 0.053571314 0.0572659 -0.0806678 -0.14410627
-0.058387566 0.0054286784 -0.073909044 -0.0458367 0.18030077 0.007780554 0.13343197 0.17628701
-0.20012471 0.06522562 0.12518123 0.18720183 -0.16300218 -0.12648983 -0.08234891 -0.07937038
-0.057437543 0.045702256 0.13672966 -0.01774673 0.053910866 -0.017116413 -0.012285398 0.12791309
0.07179749 -0.087030776 0.06602925 0.078516126 -0.13882203 -0.19070284 -0.027833782 -0.05937388
-0.048460063 -0.010906722 -0.02938338 0.06352831 -0.1216208 0.048429348 -0.10610732 -0.20998608
0.22620824 -0.19101188 -0.046327718 0.10465766 -0.06436039 -0.054874644 0.012786478 0.21413095
-0.19049558 -0.059953555 0.19743602 -0.005036917 0.04986751 0.15119134 0.04950438 -0.12710518
-0.04697636 0.19406386 -0.15790345 0.07800592 -0.18788132 0.17916945 0.100832544 0.18949059
-0.030076927 -0.116050355 0.010357865 -0.15490912 0.20254311 -0.1158598 -0.21523163 0.073627435
-0.003761887 -0.08204446 -0.13089621 -0.11372002 -0.14543703 -0.12930153 -0.19306043 -0.12025253
00000000: c5cc ad3d 3f46 8b3d abdc 323d 9b9e 62bd
00000010: d40a 083e a217 d1bd c1da 9bbd 8000 b33d
00000020: a5b9 b73c d9f8 35be 61e1 c63d 39a6 5d3d
00000030: 4626 df3c 9966 f93d 3167 18be da43 9d3d
00000040: 9406 293b c031 a2bc 76a7 c03d 8c63 55bd
00000050: 85b6 f5bd e62c 36be ffdd c2bc cd0f 42be
00000060: 4554 18bd 177f b1bd 7784 94bd 4ed4 8cbd
00000070: e0ce 23be 8ca6 793d 61a4 e4bc 550b 32bc
00000080: a79f 5abd 1bb4 7c3d bf3d e93d d826 263e
00000090: a89f 1f3e 379d 623c b1ef 903c ae7f 75bd
000000a0: ba4f c5bd 4123 b5bd 9dab 4a3d 8549 453c
000000b0: 78cf c4bd 9274 17be 8c0c c7bb 01d5 a23c
000000c0: c8ff b6bd c93b 84bd f1a0 a1bd 07b3 323b
000000d0: fc53 283e 24f4 53bd 61ca 353e 94b3 c5bd
000000e0: cef0 f8bd 3747 75bd b635 95bd bd29 1f3d
000000f0: e124 003d b059 103e f0eb ddbc c215 d6bd
00000100: d337 14be 6506 77bd 9f37 483e cfa2 8fbc
00000110: 7943 253e 55b6 c3bd 0fa7 bbbd d442 173e
00000120: 2a4f 0cbe 9a84 17be a83a 8b3d f3d6 113c
00000130: cc9f 443e 0af5 13bd 28ee edbd dc7e ba3d
00000140: b4ed 33be 6f63 b8bd c43e 563e 2299 1ebe
00000150: a64e 06bd ce90 05bd b889 bb3b ee59 3fbe
00000160: 771f cd3d 6081 93bd 1593 7ebd 2d00 0e3e
00000170: 48cf 313e a174 01be af5e 373e 4afe 0d3b
00000180: cdc2 233d b49d 933c 2f68 1b3d 9d6f 21be
00000190: f8bd 52bd 8109 cabd 756c 1a3e eff2 083d
000001a0: 4086 a6bd 0df6 87bd bd0c 463e 4204 f9bd
000001b0: b416 433d b041 d63c a395 eb3c 404f 0cbe
000001c0: fbe3 a7bd 613f e9bd ca3d 3dbe b5e7 96bc
000001d0: 5f20 49be 2ff7 e23d f05e 213e 4f4c b3bc
000001e0: 9982 49be 6954 0c3e 1cd0 b9bc 6429 1c3e
000001f0: 4778 a53d 6e79 0dbe ad50 543e 9932 27be
00000200: 7416 23be 46a5 7cbd af8a 223d a838 36be
00000210: 98cb 563e 07db 83bd 583b 60bc e82e 433e
00000220: 485f fabd f5f6 5c3e 71dd c0bd 2921 5abd
00000230: e02a 0b3e 60b4 3a3e cf33 e13c a596 d83c
00000240: 92e3 05bc bc93 293e be90 b73d 73b7 39bd
00000250: 40e4 163e 29a8 173e 4646 0b3e 29e7 5c3e
00000260: 266e cb3c b6a5 67bd 9c27 1cbe 77d3 95bd
00000270: 467f a73d b22c 06be 1e0e a6bd 4b04 3fbe
00000280: f83a 1cbe f331 4c3e 1a64 bebc ae95 97bd
00000290: ddde 393e f1a2 16be c99b 063e 8eca aa3d
000002a0: 9b23 5cbc 48f0 383e fe7f 2b3e 8f78 bbbd
000002b0: 986d 5b3d a68f 6a3d 2935 a5bd 9890 13be
000002c0: cd27 6fbd 0ee3 b13b a05d 97bd 43bf 3bbd
000002d0: c4a0 383e 04f4 fe3b 64a2 083e 9584 343e
000002e0: 7eed 4cbe 0395 853d 822f 003e d6b1 3f3e
000002f0: 0bea 26be 8d86 01be 8ca6 a8bd f08c a2bd
00000300: a143 6bbd 4a32 3b3d dc02 0c3e 9761 91bc
00000310: a4d1 5c3d b837 8cbc b248 49bc a6fb 023e
00000320: 900a 933d 313d b2bd 583a 873d 10cd a03d
00000330: 5d27 0ebe 9b47 43be ac03 e4bc 0732 73bd
00000340: 0f7e 46bd 1cb2 32bc 6ab5 f0bc 211b 823d
00000350: 5314 f9bd da5d 463d cb4e d9bd 9706 57be
00000360: 22a3 673e 9e98 43be 22c2 3dbd c156 d63d
00000370: 61cf 83bd 3cc4 60bd 607e 513c 2545 5b3e
00000380: 4611 43be dc91 75bd ab2c 4a3e b90c a5bb
00000390: e041 4c3d e7d1 1a3e 1bc5 4a3d dc27 02be
000003a0: 496a 40bd adb8 463e 71b1 21be 91c1 9f3d
000003b0: f663 40be 3278 373e 4b81 ce3d d209 423e
000003c0: e363 f6bc cfab edbd 09b4 293c 7fa0 1ebe
000003d0: 7667 4f3e e747 edbd ae65 5cbe fbc9 963d
000003e0: fe89 76bb ed06 a8bd a809 06be 0be6 e8bd
000003f0: 72ed 14be 9f67 04be a2b1 45be f546 f6bd

conv_layers.0.params.0 f4 [128]
-0.011223125 -0.01982283 0.010545375 0.010247567 0.0005815613 0.008062397 -0.01788749 0.008102103
0.01783059 0.018299183 -0.017464627 0.015405366 -0.006100563 0.018473541 0.011663341 0.0021535647
-0.0035938502 0.0053445175 0.0076490934 0.014616492 -0.012911605 0.0005407591 0.017566327 -0.0108080935
-0.017167212 -0.013286869 0.0077502867 0.006175667 -0.008722271 0.01855434 0.004156201 0.005148153
-0.012174634 -0.0045250533 -0.0142295575 0.012313458 0.010897835 0.013823114 0.0018000492 0.019620337
0.0056017726 -0.011643669 -0.0029714862 0.009651194 -0.014216755 0.007453223 -0.013443857 -0.00654546
0.009746112 -0.016700827 -0.018661285 -0.010226926 -0.01705964 0.019273903 0.013801234 -0.00885344
0.017768621 0.011413679 -0.012087724 -0.018820358 -0.009155634 -0.0124761155 -0.004115759 0.003356316
0.006752647 0.018349811 -0.00286535 0.0028579028 0.013842833 0.0011753261 -0.0068071126 -0.011194827
0.0041923476 -0.017059501 -0.016950509 0.0077496977 0.0006221772 0.018975336 -0.012542179 0.010361526
-0.00498404 -0.007819919 0.016514877 -0.015225659 -0.005988295 0.00043797874 -0.016287077 0.012614108
0.016329715 -0.009572545 -0.014052058 0.00045280904 -0.015713848 -0.005815636 -0.017389454 0.012445741
0.019326193 -0.009544329 -0.005494717 0.021719884 0.008899642 -0.014457838 -0.0088552255 -0.017846473
-0.018623486 0.013889321 -0.017976997 0.0041284077 -0.006323285 0.010377883 0.012344189 0.01999474
0.016758198 0.009531308 0.00014591444 0.01747635 -0.018116677 -0.008404749 0.0070890645 0.012519199
-0.008144982 -0.017113106 0.0013968259 0.01914689 -0.0146723315 -0.00994245 -0.0015997539 -0.012128671
00000000: 33e1 37bc 7d63 a2bc 82c6 2c3c 69e5 273c
00000010: eb73 183a 2518 043c c988 92bc afbe 043c
00000020: 7511 923c 2be8 953c fa11 8fbc ca66 7c3c
00000030: 3be7 c7bb d355 973c 9917 3f3c d222 0d3b
00000040: cd86 6bbb 1021 af3b 3fa5 fa3b 037a 6f3c
00000050: 328b 53bc bbc1 0d3a 42e7 8f3c 6e14 31bc
00000060: 41a2 8cbc 2bb1 59bc 1ef6 fd3b 405d ca3b
00000070: dbe7 0ebc 45ff 973c be30 883b d6b1 a83b
00000080: 1e78 47bc e646 94bb 1723 69bc 63be 493c
00000090: d58c 323c 587a 623c a1ef eb3a d4ba a03c
000000a0: 138f b73b 16c5 3ebc 44bd 42bb 0b20 1e3c
000000b0: 64ed 68bc 2b3a f43b a043 5cbc 4c7b d6bb
000000c0: 28ae 1f3c 2cd0 88bc 8ddf 98bc d68e 27bc
000000d0: a8c0 8bbc 4ee4 9d3c 921e 623c 050e 11bc
000000e0: 808f 913c 7100 3b3c 970b 46bc 272d 9abc
000000f0: 8301 16bc 9f68 4cbc 7ddd 86bb a3f5 5b3b
00000100: 4f45 dd3b 5852 963c 99c8 3bbb a74b 3b3b
00000110: 0dcd 623c 660d 9a3a 330e dfbb 826a 37bc
00000120: f65f 893b 5ec0 8bbc cbdb 8abc 2df1 fd3b
00000130: 9b19 233a 2a72 9b3c b67d 4dbc 64c3 293c
00000140: 2851 a3bb 1e1f 00bc 354a 873c 0b75 79bc
00000150: 7639 c4bb 83a0 e539 7a6c 85bc 67ab 4e3c
00000160: e5c5 853c 2ad6 1cbc 9a3a 66bc 0067 ed39
00000170: 54ba 80bc 1791 bebb 5474 8ebc 39e9 4b3c
00000180: f751 9e3c d15f 1cbc 070d b4bb e6ed b13c
00000190: cecf 113c 91e0 6cbc 8215 11bc c432 92bc
000001a0: 4890 98bc 0990 633c 7f44 93bc 9847 873b
000001b0: 8f33 cfbb ff07 2a3c 483f 4a3c 02cc a33c
000001c0: 7d48 893c 3429 1c3c 9c00 1939 902a 8f3c
000001d0: 6d69 94bc 13b4 09bc 624b e83b 541d 4d3c
000001e0: 8872 05bc c930 8cbc b315 b73a f0d9 9c3c
000001f0: 3864 70bc a8e5 22bc d5ae d1ba 55b7 46bc

conv_layers.0.params.1 f4 [128]
-0.015331579 -8.196122e-06 -0.014043479 -0.009151984 -0.0085669635 -0.011890386 -0.012434171 -0.005258464
-3.1558116e-05 -5.1403504e-06 0.0004716097 -0.017685385 -0.017174957 -0.016656136 0.00024374595 -0.0044407723
0.00020081185 0.0010168445 9.200771e-05 0.00070843945 -0.0006347539 -0.00065459654 -9.40141e-05 0.0004014138
-0.0024893498 -0.010785555 -1.5069899e-05 8.412596e-05 0.0004941909 0.0013849878 -0.0064534624 0.0007345363
-1.6695334e-05 -0.0067217317 0.00081012375 -0.0076180734 -0.005114084 -0.0008073335 -0.007418103 -0.008127112
-0.012330788 0.0008161811 -0.011347191 0.00023363475 -0.012849774 0.00043438768 0.00034701455 -0.0035409136
0.0001779847 0.0002598244 -0.002200531 -0.005380272 -3.3626115e-05 -0.009478842 -1.7025503e-05 -0.005536705
-0.008943323 0.0013034794 0.00014843798 -0.0097714905 -0.007478579 -0.00088783575 0.00073468365 -0.004767154
0.00046222002 5.17755e-05 0.00050515746 -2.8164375e-05 -0.009540097 0.00058964227 8.589335e-05 -0.0114235375
-0.0002443798 4.5851062e-05 -0.007892504 0.0003182889 -1.2837012e-05 -0.01299019 -0.005683377 -0.013938952
0.000485029 0.00049424876 -0.005945877 -0.013544435 -1.0135736e-05 -0.012381607 -1.03433695e-05 -0.011033323
-0.007176112 -0.0046359543 0.00041811264 7.6376986e-05 -0.002475534 -0.017230287 0.00014479937 -1.2813609e-05
-2.532055e-05 0.0007251479 0.0004426724 -0.011375239 -0.005771564 -0.011199387 -0.0015889405 -0.0058357194
-0.013986413 -0.013047928 0.00026776383 -0.0048892125 0.00084795355 -0.007408499 -0.010728507 -0.0055719353
0.00087555294 -0.014945848 -5.9185295e-05 -0.008565205 0.0005782343 0.00018968988 0.00015765417 -0.015264599
-0.017493267 -0.0053776684 -1.9448556e-05 -0.014769973 -0.015288416 -1.2648376e-05 -0.010971339 -1.1331889e-05
00000000: 4e31 7bbc 1382 09b7 9f16 66bc 34f2 15bc
00000010: 735c 0cbc e5cf 42bc b1b8 4bbc 314f acbb
00000020: 455d 04b8 467b acb6 6242 f739 f1e0 90bc
00000030: 7fb2 8cbc 7372 88bc 0e96 7f39 e683 91bb
00000040: 0591 5239 a447 853a 43f4 c038 91b6 393a
00000050: 9d65 26ba 3b99 2bba 7029 c5b8 d974 d239
00000060: 5c24 23bb e5b5 30bc b9d4 7cb7 c86c b038
00000070: 978c 013a 7b88 b53a 9177 d3bb e68d 403a
00000080: f50c 8cb7 f941 dcbb 7c5e 543a 08a1 f9bb
00000090: 0c94 a7bb 3ca3 53ba 8f13 f3bb 9427 05bc
000000a0: 1307 4abc fdf4 553a 92e9 39bc dafb 7439
000000b0: dc87 52bc 87be e339 81ef b539 ac0e 68bb
000000c0: 67a1 3a39 0a39 8839 c936 10bb fe4c b0bb
000000d0: c409 0db8 254d 1bbc fdd1 8eb7 3f6d b5bb
000000e0: 0487 12bc 83d9 aa3a 04a6 1b39 9a18 20bc
000000f0: de0e f5bb a6bd 68ba c997 403a c935 9cbb
00000100: 1f56 f239 8529 5938 8b6c 043a 8942 ecb7
00000110: 114e 1cbc 3992 1a3a a421 b438 ca29 3bbc
00000120: 1a20 80b9 3450 4038 904f 01bc 03e0 a639
00000130: 8c5e 57b7 ced4 54bc 9f3b babb 3460 64bc
00000140: 7e4b fe39 7990 013a a2d5 c2bb 7ae9 5dbc
00000150: a80c 2ab7 39dc 4abc 6f88 2db7 1cc5 34bc
00000160: 9725 ebbb 34e9 97bb 2136 db39 952c a038
00000170: 923c 22bb 8826 8dbc 49d5 1739 08fa 56b7
00000180: 7867 d4b7 da17 3e3a 7c16 e839 365f 3abc
00000190: 631f bdbb a27d 37bc ff43 d0ba 9039 bfbb
000001a0: 4527 65bc fac6 55bc a762 8c39 b035 a0bb
000001b0: 3349 5e3a fec2 f2bb 9fc6 2fbc c894 b6bb
000001c0: 5d85 653a 6edf 74bc ba3d 78b8 1355 0cbc
000001d0: a694 173a 7de7 4639 f84f 2539 5e18 7abc
000001e0: 0a4e 8fbc 2737 b0bb 7525 a3b7 c2fd 71bc
000001f0: 447c 7abc 5c34 54b7 22c1 33bc 181e 3eb7

conv_layers.0.params.2 f4 [128]
0.0008195793 -0.007006507 -0.010825404 -0.016706035 0.0003494269 -0.004837728 -0.0053737806 0.00036105534
-0.010795184 -0.008012591 -0.0070972177 0.00057502685 -0.0048694815 -0.0029404894 -0.0067576882 -0.007888986
-0.0003018968 -0.0017230954 7.939066e-05 0.00046262465 -0.005175584 -0.011929005 0.0005923027 -2.1672597e-06
0.00047213113 -0.008969299 0.00074408314 3.2366712e-05 -0.012914982 -0.00015157677 0.0007036628 -0.0020298844
-0.009586747 -0.015235553 -0.016033363 -0.017292144 0.0007292321 -0.007129994 -0.00062774005 -0.006167352
-0.0020185073 0.00021676274 -0.015775392 0.0005496751 -7.1618056e-06 -0.0054815686 -0.010600732 0.0006240516
-0.015752107 0.001349738 -0.0018211856 -0.0010423905 0.0008109074 -0.014792396 8.6158434e-05 -0.0020518734
0.00069157657 -5.604209e-05 -0.011320745 -0.013701661 -1.1042145e-05 -0.013292151 -0.011056712 -0.0024455406
-0.0007381173 -0.008568844 -0.007329087 0.00067337666 0.00066443905 -0.014357434 0.0005694849 -0.012938137
-0.011072695 0.00022024837 -2.4068642e-05 -0.013403231 -0.017484574 -0.009832672 0.0004483854 -2.9199626e-05
0.00010317965 2.5282752e-05 0.00023122248 -0.005947785 0.0003943196 -0.0068537444 0.0004084495 -0.013468827
-0.0027049507 0.0012383258 -0.0058521535 -0.0031087436 -0.004532604 -0.005831571 -0.014293579 0.0007234041
0.0005347388 -1.7839608e-05 -0.014242586 -1.417506e-05 4.1542222e-05 -5.716053e-06 0.0009342324 -0.0023093086
-0.015814675 -0.0067043127 5.6465666e-05 0.0004937378 0.00035845695 0.00071629975 0.00061013293 0.00039833254
-0.014402212 -0.016534055 -0.007086202 5.5958088e-05 -0.012522373 0.0010063304 -0.0056779766 -0.00139226
0.0006100668 -0.015488445 -0.0040312656 -0.011837605 0.0006664702 -0.013829852 -0.0034176272 0.0008813071
00000000: 09d9 563a d796 e5bb 095d 31bc 18db 88bc
00000010: 4933 b739 ce85 9ebb 8a16 b0bb 074c bd39
00000020: 49de 30bc 3e47 03bc c78f e8bb 66bd 163a
00000030: 2c90 9fbb 3ab5 40bb 996f ddbb ce40 01bc
00000040: e747 9eb9 7dd9 e1ba 897e a638 6e8c f239
00000050: f297 a9bb e071 43bc c344 1b3a 3d71 11b6
00000060: 5e88 f739 f7f3 12bc 930e 433a 7ec1 0738
00000070: 5c99 53bc 94f0 1eb9 0376 383a cf07 05bb
00000080: bb11 1dbc 8a9e 79bc 6658 83bc 41a8 8dbc
00000090: f029 3f3a baa2 e9bb ec8e 24ba 8017 cabb
000000a0: ef48 04bb ce4a 6339 653b 81bc 1218 103a
000000b0: 714f f0b6 bb9e b3bb b1ae 2dbc 6597 233a
000000c0: 900a 81bc b1e9 b03a d9b4 eeba d2a0 88ba
000000d0: 1393 543a ce5b 72bc f5af b438 b978 06bb
000000e0: eb4a 353a bc0e 6bb8 a57a 39bc ee7c 60bc
000000f0: a741 39b7 52c7 59bc 3627 35bc 5d45 20bb
00000100: 377e 41ba 5664 0cbc d628 f0bb 8b85 303a
00000110: c02d 2e3a 713b 6bbc 7c49 153a 7bfa 53bc
00000120: 406a 35bc 79f2 6639 04e7 c9b7 3a99 5bbc
00000130: cf3b 8fbc 3719 21bc 4515 eb39 b8f1 f4b7
00000140: 2762 d838 4c16 d437 5074 7239 a3e5 c2bb
00000150: aebc ce39 6095 e0bb 2a25 d639 5bac 5cbc
00000160: 8b45 31bb 524f a23a 6cc3 bfbb 10bc 4bbb
00000170: 3d86 94bb c316 bfbb 9e2f 6abc d4a2 3d3a
00000180: b72d 0c3a 44a6 95b7 bc59 69bc 6bd1 6db7
00000190: 9f3d 2e38 85cc bfb6 46e7 743a c557 17bb
000001a0: c78d 81bc daaf dbbb 8cd5 6c38 2f6e 013a
000001b0: 47ef bb39 10c6 3b3a 54f1 1f3a 4ad7 d039
000001c0: 41f7 6bbc 6d72 87bc 5f33 e8bb 8ab4 6a38
000001d0: a42a 4dbc d8e6 833a 520e babb 7e7c b6ba
000001e0: e4ec 1f3a 3fc3 7dbc b518 84bb 84f2 41bc
000001f0: 0fb6 2e3a 9b96 62bc 45fa 5fbb 8507 673a

conv_layers.0.params.3 f4 [128]
-0.008674326 -0.0142345065 0.004784426 0.011333761 0.0024802864 0.012416509 -0.011152511 0.012685452
0.012534312 0.0114750825 -0.014610295 0.01079874 -0.010764791 0.012490527 0.0028501302 0.0053595183
-0.0023092018 0.013076563 0.012276226 0.010477639 -0.012558207 0.005260745 0.015760686 -0.008788967
-0.012861043 -0.014444929 0.0005061445 0.014582579 -0.006355796 0.012645541 0.011651645 0.012876952
-0.013115588 -0.003113849 -0.008555357 0.009995742 0.00762911 0.010288504 0.009674119 0.0147373
0.011722312 -0.012746966 -0.0055260425 0.014693607 -0.012960931 -0.0098498585 -0.010822045 -0.00806386
-0.0014113415 -0.00081499305 -0.01476803 -0.0071141194 -0.014002776 0.008137473 0.013348337 -0.015075436
0.01146571 0.013348055 -0.013358569 -0.010058114 -0.011940378 -0.014307071 -0.010442797 -0.004193483
0.0011492578 0.013405445 -0.0090617435 -0.010858415 0.007875547 0.008898567 -0.009248949 -0.012913208
0.014590553 -0.013418107 -0.00391137 0.007264208 0.0036795668 0.010583639 -0.01285444 0.011051993
-0.0032257726 -0.009413795 0.014563603 -0.014790726 0.00011788911 -0.012382686 -0.0124920895 0.0120825805
0.008612398 0.0059329225 -0.014822262 -0.013970894 -0.012903241 -0.011185997 -0.012892854 0.012616066
0.012293555 -0.0073087527 -0.00993458 0.012657111 0.009776388 -0.014026041 -0.009694713 -0.013470168
-0.013968612 0.010251948 -0.014751929 0.0022960152 -0.0003947382 0.011837917 0.014104903 0.015109621
0.009291743 0.012498699 0.0031995333 0.012078086 -0.01238097 -0.014749923 0.012882941 -0.003908084
0.004310363 -0.012711188 0.012393785 0.013591665 -0.011193227 -0.0001514685 -0.00050823484 -0.013100112
00000000: c31e 0ebc d937 69bc adc6 9c3b 3db1 393c
00000010: 4d8c 223b 9d6e 4b3c 06b9 36bc a4d6 4f3c
00000020: b75c 4d3c fc01 3c3c 0560 6fbc 33ed 303c
00000030: ce5e 30bc 11a5 4c3c 40c9 3a3b e69e af3b
00000040: fa55 17bb 153f 563c 3922 493c 67aa 2b3c
00000050: f0c0 4dbc 5462 ac3b 8e1c 813c 99ff 0fbc
00000060: 20b7 52bc 6caa 6cbc c8ae 043a c5eb 6e3c
00000070: 4844 d0bb 3e2f 4f3c 8be6 3e3c daf9 523c
00000080: c3e2 56bc b811 4cbb c52b 0cbc 2ec5 233c
00000090: 9dfd f93b 1d91 283c 3280 1e3c b774 713c
000000a0: f10e 403c a7d8 50bc ce13 b5bb 74bd 703c
000000b0: 165a 54bc 4d61 21bc f24e 31bc 481e 04bc
000000c0: c3fc b8ba 42a5 55ba 9bf5 71bc 8f1d e9bb
000000d0: e66b 65bc 0953 053c fcb2 5a3c f6fe 76bc
000000e0: acda 3b3c cdb1 5a3c e6dd 5abc caca 24bc
000000f0: 93a1 43bc 3568 6abc 4418 2bbc 7c69 89bb
00000100: b1a2 963a 83a2 5b3c b577 14bc 7ee7 31bc
00000110: 7008 013c 4ccb 113c e788 17bc ec91 53bc
00000120: 370d 6f3c 9fd7 5bbc f32a 80bb 9808 ee3b
00000130: e324 713b 0067 2d3c 6e9b 52bc 6b13 353c
00000140: 7c67 53bb 513c 1abc 2e9c 6e3c cd54 72bc
00000150: 3c3b f738 c0e0 4abc 9fab 4cbc 04f6 453c
00000160: 041b 0d3c f668 c23b 13d9 72bc 2de6 64bc
00000170: 1e68 53bc 7945 37bc 8d3c 53bc 9eb3 4e3c
00000180: e86a 493c 437e efbb a6c4 22bc c55f 4f3c
00000190: 252d 203c 7bcd 65bc 93d6 1ebc fbb1 5cbc
000001a0: 9bdc 64bc c9f7 273c 13b2 71bc be78 163b
000001b0: ddf4 ceb9 d3f3 413c 4018 673c 588e 773c
000001c0: 653c 183c 58c7 4c3c 43af 513b 2ae3 453c
000001d0: 8dd9 4abc a9a9 71bc f912 533c 620f 80bb
000001e0: f23d 8d3b 9642 50bc 4d0f 4b3c 93af 5e3c
000001f0: cc63 37bc 84d3 1eb9 103b 05ba daa1 56bc

conv_layers.0.params.4 f4 [128]
-0.00924337 -0.0020515563 -0.011283159 9.088548e-05 0.007446938 -0.013543305 -0.012808966 -0.005638343
-0.013037677 0.00045869267 -0.0048568402 -0.013796991 -0.01204642 -0.012193537 0.007266769 0.002646784
0.011854276 0.013341009 0.009663047 0.010678137 0.010975153 -0.0010427177 0.011254369 0.0124352705
0.01126626 -0.00984198 -0.00076618715 0.004518646 0.011593101 -0.0073615187 0.013611995 0.009498946
-0.0072741145 -0.010322665 -0.003758068 -0.0063983197 -0.007818544 0.012605936 -0.0031480992 -0.013193166
-0.00020640918 8.365028e-05 -0.013314131 0.014018945 -0.00805526 -0.002200796 0.010346911 0.0080765365
0.013201501 0.0133027 0.01334034 -0.008366276 0.012149007 -0.012544541 0.011576733 -0.01211876
-0.012827833 0.011733814 0.004403023 -0.0062571573 -0.011557128 -0.012143751 -0.0045263125 0.012313342
-0.0019088656 -0.008831279 -0.0017984074 0.0122862775 -0.0141077945 0.01160869 0.0133639285 -0.011948608
0.011924246 0.012358623 -0.011346798 0.010488239 0.008143907 -0.008569173 0.0071461033 -0.0076238806
-0.0009130431 0.008242696 -0.008404156 -0.0132177705 -0.001209241 -0.00765361 0.0071808244 -0.013891677
-0.009911591 -0.014324277 0.011735999 0.011441481 -0.012836193 -0.013137739 -0.011167796 0.012389145
0.012863693 0.014701763 0.0027647035 -0.013473936 0.007018589 0.0017116804 -0.004460465 -0.008658887
-0.012122115 -0.009345324 0.0068541826 0.012274243 0.012225781 -0.0057621743 -0.015263589 -0.012284765
-0.0036894092 -0.0118908845 0.011802562 -0.00953273 0.0030954764 0.014911151 0.013302215 -0.014124479
-0.012673542 0.010959797 -0.006432196 -0.013216723 -0.012934325 0.01023059 -0.015186634 0.011192895
00000000: 8171 17bc 6773 06bb 00dd 38bc c599 be38
00000010: 7205 f43b bde4 5dbc b3dc 51bc d9c1 b8bb
00000020: fb9b 55bc b07c f039 2126 9fbb c60c 62bc
00000030: 595e 45bc 67c7 47bc 141e ee3b ab75 2d3b
00000040: 7038 423c 3f94 5a3c c251 1e3c 5af3 2e3c
00000050: 21d1 333c cdab 88ba 3f64 383c 4ebd 4b3c
00000060: 1f96 383c 4240 21bc f3d9 48ba 2611 943b
00000070: fdf0 3d3c e538 f1bb d804 5f3c 78a1 1b3c
00000080: b25b eebb 6520 29bc eb49 76bb ffa8 d1bb
00000090: 5a19 00bc 2189 4e3c 5750 4ebb 2628 58bc
000000a0: 8b6f 58b9 676d af38 8323 5abc b8af 653c
000000b0: 36fa 03bc 3b3b 10bb 1786 293c 7353 043c
000000c0: 1c4b 583c 91f3 593c 7191 5a3c b412 09bc
000000d0: a10c 473c 9e87 4dbc 56ac 3d3c c38d 46bc
000000e0: d52b 52bc 2f3f 403c 3c47 903b d708 cdbb
000000f0: 1c5a 3dbc 95f6 46bc 7651 94bb e6bd 493c
00000100: e732 faba 12b1 10bc 8ab8 ebba 624c 493c
00000110: 6124 67bc 6032 3e3c 61f4 5a3c 18c4 43bc
00000120: ea5d 433c d27b 4a3c ece7 39bc ddd6 2b3c
00000130: 066e 053c b765 0cbc dc29 ea3b bfd1 f9bb
00000140: 4959 6fba 5f0c 073c 96b1 09bc 598f 58bc
00000150: 657f 9eba 22cb fabb 1f4d eb3b eb99 63bc
00000160: 3a64 22bc 5fb0 6abc 5948 403c 0d75 3b3c
00000170: e54e 52bc ac3f 57bc 22f9 36bc d7fb 4a3c
00000180: 3dc2 523c aadf 703c 0730 353b c9c1 5cbc
00000190: 31fc e53b 775a e03a 1829 92bb 01de 0dbc
000001a0: d69b 46bc 211d 19bc 0d99 e03b e819 493c
000001b0: a44e 483c 9fd0 bcbb 2214 7abc 0a46 49bc
000001c0: 04ca 71bb fcd1 42bc 885f 413c 2b2f 1cbc
000001d0: 7add 4a3b e64d 743c 89f1 593c 5c6a 67bc
000001e0: b0a4 4fbc b890 333c 2cc5 d2bb f48a 58bc
000001f0: 7eea 53bc 349e 273c 5cd1 78bc 6762 373c

conv_layers.0.params.5 f4 [128]
0.008208975 -0.0093814405 -0.01388754 -0.011930513 0.013927672 -0.011892703 -0.00756915 -0.002124375
-0.012057125 -0.009940622 -0.008658447 -0.013914933 -0.01400273 0.009328053 -0.0130509185 -0.011563021
0.01033574 -0.008940989 -0.00075213076 -0.010918827 -0.00902885 -0.011257806 0.002943323 0.0105428165
0.01237729 -0.009976933 0.012681202 -0.0037935155 -0.012841715 0.010984392 0.011628302 -0.0026747407
0.0029941723 -0.012975228 -0.010264819 -0.014018761 0.009114696 -0.013585451 -0.010255213 -0.011692188
-0.015355851 -0.0064811828 -0.013563227 0.011890978 0.007915586 -0.006788097 -0.011165984 0.011789305
-0.013507404 0.010988491 -0.013147945 0.005487119 0.008796746 -0.014258072 0.013267176 -0.010142226
0.0047144783 0.012766442 -0.011323018 -0.013977557 0.0132656805 -0.00993764 -0.012658202 0.0062565426
0.0013515516 -0.01106508 -0.014278546 -0.00021561436 0.015934223 -0.0135200145 0.0129742045 -0.014978609
-0.012053927 0.0064276378 0.007566974 -0.012882927 -0.014960467 -0.013740227 0.012408902 -0.012695434
0.0062522464 0.010024653 0.0071570277 -0.012378936 0.014140319 -0.011980534 0.012995083 -0.009836548
-0.013257881 0.014873862 -0.01397223 -0.01105431 -0.012114516 -0.011195356 -0.0092171645 0.011447892
0.011397642 0.010538548 -0.010934246 -0.0028536886 0.013810114 -0.0035358816 0.013650541 -0.00898192
-0.013451656 -0.0025799575 -0.0094414 0.0022500043 0.014907451 0.0117888935 0.010003217 0.010790258
-0.012337784 -0.00966388 -0.011852865 0.0060108663 -0.0127678 0.010309688 -0.010631489 -0.011286424
0.0045793587 -0.009540128 -0.00855703 -0.010645301 0.008786688 -0.010815022 -0.012956849 0.01102233
00000000: f07e 063c 9db4 19bc 9188 63bc 3378 43bc
00000010: e430 643c 9dd9 42bc a206 f8bb 1939 0bbb
00000020: 3f8b 45bc fedd 22bc 29dc 0dbc 76fb 63bc
00000030: b56b 65bc b1d4 183c 85d3 55bc d372 3dbc
00000040: 3c57 293c 3a7d 12bc a42a 45ba e1e4 32bc
00000050: beed 13bc a972 38bc c4e4 403b c7bb 2c3c
00000060: 1eca 4a3c 4a76 23bc d1c4 4f3c a19c 78bb
00000070: 0e66 52bc e1f7 333c a284 3e3c b44a 2fbb
00000080: e039 443b 0d96 54bc c52d 28bc f2ae 65bc
00000090: ce55 153c 8395 5ebc 7b05 28bc 9790 3fbc
000000a0: 1b97 7bbc 1a60 d4bb 4c38 5ebc 60d2 423c
000000b0: 60b0 013c af6e debb 88f1 36bc ee27 413c
000000c0: 294e 5dbc 1209 343c 7a6a 57bc 4acd b33b
000000d0: 3a20 103c b09a 69bc 925e 593c 942b 26bc
000000e0: e97b 9a3b 572a 513c 2e84 39bc 2002 65bc
000000f0: 4c58 593c 7cd1 22bc 5964 4fbc af03 cd3b
00000100: 8c26 b13a 4f4a 35bc 90f0 69bc 8a16 62b9
00000110: 7d88 823c 0d83 5dbc c291 543c d768 75bc
00000120: d67d 45bc ef9e d23b 61f4 f73b ea12 53bc
00000130: bf1c 75bc b01e 61bc b54e 4b3c 8200 50bc
00000140: a5df cc3b 713e 243c 8085 ea3b 05d1 4abc
00000150: ccac 673c 004a 44bc 54e9 543c 7929 21bc
00000160: 9537 59bc 80b1 733c c8eb 64bc 231d 35bc
00000170: f77b 46bc ba6c 37bc 9703 17bc f08f 3b3c
00000180: 2dbd 3a3c e0a9 2c3c 8d25 33bc f304 3bbb
00000190: d143 623c 40ba 67bb 85a6 5f3c e728 13bc
000001a0: 5664 5cbc 8114 29bb 1ab0 1abc cf74 133b
000001b0: 623e 743c 3426 413c 88e4 233c 9fc9 303c
000001c0: 6b24 4abc 4055 1ebc 8532 42bc cdf6 c43b
000001d0: 0930 51bc f7e9 283c b22f 2ebc b1ea 38bc
000001e0: 720e 963b 324e 1cbc c932 0cbc a169 2ebc
000001f0: 0af6 0f3c 7d31 31bc f748 54bc 0197 343c

conv_layers.0.params.6 f4 [128]
0.98472553 1.007474 0.9855741 0.98759234 0.9886879 1.0048702 0.9879001 0.98816186
1.0021669 1.0068796 1.0113353 1.0024531 0.9876633 0.99313074 1.0006543 0.98713195
1.0082059 0.98983616 1.0010536 0.99387115 1.0092541 0.9856708 1.0063213 0.99756384
1.0096917 1.0146024 0.9938348 0.9999324 1.0049002 1.0163548 0.98327136 0.9874382
1.0104274 0.9993587 1.0102396 0.9878556 0.9965211 0.99866676 0.9845441 1.0111598
0.99258155 0.9851504 1.0019525 1.0122359 0.99626833 0.9987438 0.9899921 0.9997454
0.9884323 0.9934211 1.0099846 0.9869626 1.0192245 1.00362 0.98481756 1.0051248
0.9985242 1.0029874 1.008914 0.9884441 0.99612105 1.0146868 1.0140191 1.0117562
0.98172194 0.99526906 1.0054661 0.9972738 1.0002817 0.98906666 1.0053581 0.99581826
0.9898383 0.9986628 0.99438596 0.9956609 0.98398644 1.0148572 0.99254286 0.99863917
0.9897775 0.9864159 0.9908194 1.0189053 0.98815817 0.9877449 1.0091271 1.0031172
0.99571484 0.98137754 0.99676853 1.007537 1.0126238 0.998411 1.000449 0.9875234
1.0018743 1.000123 0.99108434 1.0134125 1.0028566 1.0161879 0.98521334 1.0177864
0.9959152 0.99297523 1.0094103 0.9947715 0.9891008 0.9918824 0.9884872 1.0059062
1.0018711 0.99791545 0.98609835 1.0087727 1.0065216 1.0158285 0.98635143 1.0116415
0.98353684 1.0137849 0.9980704 1.0085588 0.9978821 0.98493445 0.9881567 1.0107977
00000000: f916 7c3f e8f4 803f 964e 7c3f dad2 7c3f
00000010: a61a 7d3f 969f 803f 05e7 7c3f 2df8 7c3f
00000020: 0147 803f 6ee1 803f 6f73 813f 6250 803f
00000030: 81d7 7c3f d13d 7e3f 7115 803f aeb4 7c3f
00000040: e40c 813f e765 7d3f 8622 803f 576e 7e3f
00000050: 3d2f 813f ec54 7c3f 23cf 803f 5860 7f3f
00000060: 943d 813f 7ede 813f f56b 7e3f 92fb 7f3f
00000070: 92a0 803f ea17 823f acb7 7b3f c0c8 7c3f
00000080: af55 813f f9d5 7f3f 884f 813f 1be4 7c3f
00000090: 021c 7f3f a0a8 7f3f 150b 7c3f af6d 813f
000000a0: d319 7e3f d132 7c3f fb3f 803f f290 813f
000000b0: 710b 7f3f acad 7f3f 1f70 7d3f 51ef 7f3f
000000c0: e609 7d3f d850 7e3f 2d47 813f 95a9 7c3f
000000d0: f375 823f 9f76 803f 011d 7c3f eea7 803f
000000e0: 489f 7f3f e461 803f 1824 813f ac0a 7d3f
000000f0: ca01 7f3f 42e1 813f 61cb 813f 3a81 813f
00000100: 2152 7b3f f4c9 7e3f 1db3 803f 564d 7f3f
00000110: 3b09 803f 7933 7d3f 93af 803f f2ed 7e3f
00000120: 0b66 7d3f 5ea8 7f3f 1490 7e3f a2e3 7e3f
00000130: 89e6 7b3f d7e6 813f 4a17 7e3f d1a6 7f3f
00000140: 0f62 7d3f c185 7c3f 57a6 7d3f 7d6b 823f
00000150: eff7 7c3f dadc 7c3f 142b 813f 2566 803f
00000160: 2be7 7e3f 8f3b 7b3f 392c 7f3f f9f6 803f
00000170: a89d 813f dd97 7f3f b60e 803f 55ce 7c3f
00000180: 6b3d 803f 0804 803f b4b7 7d3f 80b7 813f
00000190: 9b5d 803f 7212 823f f136 7c3f d346 823f
000001a0: 4cf4 7e3f a033 7e3f 5b34 813f 58a9 7e3f
000001b0: b635 7d3f 01ec 7d3f 7f0d 7d3f 89c1 803f
000001c0: 503d 803f 6377 7f3f f170 7c3f 771f 813f
000001d0: b3d5 803f ab06 823f 8781 7c3f 787d 813f
000001e0: 12c9 7b3f b4c3 813f 8b81 7f3f 7418 813f
000001f0: 3475 7f3f aa24 7c3f d6f7 7c3f d261 813f

conv_layers.0.params.7 f4 [128]
0.9887826 0.9902616 0.9980056 0.98970526 0.9847716 1.0099293 1.0053617 1.000932
1.0101466 1.0118735 0.99203444 0.9982206 0.9909248 1.0073752 0.9889731 0.9914279
1.0099524 0.9980304 0.9892659 0.99370086 1.0021851 0.98884386 1.00231 0.9952625
0.9852104 0.9886728 0.99877304 0.9946389 0.98374265 0.9962853 0.9977568 0.98883885
1.0083778 0.9997042 0.9914371 0.99262327 0.992535 1.0049051 0.98837984 1.0136575
0.99961865 0.9891995 0.98959863 1.0002341 1.0108682 0.9895425 0.9899454 0.9849398
1.0134721 0.9995483 0.991186 0.99505734 0.9993231 1.0015457 1.0077298 1.012838
1.0162286 0.9862786 0.9935466 1.007045 1.0133501 1.0038992 1.0020852 0.9896047
1.0101147 0.99378014 1.0101556 1.0030509 1.017305 0.99608266 1.0110172 0.99432504
1.0044432 1.003336 1.0096115 0.9895234 1.0030991 0.9914763 0.98468065 0.98954153
1.008035 0.9949889 0.98838216 0.9990094 0.99918324 0.99398565 0.99937296 1.0037029
1.0108827 1.01827 0.99399716 0.9966495 1.0102608 1.0032868 1.0060236 1.004827
0.9977767 0.9901905 1.003274 0.99080426 0.98879004 0.98457134 1.0049285 1.0015571
0.9882625 0.99069136 0.98995703 0.9995861 1.0022752 0.99538034 1.0055097 0.9962021
0.9981322 0.99643564 1.014943 0.98469603 1.0000271 1.001172 1.0109941 1.012874
1.01158 0.9928901 1.0000802 1.0126429 1.0018417 1.0052468 1.0129486 1.0030955
00000000: db20 7d3f c981 7d3f 4c7d 7f3f 535d 7d3f
00000010: fe19 7c3f 5d45 813f b1af 803f 8a1e 803f
00000020: 7c4c 813f 1285 813f f8f5 7d3f 638b 7f3f
00000030: 3fad 7d3f acf1 803f 572d 7d3f 38ce 7d3f
00000040: 1f46 813f ec7e 7f3f 8840 7d3f 2e63 7e3f
00000050: 9a47 803f df24 7d3f b24b 803f 86c9 7e3f
00000060: c036 7c3f a919 7d3f 97af 7f3f a8a0 7e3f
00000070: 8fd6 7b3f 8e0c 7f3f fd6c 7f3f 8b24 7d3f
00000080: 8612 813f 9dec 7f3f d2ce 7d3f 8f1c 7e3f
00000090: c616 7e3f bba0 803f 7606 7d3f 87bf 813f
000000a0: 02e7 7f3f 2e3c 7d3f 5656 7d3f ac07 803f
000000b0: 2164 813f a852 7d3f 106d 7d3f 0425 7c3f
000000c0: 74b9 813f 66e2 7f3f 5ebe 7d3f 14bc 7e3f
000000d0: a4d3 7f3f a632 803f 4afd 803f ada4 813f
000000e0: c713 823f c17c 7c3f 1259 7e3f dae6 803f
000000f0: 75b5 813f c57f 803f 5444 803f bc56 7d3f
00000100: 704b 813f 6068 7e3f c74c 813f f963 803f
00000110: 0d37 823f 46ff 7e3f 0369 813f 168c 7e3f
00000120: 9891 803f 506d 803f f33a 813f 6851 7d3f
00000130: 8d65 803f 64d1 7d3f 0814 7c3f 9852 7d3f
00000140: 4a07 813f 98b7 7e3f 9d06 7d3f 14bf 7f3f
00000150: 79ca 7f3f d875 7e3f e8d6 7f3f 5679 803f
00000160: 9b64 813f ac56 823f 9976 7e3f 6c24 7f3f
00000170: 3a50 813f b46b 803f 62c5 803f 2c9e 803f
00000180: 4b6e 7f3f 207d 7d3f 486b 803f 59a5 7d3f
00000190: 5821 7d3f de0c 7c3f 7fa1 803f 0633 803f
000001a0: c5fe 7c3f f39d 7d3f d36d 7d3f e0e4 7f3f
000001b0: 8e4a 803f 3fd1 7e3f 8bb4 803f 1a07 7f3f
000001c0: 9885 7f3f 6816 7f3f a7e9 813f 0a15 7c3f
000001d0: e300 803f 6726 803f 4168 813f dba5 813f
000001e0: 747b 813f 0c2e 7e3f a102 803f 489e 813f
000001f0: 593c 803f edab 803f 4da8 813f 6f65 803f

conv_layers.0.params.8 f4 [128]
0.98972285 0.98948574 1.0120034 1.0076791 0.9921351 1.0062993 0.9981953 0.9985312
0.9910598 0.9952967 0.9955349 1.0062692 1.0091183 1.0097489 1.0073448 1.0057062
1.0033926 0.99079573 0.98968184 1.0096074 0.9913791 0.99014455 0.99711627 1.0121834
1.0102222 0.99340355 1.0040739 1.0084083 0.9878029 0.9963398 0.9881375 1.0003617
0.9956371 1.0090485 0.9840834 1.0062557 0.9959168 0.99224836 0.9989793 1.0106119
1.0140386 0.9993773 1.0081235 1.0030316 0.98835546 0.99283624 0.9982837 1.0056986
1.0102619 0.9965972 0.9986808 0.9869098 0.99474734 1.011658 1.0037152 0.99998856
0.9870764 0.99969184 0.98687255 1.0101231 0.9916103 0.9846234 0.9955365 0.9934562
0.9967244 0.99629354 1.0163525 0.99511397 0.98873746 1.0051006 1.0022047 1.011349
0.9933219 0.9865635 1.0130002 0.9948645 1.0101956 0.9911823 0.9914878 1.0037766
0.9932478 0.99104476 0.99239963 1.0121262 0.9932388 0.9979751 1.0024917 0.98819023
1.0139128 1.0030366 0.9998574 0.98892707 1.0093459 1.0091319 0.9887968 0.9979212
0.9884336 0.9864348 0.99166775 0.9864599 0.9993655 0.99055725 0.99818677 0.9835991
1.0072277 0.9909925 1.0122234 0.9897209 0.9980483 0.99945635 0.9883736 0.9895605
1.0096682 0.98356444 1.0062627 0.9855864 1.0060993 0.9927346 1.0062451 1.013205
1.0037023 0.98662734 0.98542804 0.9998275 0.99632466 1.0101812 1.0017825 0.99764633
00000000: 7a5e 7d3f f04e 7d3f 5489 813f a1fb 803f
00000010: 91fc 7d3f 6ace 803f ba89 7f3f be9f 7f3f
00000020: 18b6 7d3f c4cb 7e3f 60db 7e3f 6ecd 803f
00000030: ca2a 813f 743f 813f adf0 803f fbba 803f
00000040: 2b6f 803f caa4 7d3f ca5b 7d3f d13a 813f
00000050: 05cb 7d3f 1d7a 7d3f 0343 7f3f 3a8f 813f
00000060: f64e 813f b24f 7e3f 7e85 803f 8613 813f
00000070: a7e0 7c3f 2010 7f3f 94f6 7c3f da0b 803f
00000080: 13e2 7e3f 8028 813f e4ec 7b3f fdcc 803f
00000090: 67f4 7e3f fd03 7e3f 1bbd 7f3f bb5b 813f
000000a0: 04cc 813f 31d7 7f3f 310a 813f 5763 803f
000000b0: dd04 7d3f 842a 7e3f 858f 7f3f bbba 803f
000000c0: 4350 813f fe20 7f3f 8ba9 7f3f 1fa6 7c3f
000000d0: c3a7 7e3f 027e 813f bd79 803f 40ff 7f3f
000000e0: 0ab1 7c3f ceeb 7f3f aea3 7c3f b74b 813f
000000f0: 2cda 7d3f 4710 7c3f 7bdb 7e3f 2553 7e3f
00000100: 5529 7f3f 180d 7f3f d717 823f cabf 7e3f
00000110: e61d 7d3f 23a7 803f 3e48 803f e273 813f
00000120: 584a 7e3f 6d8f 7c3f fea9 813f 71af 7e3f
00000130: 174e 813f 20be 7d3f 25d2 7d3f c07b 803f
00000140: 7d45 7e3f 1cb5 7d3f e70d 7e3f 5a8d 813f
00000150: e644 7e3f 4c7b 7f3f a651 803f 09fa 7c3f
00000160: e5c7 813f 8163 803f a8f6 7f3f 532a 7d3f
00000170: 3f32 813f 3c2b 813f c921 7d3f c477 7f3f
00000180: fc09 7d3f fe86 7c3f f0dd 7d3f a388 7c3f
00000190: 6bd6 7f3f 2995 7d3f 2b89 7f3f 27cd 7b3f
000001a0: d6ec 803f afb1 7d3f 8990 813f 595e 7d3f
000001b0: 1880 7f3f 5fdc 7f3f 0d06 7d3f d653 7d3f
000001c0: cf3c 813f e1ca 7b3f 37cd 803f 644f 7c3f
000001d0: ddc7 803f db23 7e3f a4cc 803f b4b0 813f
000001e0: 5179 803f 9c93 7c3f 0345 7c3f b2f4 7f3f
000001f0: 220f 7f3f 9e4d 813f 693a 803f c065 7f3f
