trained_model/2025-06-19_14-56-56/saved_model_2025-06-19_14-56-56.pkl (torch, 820950 bytes, 54 tensors)

conv_layers.0.f_lin.0.weight f4 [128, 5]
00000000: d044 57be 807a 413e 0cab 123d 6222 383e
00000010: c260 9a3d efa1 9e3d fa6e 303e ebab 0d3e
00000020: 2947 41bc c68a c2bd 4f78 a9bc 223b 22be
00000030: 7128 253e 032b 953d bc96 3b3e 4d6b 2e3e
00000040: c084 68be 81da c9bc 7b5a 83bd 0c0a 073e
00000050: 84c5 5a3d 1b00 37be ac0e 1fbe e94e 5d3e
00000060: ff2a 503e 0a79 38bd f70f 273d 7f30 d23c
00000070: 0e30 cd3d 0d9a 613c 0f65 453d 74f8 933d
00000080: b9a3 afbd 9942 e93d ad28 523e bc73 a93c
00000090: 93bf 3bbe 9653 183e 0cea 893d 6ed0 10be
000000a0: 5cde db3d 7e4c 66be 8f1a 00be d034 3b3e
000000b0: bc8a ab3d 2de0 d53d 7af2 d6bd 7a26 acbd
000000c0: 6dfc 8a3d e172 b13d d33d 07bd 1720 a63d
000000d0: bfdb e3bd 87ae 323e 825e 1f3e ce98 c8bd
000000e0: 18e5 a5bd 3776 9abd 79b6 3cbe 2046 ba3d
000000f0: 6a3a 303e ab73 1cbc e8d6 2c3e 1661 27be
00000100: bdec efbd 0d8e acbd 7425 3abd 568f 143e
00000110: 0624 593d bc57 283e 7403 0d3e a195 85bd
00000120: fdf8 a83d 4a20 e73d 407c 2d3e bb4c 0e3e
00000130: 3566 243e 9c85 083d 2cfb b83d 7385 753e
00000140: d230 05be b47b 0ebe 2150 bd3b 99b9 473e
00000150: 9ec1 78be b644 763d f216 0cbe 3af5 5dbe
00000160: e981 933d fe21 06be 0007 ef3d 5941 09be
00000170: e35c 2fbe 6bee 22be ce67 26bb cff0 4ebe
00000180: bfde 033e d479 af3b a8d4 363e cbad c13d
00000190: 399f eabc f43f 353e a702 03bd 3fa2 9c3d
000001a0: 9de6 3d3d bb9d 55be 618b 8b3d 7e6b c6bd
000001b0: 0c3f 45be 92ac 2bbe ccc2 0fbe b5c4 67be
000001c0: d17b 0bbe 16b2 c3bd 4f25 c63d cf3d 7cbd
000001d0: 27fc d6bc a6de 9fbd 1d29 3f3e b862 a63d
000001e0: 8c35 3e3b 7dbc ddbc 4b1f 55bd 8ccd 46be
000001f0: 2569 43be feb3 c33b 8955 b63d 4329 ed3d
00000200: f819 4f3d 9d0f 233e fdd5 f53d 4f53 dbbb
00000210: 77ef be3d 9ac0 a83d 0646 86bc 3100 8fbd
00000220: 1d13 163e ce62 2f3e 01c5 ffbc 5aff 453e
00000230: a313 cebd e7d0 a73d bbcb 3b3e 67a1 233e
00000240: fdb2 70bd 82d6 c43d c478 163d b305 2abe
00000250: b95d d1bd 83fc cdbd c577 7abd bbb7 24be
00000260: 19ae bf3b fb62 1dbe 59b3 e93c 8c3d a23b
00000270: 72ea 523e 494e 0c3e f873 fbbc 0db5 bebd
00000280: 45dc 83bd 63df 46bc 8304 fe3d f231 b83c
00000290: d721 38bd 572c 13be 1ac4 4abe db69 263e
000002a0: 3968 a6bd 7338 5bbe 3fd0 4bbd 6594 463e
000002b0: 5754 283e 210e 1abe 2864 a7bb 81f6 ec3d
000002c0: 7be5 0a3e f711 c83d 3e4b 473e b247 77bd
000002d0: 6685 323e c849 57bd 2da2 0b3d 3d6d 14be
000002e0: bb22 0c3d d371 14be d062 42be 5ba0 cdbd
000002f0: e8aa 91bd 188d 913d b5a5 c83b ce8c 463d
00000300: 8e89 7b3c 230f 433e ad86 ecbb c215 123e
00000310: b5cc a83d 25e7 6d3c 9db6 353e 854c d73b
00000320: 8a52 c7bd 3368 cdbd 7a29 47be 3ea5 3ebd
00000330: cdb6 513e 852a 113d b0ce 2b3e 8c91 f73d
00000340: d5ed 1f3e c643 363e 0960 303d 3836 c3bd
00000350: f874 3e3e 0d72 ce3c 6623 7abd 9c89 99bd
00000360: 4c3b 053e 918a c8bd ae31 1b3d 0c21 8e3d
00000370: 82ad e5bd d1c3 abbc 3089 3a3e 0140 ff3d
00000380: 9e80 25be c1d4 a03d 4742 82be 67eb 133d
00000390: f50a a2bd 0ae3 6e3d 2cd7 13be b04c 113e
000003a0: 019a b43d f962 2b3e fe1b 593d b4cc 05be
000003b0: 2227 67bd e62d 2d3e 7093 fe3c adac b1bd
000003c0: 6b2f 41bc 15a3 52be c9eb 04be a63e 74bd
000003d0: 5624 6c3e 2939 0b3c f21a 57be 3c2f 103e
000003e0: 6ff6 01be e7f4 9e3c 7b64 cbbd 00e0 4cbe
000003f0: cb0e 01be d911 fabd d53f 593e 45bc 4bbe
-0.21022344 0.18894386 0.035807654 0.17981866 0.07537986 0.0774573 0.17229834 0.13835113
-0.011796751 -0.09499125 -0.02068725 -0.1584287 0.16128708 0.072835945 0.1831922 0.1703312
-0.2270689 -0.024640324 -0.06413742 0.13187426 0.05341102 -0.17871134 -0.1553294 0.21612133
0.20328902 -0.045037307 0.04078671 0.02565789 0.10018931 0.013769639 0.04819208 0.07225123
-0.085761495 0.113896556 0.20523329 0.02068507 -0.18334799 0.14875636 0.06734094 -0.1414201
0.10735771 -0.22490117 -0.12510131 0.18281865 0.08376071 0.10443149 -0.104954675 -0.08405776
0.06786428 0.086644895 -0.033017945 0.081115894 -0.111258976 0.1744939 0.15563396 -0.0979477
-0.08100337 -0.07542079 -0.18428983 0.090954065 0.17209783 -0.009549062 0.16878855 -0.16345629
-0.11715076 -0.084255315 -0.045445874 0.14507803 0.05301287 0.16439718 0.13770849 -0.0652268
0.08250616 0.112854555 0.16941929 0.13896458 0.16054614 0.033330545 0.09032282 0.23976688
-0.13006905 -0.13914376 0.0057773744 0.19504394 -0.24292609 0.06012412 -0.13680628 -0.21675578
0.07202513 -0.13098904 0.11671257 -0.13403834 -0.17125277 -0.15911262 -0.0025391462 -0.20209049
0.1287794 0.005355099 0.1785456 0.094569765 -0.028640376 0.17700177 -0.03198495 0.076481335
0.046362508 -0.2086095 0.06813694 -0.09688471 -0.19262332 -0.16765049 -0.14039153 -0.22633632
-0.13621451 -0.095554516 0.09675085 -0.061582383 -0.026243282 -0.07806139 0.18668027 0.08124298
0.0029023616 -0.027067417 -0.052031796 -0.19414347 -0.19083078 0.0059723845 0.08903033 0.11580136
0.050561875 0.15923925 0.12003706 -0.006693281 0.09323018 0.08239861 -0.016390812 -0.069824584
0.14655729 0.17127535 -0.031221868 0.1933569 -0.10062339 0.08194142 0.18339436 0.15979539
-0.058764447 0.096112266 0.036736265 -0.16603737 -0.10222954 -0.100579284 -0.061149377 -0.16085713
0.0058496115 -0.1536979 0.028527902 0.0049511846 0.20597246 0.13701738 -0.030694947 -0.093118764
-0.064384975 -0.0121382205 0.12403204 0.022484753 -0.044954147 -0.14372383 -0.1980137 0.16251318
-0.08125348 -0.21408252 -0.049759146 0.19392546 0.16438423 -0.15044452 -0.005108375 0.115704544
0.13564102 0.097690515 0.19462296 -0.06037111 0.174337 -0.052560598 0.03409021 -0.14494796
0.03421281 -0.14496545 -0.18983006 -0.10040351 -0.07112676 0.071069896 0.0061232694 0.048474126
0.01535262 0.19048743 -0.007218203 0.14266112 0.0824217 0.014520441 0.17745443 0.006570401
-0.0973254 -0.1002964 -0.19449416 -0.046544306 0.20479889 0.03544094 0.16778064 0.12088308
0.1561807 0.17799291 0.043060336 -0.09531826 0.18599308 0.025200868 -0.061068915 -0.0749695
0.13010901 -0.097920544 0.037889175 0.06939897 -0.112147346 -0.020967396 0.18216395 0.1246338
-0.16162345 0.078530796 -0.2544119 0.03611317 -0.07912246 0.05832199 -0.1443755 0.1418941
0.088184364 0.16736974 0.05300521 -0.1306637 -0.056433804 0.1691204 0.031076163 -0.086755134
-0.0117910905 -0.20570023 -0.1298057 -0.05963006 0.23060736 0.008497515 -0.21006373 0.14080518
-0.12691663 0.019403888 -0.099312745 -0.20007324 -0.126033 -0.122104354 0.21215756 -0.19896038

conv_layers.0.f_lin.1.weight f4 [128, 5]
00000000: bdf1 13bd 52de 2fbe 498f 2bbe c719 d0bd
00000010: 1dc8 c83d bbfb 23bd ca44 b53d e194 cebd
00000020: 4f3b 80bd 63c1 69bd a6ce 723c 37a5 02be
00000030: 3339 22be f072 473e 8dc1 0b3e 049f ff3d
00000040: fdc6 cb3c 98ae 043e 6ac7 db3d 636c 203e
00000050: 0d12 58be 4864 2e3d 355e f73d 8914 c73d
00000060: addc f1bd 5ca0 e93d 113c 303e d4b4 8e3d
00000070: 6ff6 823c 6ad2 e8bd 4079 313e 79f4 423e
00000080: 2e44 45bc 97ed a2bd 7bd8 dd3d a300 c3bd
00000090: 0d4a 86bc b43c 2e3e 4e49 cd3d c720 873d
000000a0: a28a e4bd 6605 033e f8e4 31be 5dc9 ffbd
000000b0: 03be 66be e0f0 9a3d a34b 263e 76c1 46be
000000c0: 747b 023d da9d 36be 074e df3a 391d 83be
000000d0: a3dd c5bd 7a72 023e f9fe 8a3d fdeb 2b3e
000000e0: e4a6 c8bd b959 4c3e 435b 23be 4b54 75be
000000f0: 1a52 1c3e 6a06 5abd 6caa 4f3e 3590 d1bd
00000100: 405c 4a3d 9482 703c 8965 49be 650a 80bb
00000110: 53cb 303e 0fd2 6fbe 9c6f 4bbe 4f77 94bd
00000120: 6b95 be3c 983c 0c3e d9fb 64be 0395 113e
00000130: 1bd4 88bc 19d0 4f3e 050f 2abe 0935 4bbe
00000140: 4098 30be 07af 423e 7d0e 253e 1940 403a
00000150: bd1d 8fbc 2548 bd3d d9ed 773c c2fc 47be
00000160: 1ee1 403e 4d82 b23d 4c96 553e bf2f 913d
00000170: dff4 36bd cef5 bebd aedd 51be 1f0b 5e3c
00000180: 2b75 ec3d ef35 3b3d 2b30 03bd b83e 3e3e
00000190: b2b5 20be 7155 ee3c afd5 f8bd ee67 573e
000001a0: caf4 3d3d fc8c 173e e9c8 27be a302 873d
000001b0: e85b d7bd 8e47 2bbe 368a 2a3e 5f1e 8d3b
000001c0: 22cd 31bc d860 693d 3c0b 95bc 1731 b33d
000001d0: dd03 acbd 3752 863c 6cae a13d 16ab 363e
000001e0: 6362 38be 9796 c2bd 51e4 473e d22e 34be
000001f0: 8c9e ecbd 172d 5bbe ad6f a9bd 3b14 c93c
00000200: 2225 4abe 479e 36be 2098 56be 747a 9bbb
00000210: a070 0ebd b46c 373e be8b 14be de3d c73d
00000220: 01e2 ae3d 60f5 a93d 90a5 96bc 622f b73b
00000230: 7fc2 5cbe f778 74bd 496c 573b b27a 303c
00000240: 9215 3dbe 3336 ed3d 6b13 c5bd cb29 36be
00000250: bd36 aabd f9e0 63be 6361 1a3e 6c56 343e
00000260: e262 203e 9cfb 20be 0ad9 c93d 4f2c 68be
00000270: a589 283e 982e cbbd 61fe cdbd 2939 1abe
00000280: a485 f63d 77a7 83bd 2e61 313e 7529 0d3d
00000290: 427f 5c3e 9869 073d 5f4b 283e b7ea 4d3e
000002a0: 5fa1 71bd a9ba 873d 1752 da3d 054a ce3d
000002b0: ad1c 2bbe 2f01 18be 81d3 883c 0a3d 4abe
000002c0: c0ac ebbd acbc c0bd d8c0 53bd 0639 9ebb
000002d0: af61 37be 6a4b 31bd 8aa3 1f3e 07b8 1dbc
000002e0: ed23 77bd c293 2c3e 5408 fe3d c67b 313e
000002f0: 4df2 11bd 764e 653e 6339 21be feb6 5e3d
00000300: 7bdf 3abe 9f21 033e c065 753e 7c60 d23c
00000310: 11da 033e 9a99 95bd c749 69bd c642 4e3e
00000320: 2dde 1ebe 941c 07be 3eb8 cb3d 3b46 593e
00000330: 22f6 5cbd 8062 aabd 058a 7a3d 751d f5bc
00000340: 0f91 38bd 1e8e 04bd 1d8d 27be 80a5 3cbe
00000350: 8b43 f23d dbb0 60be 79d5 ba3d eeb3 21bc
00000360: 7e8b d7bd 5873 e0bd d115 013e 0158 7ebe
00000370: 85b9 74bd 0b2f c5bd 5b10 94bd 4596 d23d
00000380: fc73 143e a90a 33be bdd6 503e 575c 233e
00000390: e6c6 6abe f9d2 523e 449c 503c a87e 853d
000003a0: 1512 913d d598 97bd 69b7 20bc 266d cfbd
000003b0: eb10 65bd 70f5 573e aa2d 3dbe 0114 243e
000003c0: 2073 483d ac30 693e 12bb 8d3d fa8f 8b3d
000003d0: 63a8 e63c bc20 0e3e 38cc 483e 1d35 083e
000003e0: b000 483d 89bd 203e 363b 8a3c 9230 40be
000003f0: b446 bcbb 08c9 373e 2f89 72be 3e49 d0bd
-0.03611921 -0.17174652 -0.16753878 -0.10161167 0.098037936 -0.04003499 0.08851011 -0.1008699
-0.06261312 -0.057069194 0.014819777 -0.12758337 -0.15842132 0.19477439 0.13648053 0.12481502
0.024875158 0.12957227 0.107313946 0.15666346 -0.21100636 0.042576104 0.120785154 0.09720714
-0.11809669 0.11407539 0.17210414 0.06968084 0.01598665 -0.11368258 0.1733141 0.19038571
-0.012040181 -0.07955473 0.10832306 -0.09521606 -0.016392732 0.17015344 0.100237474 0.06598049
-0.111592546 0.12795028 -0.17372501 -0.12489579 -0.22533421 0.075654745 0.1623979 -0.19409737
0.031856015 -0.17833653 0.0017036804 -0.25608233 -0.096614145 0.12738982 0.067869134 0.16789241
-0.09797457 0.19956101 -0.15952782 -0.23957936 0.15265694 -0.053228773 0.20279855 -0.102325834
0.049404383 0.01467957 -0.19667639 -0.003907489 0.17265062 -0.23419975 -0.19866794 -0.07249319
0.023264607 0.1369499 -0.22361697 0.14217 -0.016702702 0.20294227 -0.16607292 -0.1984445
-0.17245579 0.1901208 0.16118808 0.000733377 -0.017470235 0.09242276 0.015132391 -0.19530013
0.18835875 0.08716259 0.20858115 0.07089185 -0.04466712 -0.09324227 -0.2049472 0.013552456
0.115457855 0.045705732 -0.03202836 0.18578613 -0.15694311 0.029093476 -0.12150132 0.2103574
0.046376027 0.14799875 -0.16385235 0.065923 -0.105155766 -0.16726515 0.16654286 0.004306599
-0.01085213 0.056977123 -0.018193834 0.087495975 -0.08399174 0.016396625 0.078945965 0.17838702
-0.18006282 -0.09501379 0.1952069 -0.17595986 -0.11553678 -0.21403919 -0.082732536 0.02454578
-0.19740728 -0.17833816 -0.20956469 -0.004744822 -0.034775376 0.1791256 -0.14506432 0.09728597
0.085392006 0.08298755 -0.018389493 0.0055903653 -0.2155857 -0.059685674 0.003287094 0.01077144
-0.1846526 0.11582603 -0.09622844 -0.1778938 -0.08311222 -0.22253789 0.15076213 0.17611092
0.15662721 -0.15720981 0.0985585 -0.22673152 0.16458757 -0.099209964 -0.100582846 -0.15060867
0.12037209 -0.06428426 0.17322227 0.034463365 0.2153292 0.033059686 0.16435002 0.20109068
-0.058991786 0.066273995 0.10660189 0.10072712 -0.16710158 -0.14844202 0.016702415 -0.19749847
-0.11507559 -0.09410986 -0.051697582 -0.004828575 -0.17908357 -0.04328481 0.15589729 -0.009626395
-0.060336996 0.1685324 0.12403932 0.17332372 -0.035631467 0.22393212 -0.15744548 0.054373734
-0.18249314 0.12805794 0.23964596 0.025680773 0.12876154 -0.07304688 -0.056955125 0.2014266
-0.15514441 -0.13194495 0.09947251 0.21218197 -0.053945668 -0.08319569 0.061166782 -0.029921273
-0.045060214 -0.032362096 -0.16362424 -0.18422508 0.11829289 -0.21942465 0.09122748 -0.009869559
-0.10524653 -0.109595 0.12605979 -0.24838258 -0.059747238 -0.09628113 -0.07229682 0.10282568
0.1449737 -0.17484535 0.20394416 0.15953194 -0.22927436 0.20588292 0.012732569 0.065182984
0.07083527 -0.07402197 -0.009809353 -0.1012824 -0.055924337 0.2108972 -0.1847445 0.16023256
0.048937917 0.22772473 0.069204465 0.06814571 0.028156465 0.13879675 0.19609153 0.13301511
0.04882878 0.15697302 0.016873937 -0.18768528 -0.005745733 0.17947781 -0.23685144 -0.1017022

conv_layers.0.f_lin.2.weight f4 [128, 5]
00000000: 0e09 ee3d 8980 143e c42a b7bd afb6 dabd
00000010: 2225 28bc ef15 073e 2f22 943b 6b48 9a3d
00000020: 4a86 1bbe a3e2 bc3d 90a2 a13d dc62 30be
00000030: a535 d13b 280f b7bd 30fc 0e3e f4eb a5bd
00000040: 10f5 2dbe d792 2ebd 80b1 6e3e 2e64 1cbd
00000050: c63e 303e dc6d 0b3d 410a b23d e25c 1d3e
00000060: 8900 573e 9752 513e 7df7 8ebc e835 b43d
00000070: 969c 98bd 0569 c6bd b13c 55be fad6 2abc
00000080: e354 843c ec56 38be a39f 27be 317c 6abd
00000090: 18f0 3b3e 193c 20bc b8d5 c03d 7ff5 40be
000000a0: b28c 243a 8b91 4bbc ad23 98bd 6aa5 eabc
000000b0: 55c7 b33d e6fd d73d f5bc 18be 7e94 37be
000000c0: f427 0e3e 8f3e 84bc 3910 133e 9444 5ebe
000000d0: 4ba1 4c3e 0223 a9bd 181a 863d dadd 6a3c
000000e0: 9349 023e bc0e a83d f3fd 2abc 1664 403e
000000f0: df04 d5bd e7aa 5b3e df5a a13d f1e3 2f3c
00000100: 00d0 23be ca39 a03d 03c8 203e fe0d 99bd
00000110: 2bfb 7bbd 03e8 35be 5ef6 efbd 38cb a53d
00000120: 9712 463d 5ac9 f33d 6a94 3ebe 99c5 1dbd
00000130: 292c 383e 6a16 29be 6a6e 593e 1530 5c3d
00000140: 68c5 1dbd 7331 c13d 5341 d83d 395c b33d
00000150: 6cf4 11be d4ed d8bd dbf6 e2bd d1c4 303e
00000160: e64b 14be 9319 3cbc fbf7 da3d f9e1 503e
00000170: 6324 fbbd 6d53 3b3e 6f04 313e e777 cc3d
00000180: ba1b 803d 60a7 8dbd f50b cbbd b6ac 28be
00000190: c0f1 123e 0204 4ebe 9a6a 0fbe 0690 293e
000001a0: 4150 d83d 16c4 123e d93b e93d 195f 8f3d
000001b0: 1852 c3bd 7957 22be 4991 80bd 2ea9 3a3e
000001c0: ff8e 3ebe 8f0e 6abb bbc9 303e 121d b23d
000001d0: 5b36 3b3e b6fe 3a3c 5dfc 43be ec08 a7bd
000001e0: f42a 35be 1829 45be 0679 debd 97e8 773e
000001f0: 9ae1 6dbd 2bfe 0a3c f399 b9bd 7c43 1b3e
00000200: 981c 35be bd11 4d3d 65e4 20be 4c50 50bd
00000210: 7fcd 003e a119 5dbe ac36 b43c fe8f 01be
00000220: 7e55 15bc 219f 3ebe 4bea 13be 1f19 77bd
00000230: c05f e8bc 7a72 323d 927a d9bd f0e5 3ebe
00000240: 477f 23bd 0d23 5bbc 53a8 adbd 603d 33be
00000250: 2d12 c5bd b567 3abd 7304 dd3d ca73 af3d
00000260: 3dde 243e 217f c53d f569 2ebe 1eda 10be
00000270: e489 ae3d 6042 3e3e 133f e03d 82dc ea3b
00000280: f0fe 213d 1661 833d 898b e8bc d2b6 fbbc
00000290: e834 f2bd b870 d03c 940b b0bd 6a53 223d
000002a0: 6a86 2cbd 56c5 39be 55f8 b93d 6942 e6bd
000002b0: 6e7f 1abe 8005 103e a00b 143d 8f13 1abe
000002c0: 4081 51be 0dce 3cbe c1f6 a0bd 23f5 e43c
000002d0: eb44 073e 6326 3cbd 1818 33bd bf5d 10be
000002e0: 6cdd adbd c3dd dcbc fcb4 e8bd 03fc 143e
000002f0: 78d1 8dbd d336 6f3e fd41 1fbe 4b71 56be
00000300: 6c60 b83d df9a 633e f582 33be c414 08bd
00000310: 2f7b 063e c093 52bd 5973 983d 6a71 9f3d
00000320: c4f6 c6bc fd34 a83c 6d93 d6bb 702c 6dbc
00000330: 7e9e 9d3d f062 28be 53e2 50bd 1af5 2b3e
00000340: dac5 f9bc f282 3bbb dbe7 243e c750 2b3d
00000350: 12c9 1bbe 3fab 7f3d 7628 4c3e 01eb 84bc
00000360: 744d 2ebc 062c 623d 7b79 17be cf3a 51bd
00000370: 4db5 063e 51bb 553e 44e1 40be f4eb b3bd
00000380: 4958 2fbd fd09 193d 36b0 0f3c 6923 bb3c
00000390: 964e fbbc 1241 6f3e 478a c1bd f76d 28be
000003a0: 0510 70bc 1827 64be ad97 5ebe df45 f63d
000003b0: 2fb5 483e 10db 4c3e 0c71 97bd fa31 b6bd
000003c0: 158e f13c 9315 473e ef69 c33d 0893 1bbe
000003d0: cf62 563e 810c bd3d 79c0 d0bd 41bf bf3d
000003e0: 5478 2abc 0d6b 733e adb6 bd3d 0138 983c
000003f0: 8810 bd3d 5f63 7fbd d86f 193e 62ba 3ebd
0.11622821 0.14502157 -0.08943704 -0.106793754 -0.010262759 0.13191961 0.0045206766 0.07533344
-0.15187946 0.09222915 0.078923345 -0.17225212 0.0063845688 -0.08938438 0.1396339 -0.08101645
-0.16988015 -0.042620506 0.23309898 -0.038181476 0.17211446 0.034040317 0.08693362 0.15367463
0.20996298 0.20441662 -0.017451996 0.08799344 -0.074517414 -0.09688 -0.20823933 -0.010427231
0.016153758 -0.18001908 -0.1636949 -0.057247344 0.18353307 -0.009779953 0.094157636 -0.1884365
0.0006277069 -0.012424837 -0.074286796 -0.028643329 0.08778254 0.10546474 -0.14915831 -0.17927739
0.13882428 -0.016143112 0.14361657 -0.21705848 0.19983403 -0.0825863 0.06547946 0.01433512
0.12723379 0.08205935 -0.010436523 0.1878818 -0.1040132 0.21451913 0.078786604 0.010735498
-0.15997314 0.078235224 0.15701298 -0.07473372 -0.06151883 -0.17764287 -0.11716913 0.080954015
0.048357572 0.11903639 -0.18611303 -0.038518522 0.17985596 -0.16512457 0.21233526 0.053756792
-0.03851834 0.0943326 0.105593346 0.087578245 -0.14253396 -0.10592237 -0.1108224 0.1726258
-0.14482078 -0.011480707 0.1069183 0.20398702 -0.122627996 0.18293543 0.17286848 0.09983807
0.062552884 -0.0691669 -0.0991439 -0.16472134 0.14350033 -0.20118716 -0.14005509 0.16558847
0.10562182 0.14332613 0.11388368 0.0700056 -0.095371425 -0.1585368 -0.06277711 0.182286
-0.18609236 -0.0035714244 0.17264454 0.08696951 0.18282454 0.011413267 -0.19139238 -0.081559986
-0.17692167 -0.19253957 -0.10862927 0.2420982 -0.05807648 0.00848345 -0.090625666 0.15162462
-0.17686689 0.050065745 -0.15712126 -0.050857827 0.1257839 -0.21591808 0.021998726 -0.12652585
-0.009114621 -0.1861539 -0.14444844 -0.06032669 -0.02836597 0.043566205 -0.106190816 -0.18642402
-0.039916303 -0.013375056 -0.08479371 -0.17503881 -0.096226074 -0.04550906 0.10791864 0.08567007
0.16100402 0.096433885 -0.17032607 -0.14145705 0.08522394 0.18580008 0.109495305 0.0071674
0.039549768 0.06415002 -0.028386848 -0.030726824 -0.11826497 0.025444373 -0.08595958 0.03963033
-0.042120375 -0.18141684 0.09080569 -0.112431355 -0.15087673 0.14064598 0.0361439 -0.15046524
-0.20459461 -0.18437977 -0.078595646 0.027948922 0.13209884 -0.045935046 -0.04372415 -0.14098261
-0.084894985 -0.026961213 -0.11362645 0.1454926 -0.069247186 0.23360758 -0.15552516 -0.20941655
0.09002766 0.22227047 -0.17530425 -0.03322293 0.13132928 -0.051410437 0.07443876 0.07785304
-0.024287589 0.02053308 -0.0065483362 -0.014475927 0.076962456 -0.16443992 -0.05099709 0.16792718
-0.03048985 -0.0028611985 0.16104071 0.041825082 -0.15213421 0.062419172 0.1993731 -0.01622534
-0.010638583 0.055217765 -0.14792435 -0.051081475 0.13155098 0.20872237 -0.18835932 -0.08785239
-0.042808805 0.03736304 0.008770039 0.022844033 -0.030677121 0.23364666 -0.094502024 -0.16448198
-0.014652257 -0.22280538 -0.21737547 0.120250456 0.19600366 0.2000544 -0.07394609 -0.08896251
0.029486695 0.19441824 0.095416896 -0.15192807 0.2093613 0.092309006 -0.10192961 0.09362651
-0.010404665 0.23771305 0.09263358 0.018581392 0.09231669 -0.062350627 0.14984071 -0.046564467

conv_layers.0.params.0 f4 [128]
00000000: c9b1 4a3c cb94 16bd 88a2 193d 0c5b ad3b
00000010: 129b f03b 5943 39bc c6af 6d3b 63e3 143d
00000020: a26b cf3c dddb 54bc 96cb 8dbb b632 5bbc
00000030: 249d a9bc 4e8c ac3c b797 15bd 5aa9 0d3b
00000040: 02c6 fc3c 4d51 d63c 8c07 fe3a e466 d1bb
00000050: 21ba e93c 88c1 86bc aeec 65bb 5a69 263c
00000060: 5bdc d8b9 8513 ebbc cfa7 72bc 42ba 86bb
00000070: d967 9bbc 5a76 3dbc 858a c43c 0014 23bd
00000080: 5b2a 21bd 8d12 f43c e05f 2dbd 53cc debc
00000090: 9a35 013d ff7f 533c 3ec8 39bc 0918 75bc
000000a0: 77a1 0db8 450d 05bd e4be 133a c68f 5abc
000000b0: dc14 063b e563 cc3c 3668 413b 1479 81bc
000000c0: c5e6 b6ba 2df1 d83c d649 883c 5a79 043c
000000d0: cb49 8abc a781 c6bc 07b1 273c b03c 2b3c
000000e0: ed30 5fbb 8613 2e3c 0640 c5bc e10d 8fbb
000000f0: d3a0 6f3c 4e1f febc f317 d2bc 3512 89bc
00000100: 119b aebb 8f28 30bc 640f 493c 15be c6bc
00000110: da1e cebc 251c 5cba 267a ed3c 7e68 9bbc
00000120: b7fc 7d3c ec15 513a 0d66 5bbc 0912 b03b
00000130: adef 27bd 63aa 993c 3d1c f23b 3f22 ec3b
00000140: 817b 893c 41a1 ae3a 8b66 0b3d fd80 babc
00000150: 3451 1bbd d273 003c 8f35 bb3c 7eef 9c3c
00000160: 8747 5abb 7e62 aabc fba3 8ebc d8e2 8b3c
00000170: 8ace 6dbc c499 33bd bf94 c7bc ff5a 8cbc
00000180: cc15 b1bb a38f 023d 0f3e b5bc 5ca9 03bd
00000190: 8bcc c3bc e986 6fbc 2308 d43b 199a 393c
000001a0: f8a7 5abc fc9e daba b440 57bc 420d 00bc
000001b0: 013f 3d3c 3088 f3bc 5618 693a 04a7 6a3b
000001c0: 2979 003d b588 963c 845e e3bc 0ed1 d0bc
000001d0: cc4b 653c 79b1 75bc 42d3 ee3c 5dcc bc3b
000001e0: b3db ad3c f193 78bc 5e75 423c e588 f63c
000001f0: da1a 183c 5c56 e7ba 8575 0e3c cc3c 8e3b
0.012371489 -0.036762994 0.037508518 0.0052903946 0.0073427046 -0.011307561 0.00362681 0.036349665
0.025319878 -0.012991873 -0.004327248 -0.01337879 -0.020704813 0.021062996 -0.03652164 0.0021615834
0.030856136 0.026161814 0.0019380911 -0.0063904393 0.028531136 -0.016449705 -0.00350837 0.010156954
-0.00041362908 -0.028695831 -0.0148105165 -0.004111559 -0.018970417 -0.011563862 0.023991833 -0.039813995
-0.039347034 0.029794002 -0.04232776 -0.027197039 0.03154526 0.012908935 -0.011339245 -0.014959344
-3.3767396e-05 -0.032483358 0.000563605 -0.013339942 0.002045921 0.024949977 0.0029511577 -0.015804805
-0.0013954273 0.02648219 0.01663677 0.008085573 -0.01688089 -0.024231745 0.010235078 0.010451481
-0.0034056262 0.010624772 -0.02407838 -0.004365668 0.014625746 -0.031020787 -0.025646186 -0.016732315
-0.005328544 -0.010751857 0.012271736 -0.02426056 -0.025161196 -0.0008396528 0.028988909 -0.018970724
0.015502146 0.0007975984 -0.01339103 0.0053732437 -0.041000057 0.018758005 0.00738862 0.007206231
0.016782524 0.0013323204 0.03403334 -0.022766585 -0.03791924 0.007840114 0.022852687 0.019157168
-0.0033306794 -0.020798918 -0.017412176 0.017075941 -0.014514575 -0.043847814 -0.02436292 -0.017133234
-0.0054042097 0.031875264 -0.022124318 -0.032143936 -0.023901245 -0.014619567 0.0064706965 0.011328244
-0.013345711 -0.0016679461 -0.013137985 -0.007815661 0.011550666 -0.029728025 0.0008891871 0.0035805115
0.031365547 0.018375734 -0.02775503 -0.02549031 0.013995122 -0.014995926 0.02915347 0.0057616667
0.021222925 -0.015171991 0.011868803 0.030094573 0.009283746 -0.0017649638 0.008695011 0.0043407436

conv_layers.0.params.1 f4 [128]
00000000: 493a 3839 b350 b9bc 049f 48bc bd3e a6bb
00000010: c47d 46bb 2bd4 babb 3d5e a0b6 6f57 a13a
00000020: 309a ecbc d227 7fbc 157b 9e39 97cb fdbb
00000030: d0cd 0639 b522 3e39 6f86 97bb 8f1c 8cb3
00000040: f78e 20bd 01f2 833a a093 ebbb c7dd 9f39
00000050: f560 1a39 834b dbb4 fdfd 01bd 72ba 20b7
00000060: 950d 68bc 9132 69bc 44bf ebbc 513b 993a
00000070: 7532 35bc 6c5d e2b6 9f0d ee39 3af6 2f39
00000080: 21c2 1839 0f0a 4ebc 1a8b a939 14bb a3bb
00000090: 8a56 7fbc ded5 24bc 3e92 74bb 4df2 f3bc
000000a0: 4864 0cbc b66b 6438 d99c 353a ad9b 7639
000000b0: 5b66 38bc e154 f83a 4a48 bbbc ef73 b339
000000c0: 4e5e 2fb7 5fb5 a8bb e1ab 4138 4cba 87bb
000000d0: 682f 74bc 46ec 89bc f34f c8bc 2eea 95bb
000000e0: 4ec8 433a 877e d538 68f8 f4bb c7db 58bb
000000f0: 7271 d4bb 1a34 fabb 49fa eb38 3608 eabb
00000100: 9de1 d2bb a0c5 4739 b52f d4bc 04e6 8aba
00000110: 062d 573a 97e4 7fb9 b96d 8dbb c743 1fbc
00000120: 318a b0bb 131a bdbb 54dc 07bd 9b52 90bb
00000130: 65cf 1e3a 68d6 adb7 c5b4 213a 6943 2dba
00000140: 7c09 acb6 d4f2 5738 ce71 09bc 58c0 273a
00000150: f624 493a 9591 12bb 1a9c d7bc 7a0b 133a
00000160: 5fbd 96bc 4cb9 e93a 9749 97b6 f336 e0bc
00000170: 26cd 32b9 f592 d2b5 08fc 72bc 3994 a6bc
00000180: 1d1a 03bd ba52 d2ba 7808 363a e061 553a
00000190: 1b1e 0a3a e21c 1139 e863 4db9 670c dc39
000001a0: 5fa0 53bc baba 19bb 410f 8eb6 c8ea 89bc
000001b0: 0ec6 4ebc 4997 8bbc 773e 53b7 edef b7bc
000001c0: 0e53 f638 0df7 f0b9 02bb bfbb 7e0e aebb
000001d0: b901 84bb 313a 24b9 809b 2239 5abe 5739
000001e0: 2d8d 02bc fd92 50b7 9d99 1dbc 742c 62bc
000001f0: a5a4 df39 e431 ecbb 38d5 f739 3092 67bc
0.0001756932 -0.022621488 -0.0122449435 -0.005073397 -0.0030287364 -0.005701562 -4.7793424e-06 0.0012309382
-0.028882116 -0.015573459 0.00030227812 -0.007745217 0.00012855907 0.00018132741 -0.00462418 -6.524453e-08
-0.039198842 0.001006663 -0.007189229 0.0003049208 0.00014722704 -4.084687e-07 -0.031736363 -9.580153e-06
-0.014163394 -0.014233247 -0.028777726 0.0011690651 -0.011059393 -6.7462006e-06 0.00045405046 0.00016781027
0.00014568168 -0.01257564 0.0003233783 -0.0049966667 -0.015584597 -0.010060756 -0.0037318612 -0.029778624
-0.008568831 5.445975e-05 0.0006927974 0.00023518382 -0.011254872 0.0018946194 -0.022861619 0.00034227918
-1.045277e-05 -0.0051485742 4.617486e-05 -0.0041420814 -0.014903881 -0.016836297 -0.024452185 -0.0045750355
0.00074685074 0.00010180199 -0.0074759014 -0.0033089982 -0.0064832503 -0.0076356055 0.000112522925 -0.007142092
-0.0064355866 0.0001905174 -0.025901655 -0.0010597114 0.0008208308 -0.00024403851 -0.0043160585 -0.009720749
-0.0053875674 -0.0057709306 -0.033169106 -0.0044043786 0.0006058126 -2.0723048e-05 0.00061685994 -0.0006609471
-5.1271036e-06 5.1486146e-05 -0.00838895 0.0006399206 0.0007673049 -0.0022364606 -0.026319552 0.0005609315
-0.018400846 0.0017831712 -4.5087177e-06 -0.027369952 -0.00017051827 -1.5688989e-06 -0.014830597 -0.02033435
-0.032007325 -0.0016046383 0.0006944011 0.00081398897 0.0005268768 0.00013839037 -0.00019587541 0.0004197091
-0.012916653 -0.0023457245 -4.2337056e-06 -0.016835585 -0.012620462 -0.017039912 -1.2591124e-05 -0.022453273
0.00011745664 -0.00045960434 -0.0058511505 -0.005311786 -0.0040285257 -0.00015661937 0.00015507452 0.0002057491
-0.007968229 -1.24319895e-05 -0.009619144 -0.013804544 0.00042656544 -0.007208096 0.00047270372 -0.014133975

conv_layers.0.params.2 f4 [128]
00000000: 859f a539 e92c ffba 424e 81bb 24e3 003a
00000010: 57d7 89ba 2f89 8fbc 542d b4bc 0273 633a
00000020: d4c7 e4bb 84e4 00b7 8c68 e039 e6de 0d39
00000030: 056b 533a 8266 9eb9 6278 f939 9789 6eb7
00000040: da6c d3bc 3605 babc b2a5 0abc 6d18 96bc
00000050: ca90 9ab6 0bef 30bd fa3e 0a3a 06c0 b4bc
00000060: 92e9 4d3a 42d3 ad39 7f1f 13bc b548 15bc
00000070: 9d9c a9bc 677c a0bb 796c e4bc 1ebb 80bb
00000080: 04b1 14bc 36e3 88bb 91e4 b1bc 641a 1ebc
00000090: 5320 7e38 fbe1 293a 71d6 06b7 8ec3 80bb
000000a0: 5105 54bc a834 47bc 6049 8fbc 99ab b43a
000000b0: 4da1 883a 9703 0e39 0d56 46bb d5bc 99bc
000000c0: a639 78bc dd77 a939 64a8 5ebc 4c47 a2bc
000000d0: 191c 62bc c6fd b9b6 3dc5 2439 74f0 69b6
000000e0: a7ef d9ba aa00 49b7 0950 a739 9484 1f3a
000000f0: c9cf 8ebb 83cd 9dbc b72e b93a c016 81b7
00000100: 1abc b2bb e6da ac39 4ff8 82bb d03c 6dbb
00000110: 85ba ab3a 8111 8b39 365e f1b5 2f13 3dbb
00000120: 16e5 2b38 ec81 193a fc9b 373a 9541 57bb
00000130: 791c 873a 136b dcbb 660c 1ebd fb33 1abc
00000140: f0ed d9ba 0835 89b5 5d04 963a 258d 3ebc
00000150: 5ead cab5 5baa 56bb d9fa bfba d566 9d37
00000160: 98b2 1bb7 1e47 7939 1579 09bb b829 9c38
00000170: 62f0 60b5 ed64 2bbd 8931 a138 7da2 1438
00000180: 244d aa3a f919 dcbb a552 adbc dd96 9d39
00000190: 2b9a df3a 5941 a0b7 5e60 38bc 065b 6839
000001a0: 3d8d f7bc 851f 09bc ac4d e838 4aac c1bc
000001b0: 9d33 2339 4cb5 1bbc fd11 fdbb e1f1 18bd
000001c0: 2f5d abbc 7cf0 1bb6 8560 2cbb 3056 2fbc
000001d0: d8f2 03bc 0d1a a9bc 6b1e 79bb 4258 85b7
000001e0: 08e3 b0bb 2b87 2c39 1088 8abc e6de bebc
000001f0: efd1 3c39 a113 d339 c467 71bb d6f7 88bb
0.00031590104 -0.001946834 -0.0039460966 0.0004916659 -0.0010516447 -0.017521469 -0.02199427 0.00086765003
-0.006981829 -7.6826e-06 0.00042802503 0.00013529844 0.00080649584 -0.00030212483 0.00047582673 -1.4217941e-05
-0.02580874 -0.022707563 -0.008462356 -0.018322194 -4.6064133e-06 -0.04319672 0.00052736665 -0.02206422
0.0007854934 0.0003315453 -0.008979677 -0.009111573 -0.020704562 -0.0048976424 -0.027883755 -0.003928556
-0.009075407 -0.0041774763 -0.021715434 -0.009649847 6.0588423e-05 0.0006480512 -8.036951e-06 -0.003929562
-0.012940721 -0.01215855 -0.017491043 0.001378405 0.0010424048 0.00013543513 -0.0030263693 -0.0187668
-0.015150463 0.00032323497 -0.013589952 -0.019809388 -0.013800644 -5.5429728e-06 0.00015713736 -3.4859668e-06
-0.0016627208 -1.1980688e-05 0.00031912353 0.00060851243 -0.004358266 -0.019263035 0.0014128302 -1.5388592e-05
-0.0054545524 0.00032969489 -0.003996886 -0.0036199577 0.0013101852 0.00026525187 -1.7983318e-06 -0.0028850546
4.098293e-05 0.00058558467 0.00070041395 -0.0032845486 0.0010308168 -0.0067266314 -0.038586043 -0.009411807
-0.0016626697 -1.022273e-06 0.0011445392 -0.011630331 -1.5100629e-06 -0.0032755348 -0.0014646902 1.8763743e-05
-9.280302e-06 0.00023772984 -0.0020976712 7.4464304e-05 -8.3796306e-07 -0.041844297 7.686305e-05 3.543728e-05
0.001299296 -0.0067169634 -0.021157572 0.00030057775 0.0017059495 -1.9103916e-05 -0.0112534445 0.00022159153
-0.030218715 -0.008369331 0.000110770896 -0.023641724 0.00015564119 -0.009503674 -0.0077230916 -0.03734005
-0.020918457 -2.323678e-06 -0.0026302647 -0.010701701 -0.008053504 -0.020642305 -0.0038012515 -1.5895934e-05
-0.005398158 0.00016453552 -0.016910583 -0.023299646 0.00018007284 0.0004025968 -0.003683553 -0.004179935

conv_layers.0.params.3 f4 [128]
00000000: 5716 fb3b 6b52 85bc a845 1a3c 8d98 02bc
00000010: f745 4039 e324 15bc 2e3f debb 5ff9 2d3a
00000020: 4fce 8e3c 5054 58bc fef7 543c 6e89 96bc
00000030: bd52 68bc aa41 24bc e3db 83bb 60da 16bc
00000040: 3ebe 563c 381b 233c 6a9e 49bb f255 7b3a
00000050: 4e54 873c 804f 693c b7ce ea3b 6076 e2b7
00000060: dcfd 4eba d4e8 45bc 2f99 fbbb 01d9 82ba
00000070: d707 173c 881d 6e3b dfbd 8d3a 1f0c 65bc
00000080: 73fd 03bc 0b71 043c f570 22bc 536c 1ebc
00000090: bc12 753c 5fe1 903b 6098 b9bb 50e6 5ebc
000000a0: 5d31 083c 203a 71bc 6811 823c 53b4 9239
000000b0: 9191 313c 59eb 1d3c 4df0 4e3c bc69 5abc
000000c0: 745b 90bb c614 703b f176 19bc efdd 88bc
000000d0: fc11 b0bb a566 a03a 2daa 463c c88a 263c
000000e0: ecbf 84bb 68e2 bfbb f304 4cbc 31b0 773c
000000f0: 2382 383c 69d6 56bc cb71 05bc 6f79 1f3c
00000100: b611 56bc 1c45 8d3b 4a3b 37bc d41c 69bc
00000110: 4c7d 87bc c47a 0fbc f50a 6e3c 1aa1 93bc
00000120: 234c 493c 4a0f 553c 2d60 f8bb 3997 2c3c
00000130: 061b 04bc a595 273c 0e60 ddbb d8d7 423c
00000140: f4fd e23a 2f94 693c 7243 373c 0f2b 92b7
00000150: 1723 acbc 8fb3 a8bb d7d6 1c3c 186a aabb
00000160: 409a 09bc 2c8b 23bc c0a3 22bc abea 183c
00000170: 3f01 2abc 5d00 a4bc fbe1 65bc 66c3 86bc
00000180: 1152 2abc 8dc1 8f3b e3ed 94bb b1b7 85bc
00000190: ec0f e9bb 1033 92bc e116 fb38 c473 3f3c
000001a0: 5353 043c 081e 44bb 2056 b3bb e4aa 1fbc
000001b0: 6ca1 5fbc 7a94 36bc a17a 313c a48f 7a3c
000001c0: e8a2 9a3b 31d1 023c 43f6 8abc ab73 20bc
000001d0: 41ac 59bb 67ca 78bc 0f09 a03b c4b3 f63b
000001e0: 54d7 bcbb 23ff 023c ec71 5e3b 2b34 6b3c
000001f0: 30ea db3a b5ec edbb 53ac 673c 2f3f 3a3c
0.007662575 -0.016274652 0.009416021 -0.007970941 0.00018336611 -0.009103033 -0.006782434 0.00066365855
0.01743236 -0.013203695 0.012998579 -0.018376078 -0.014179883 -0.010025421 -0.0040240153 -0.009207338
0.013106881 0.00995522 -0.0030764588 0.0009587697 0.016519692 0.014240146 0.0071657556 -2.6996422e-05
-0.00078961044 -0.012079436 -0.007678173 -0.0009982885 0.009218178 0.003633352 0.0010814032 -0.013979941
-0.0080560325 0.008083592 -0.009914626 -0.009669381 0.01495808 0.0044213976 -0.0056639165 -0.0136047155
0.00831255 -0.014723331 0.01587744 0.00027981642 0.010837928 0.009638631 0.012630534 -0.013330873
-0.0044054333 0.0036633476 -0.009366737 -0.016707389 -0.0053732377 0.0012237622 0.012125534 0.010164924
-0.004051199 -0.005855847 -0.012452352 0.015117691 0.011261496 -0.013112643 -0.008144806 0.009733542
-0.013065746 0.004311217 -0.011183569 -0.014228065 -0.016539238 -0.008757297 0.01452898 -0.018021155
0.012286219 0.0130041335 -0.0075798244 0.010534101 -0.0080630835 0.010228549 -0.0067558354 0.0118922815
0.0017318116 0.014256521 0.011185514 -1.7424607e-05 -0.021012826 -0.005148358 0.009572706 -0.0052006356
-0.0083985925 -0.009981912 -0.009926736 0.009333293 -0.010376274 -0.020019704 -0.014030929 -0.016450595
-0.010395543 0.0043870867 -0.00454496 -0.016322942 -0.0071124937 -0.017846614 0.00011972874 0.0116853155
0.008076507 -0.0029925127 -0.0054729134 -0.009745333 -0.013649326 -0.011143798 0.01083246 0.015293036
0.004719127 0.007984445 -0.01696313 -0.009793202 -0.0033214244 -0.015184975 0.0048838924 0.007528754
-0.005762974 0.0079954 0.0033942414 0.0143556995 0.0016778167 -0.0072608837 0.014140206 0.011367603

conv_layers.0.params.4 f4 [128]
00000000: 1035 373c 1b85 98bb 1fb1 563c 0d14 4ebc
00000010: 9604 103c f6ea 64bb 3250 a8bb af61 01bc
00000020: e05f eb38 1793 2bbb 4547 893c 4506 2cbb
00000030: 27b7 563b 43b6 243c 3ea5 863c d328 153c
00000040: 265a febb 21e8 8a3c 5bc4 db3b 1720 b7b8
00000050: 92ac 663b 31dc 47bb 6a3d f8bb f7d4 33bc
00000060: f059 e23a 72c4 8d3a 465e 9cbb 3bf0 873b
00000070: d480 793b f0f6 a3bc ae29 5ebc c689 2d3c
00000080: 1993 50bb c660 a5bb bdbf 373c 402b 1dbc
00000090: 4f7f 1bbc a800 c4bb 7e69 1bbc 9362 52bc
000000a0: aeba 4a3c f51b 27bc adb6 5e3c 7c0b f33b
000000b0: dd1d 18bc 3c52 1f37 f185 56bc eabf 863c
000000c0: 51b5 0abc dce9 35bc fe01 e5b9 c3a9 583b
000000d0: 270e d139 1003 41bc f4fc 50bc 0936 85bc
000000e0: ca4a f53b 9f82 993b f224 08ba 56e0 d2bb
000000f0: b60d dd3b 0563 e0bb af5a 3f3c 2048 dd3a
00000100: 2923 11bb 4716 3a3c a789 48bc b399 033c
00000110: 73b0 5c3c a13b 2c3c 08ec 483c 03cd f93b
00000120: 2ea4 3f3c 74ea f3bb 7d38 86bc ac7f 8dbb
00000130: 0080 203b cd3c 94bb 4a5a 12bb 09ea 393c
00000140: 0405 ce3b 14dd 393c a261 893c 18f0 893c
00000150: 3d8b 673c 3fce 0d3c 7935 0f3c a98d 08bc
00000160: 2484 17bc 99a7 793b 9a71 dfbb d3b1 08bb
00000170: ab9b 75bb dc00 afbb 55aa 46bc 5e3a 82bb
00000180: adc5 7cbc 706a 22bc 6e5b 2b3c f4ba 063c
00000190: 036e 353c f78a b83a 85e0 6ebc 83aa 063c
000001a0: 0c5d 1fbc b348 03bc e5ac 073c b6ad 1ebc
000001b0: 8bc3 553c 4c34 acbb 613d 333c 5eb6 473a
000001c0: 3c70 043c b30c bc3b de06 00bc a24d 15bc
000001d0: cb17 cb3b 134a 4fbc 7be0 2e3b 275a d63b
000001e0: 9854 58bb 83cd 9ebc 2cd8 7d3c b6c1 0c3c
000001f0: 50d7 3e3c 6fec 09bc 04b4 d839 a5e6 2abb
0.011182085 -0.0046545393 0.013103752 -0.012578023 0.008790156 -0.0034930087 -0.005136513 -0.007896825
0.00011223531 -0.0026180202 0.016757617 -0.0026248854 0.0032762976 0.01005322 0.016436215 0.0091039715
-0.0077622114 0.01695639 0.006706757 -8.732097e-05 0.0035198075 -0.0030496235 -0.0075756805 -0.010976068
0.0017269235 0.0010815992 -0.0047719805 0.0041485108 0.0038071172 -0.02001521 -0.013559742 0.01059193
-0.0031825958 -0.0050469367 0.011215148 -0.009592831 -0.009490802 -0.0059815235 -0.0094856005 -0.012840885
0.0123736095 -0.010199537 0.013593358 0.0074171405 -0.009284464 9.496285e-06 -0.013093458 0.016448934
-0.008466081 -0.01110312 -0.00043679768 0.003306017 0.0003987413 -0.011780515 -0.012755621 -0.016261118
0.007485722 0.0046847607 -0.00051934936 -0.0064354343 0.0067460192 -0.0068477415 0.0116793355 0.0016882457
-0.0022146201 0.01135785 -0.01223985 0.00803225 0.013469803 0.0105122635 0.0122633055 0.0076233163
0.011696858 -0.0074437205 -0.016384358 -0.004318198 0.0024490356 -0.0045238496 -0.0022331649 0.011347302
0.006287219 0.011344213 0.016770188 0.016838118 0.014132318 0.00865513 0.008740776 -0.008334556
-0.009247813 0.003809428 -0.0068189623 -0.0020857945 -0.0037476819 -0.0053406786 -0.012125571 -0.003974243
-0.015427989 -0.009913072 0.01045881 0.008223284 0.011073592 0.0014079501 -0.014579897 0.008219364
-0.009726774 -0.008012938 0.008280967 -0.009684971 0.013047109 -0.0052552577 0.010939927 0.00076184224
0.008083399 0.0057388186 -0.007814137 -0.009112747 0.0061979047 -0.012651938 0.0026684094 0.0065415087
-0.0033009406 -0.019385105 0.015493434 0.008591106 0.011648014 -0.008418187 0.00041332853 -0.0026077416

conv_layers.0.params.5 f4 [128]
00000000: 5ad9 4c3a ba51 a4bc fe1a 5abc bb68 083c
00000010: bf92 f7bb 17a5 543c c6a0 dabb f31d fa39
00000020: 4be9 75bc b7d0 18bc bf38 053b 8ac9 09bc
00000030: 2912 303c fe6e 52bc 4ba0 353c 3681 223c
00000040: cabb e0bb 172a e3b9 9cda 6f3b c4d5 85bc
00000050: 9a2f 7a3c 77af 8fbc 16c4 1c3c 3097 fdb9
00000060: 9f49 e63a 273f 473c c3ee b53b 5bac 2fbc
00000070: 831d 28bc 2901 563c 331d f0bb 9e8c c83a
00000080: 8909 6bbc fc86 54bc b548 5fbc 0b85 4ebc
00000090: 2b81 05bc 15e6 113b 57e0 4c3c 0982 15bc
000000a0: 41bd 94ba 1a04 65bb 19c3 c7bb 1417 39bc
000000b0: 68cf 903c a9fa 07bc 97a0 34bc 2080 933a
000000c0: c39f 5bbb ecdd 6cbc 119b 8dbc f302 28bc
000000d0: b83f 9ebb 3f8f 2a3c 46b0 393c 55af 1ebc
000000e0: 0f03 5cbc 1f4b 233c cbf7 f53a a485 e33a
000000f0: 9e56 1d3b 710f e0bb 36f0 6cbb badd 0abc
00000100: 6013 d6bb 544e 4e3c a310 9dbc ddff 133c
00000110: 1f22 e23b 444a 13bc 4903 dd3b 0074 153c
00000120: c019 b6bb 7a2e ac3b 0ee6 0f3b c1b3 40bc
00000130: 9894 4a3b b150 04bc 7da7 90bb 3f91 623c
00000140: bcf3 7ebb e057 a8b9 83c5 b2ba bec7 20bc
00000150: 913d b73b f1bd 03bc fc8f 6cbc 1b99 453c
00000160: 8278 be3b 22dc 823b 8de9 dcbb 69ed f33b
00000170: 6bd5 bbbb ee61 bdbb daae a63b 6706 4cbb
00000180: 5696 2a3c f11f a43b deb0 bbbb f229 20bc
00000190: 363e 1a3a b355 2abc 0316 303c 3369 d0bb
000001a0: a70a 11bc 7374 513c 87a0 77bb 4b35 45bc
000001b0: ec2e 50bc 1e54 b6bb 3210 3c3a 8bce 8abc
000001c0: b29c 66bc 28d9 293c a3cb ecbb 3656 21bc
000001d0: 70d0 22bc 103e 00bc 6146 863c 81d8 3e3c
000001e0: 0f97 82bc 38eb 233c 5323 4bbc 3810 7bbc
000001f0: d131 e0bb 5425 513c 1d05 71bc db6d fe3b
0.00078143703 -0.020058502 -0.0133120995 0.008325751 -0.0075553353 0.012978814 -0.0066719977 0.0004770603
-0.015009235 -0.009327105 0.0020328013 -0.008409867 0.010746517 -0.012843845 0.01108558 0.009918502
-0.0068583237 -0.00043328173 0.0036598807 -0.016337283 0.015270138 -0.017539723 0.009568235 -0.00048368564
0.0017569548 0.012161053 0.0055521443 -0.010722245 -0.010260942 0.0130618 -0.0073276996 0.0015300696
-0.014345535 -0.012971636 -0.013628175 -0.012604962 -0.008148472 0.0022262384 0.012504659 -0.009125241
-0.0011347906 -0.0034945072 -0.0060962555 -0.011297006 0.017677024 -0.008299508 -0.011024616 0.0011253394
-0.0033511973 -0.014457207 -0.017285855 -0.010254609 -0.004829373 0.010410129 0.011333531 -0.009685357
-0.013428464 0.009966641 0.0018765865 0.0017358554 0.0024007927 -0.0068377783 -0.003615392 -0.008475715
-0.0065330714 0.012591917 -0.019172972 0.0090331705 0.00690104 -0.008989874 0.0067447764 0.009121895
-0.005557269 0.005254564 0.0021957192 -0.011761607 0.0030911323 -0.008075879 -0.0044144974 0.013828575
-0.0038902601 -0.0003210893 -0.0013639185 -0.009813247 0.005592056 -0.008040891 -0.014438625 0.012060429
0.0058127055 0.003993527 -0.0067417086 0.007444073 -0.0057322285 -0.0057794964 0.005086762 -0.0031131746
0.010411819 0.0050086905 -0.0057278713 -0.009775626 0.0005883904 -0.010396409 0.0107474355 -0.006360197
-0.008852637 0.012784111 -0.003778489 -0.012036632 -0.0127065 -0.005564227 0.0007174044 -0.01694419
-0.014075445 0.0103667155 -0.007226424 -0.009847214 -0.009937391 -0.007827297 0.016390981 0.011648298
-0.015941171 0.010004811 -0.012398559 -0.015323691 -0.006841876 0.012765247 -0.014710692 0.0077645606

conv_layers.0.params.6 f4 [128]
00000000: 439c 803f b01e 813f c9a8 7f3f 8ba5 813f
00000010: fd25 7f3f f1cd 813f 234d 823f 27fd 813f
00000020: 8e4a 813f b156 813f f991 7e3f 0663 7d3f
00000030: ed2c 7d3f d161 7b3f ad2d 803f 9f13 813f
00000040: 8794 813f 7566 823f f2e7 7c3f 2762 7e3f
00000050: 51bb 823f f21a 803f cf7e 813f 4cd0 803f
00000060: c336 7f3f ed68 823f 20e8 823f 7203 7e3f
00000070: 8c50 7f3f 6e83 7d3f 258f 803f d252 833f
00000080: c52a 833f 1273 813f 114d 813f 2cd7 803f
00000090: 60d5 7f3f ce58 7e3f 465f 823f 1aad 7e3f
000000a0: 82d9 7c3f f692 823f 2547 7d3f 5dcd 7c3f
000000b0: e700 7f3f 7626 833f 7692 793f 2655 7f3f
000000c0: 9920 823f 3963 833f 8e9e 813f 0698 813f
000000d0: 4bdf 7d3f 44b0 7a3f 0532 813f ce50 7b3f
000000e0: 3ecb 803f 1189 813f 8e6d 7e3f 7665 7e3f
000000f0: e63e 823f 44a5 823f b9e6 803f f42c 813f
00000100: 3780 7e3f 1f11 803f 3c50 823f b57f 7e3f
00000110: 52c5 803f dfcd 803f f590 823f b691 833f
00000120: f274 813f 7063 7b3f 6606 813f 9b77 813f
00000130: 8fd9 7c3f e7c4 7f3f dc09 803f 534a 803f
00000140: fd60 803f 3644 7e3f ce55 803f 50c0 813f
00000150: ba43 823f e084 7f3f 091d 7f3f 6839 823f
00000160: af48 7c3f 7d1c 823f ceaa 7f3f 4c20 823f
00000170: 62cb 803f ca3e 7d3f 70da 803f 33c8 803f
00000180: 8d1f 803f 6f2c 823f 2fc2 813f 9e49 813f
00000190: 8e68 7d3f 043e 7a3f 6a43 7d3f 05d8 803f
000001a0: d54c 7d3f f59d 7f3f 793b 803f e6e4 803f
000001b0: e315 813f c0ec 7d3f b55e 803f 6b20 7c3f
000001c0: eda1 803f f75c 803f ca3f 813f a04c 823f
000001d0: b5c3 7c3f 3804 7e3f 96c8 813f c65f 823f
000001e0: 602f 813f 6f98 7f3f 0307 7f3f ea6b 843f
000001f0: b89d 813f 419b 7c3f d037 803f cd5e 803f
1.0047687 1.008749 0.9986692 1.0128645 0.9966734 1.0140973 1.017979 1.0155381
1.0100877 1.0104581 0.99441487 0.9897922 0.98896676 0.9819613 1.0013939 1.0084113
1.0123452 1.0187517 0.9879142 0.9936852 1.0213414 1.0008223 1.0116824 1.0063567
0.99692935 1.0188271 1.0227089 0.9922401 0.9973228 0.9902867 1.0043684 1.025965
1.0247427 1.0113242 1.0101644 1.0065665 0.9993496 0.99354255 1.0185325 0.9948288
0.9876939 1.0201099 0.9893668 0.9875086 0.9961075 1.0246112 0.97489107 0.997393
1.0166198 1.0264655 1.0126512 1.0124519 0.99168843 0.9792521 1.009339 0.98170173
1.0062025 1.0119954 0.9938592 0.9937357 1.0175445 1.0206685 1.0070411 1.0091844
0.9941439 1.0005225 1.0180736 0.99413615 1.0060217 1.0062827 1.0200487 1.0278842
1.0113814 0.98198605 1.0080078 1.0114626 0.9876947 0.99909824 1.0003009 1.0022682
1.0029598 0.9932283 1.0026186 1.0136814 1.0176919 0.99812126 0.9965368 1.0173769
0.98548406 1.0164944 0.9987 1.0166106 1.0062068 0.98923934 1.0066662 1.0061096
1.0009629 1.016981 1.0137385 1.0100591 0.9898766 0.9775088 0.9893099 1.0065924
0.9894536 0.998504 1.001815 1.0069854 1.0084804 0.99189377 1.0028902 0.98486966
1.0049416 1.0028371 1.0097592 1.0179634 0.98736125 0.9922519 1.0139339 1.0185478
1.0092583 0.9984197 0.99620074 1.0345433 1.0126257 0.986744 1.0017033 1.0028931

conv_layers.0.params.7 f4 [128]
00000000: 77f9 7b3f ba1f 7f3f c0ea 7b3f 0eb3 813f
00000010: e33c 7f3f a591 813f f876 7b3f 53ee 793f
00000020: cae8 7d3f 3e9a 803f 4fc2 803f 9273 7f3f
00000030: 442e 823f 9db6 7f3f 5932 803f 993e 7e3f
00000040: 4057 7d3f 0fb5 7a3f f2b7 7e3f f0ff 803f
00000050: 9c4f 803f d323 813f d80f 7d3f c121 803f
00000060: ec80 7a3f 72a2 803f 460a 803f ecf6 7a3f
00000070: 4ac1 7f3f 75dd 813f 1b1d 7f3f c3cb 813f
00000080: c812 7d3f 45db 803f b2cc 7c3f 35ab 803f
00000090: c130 7a3f d604 7e3f 97d0 7e3f d4d7 833f
000000a0: adde 803f 1e40 813f 745d 7c3f 8c82 7f3f
000000b0: 8703 803f 659e 7b3f 3818 833f e90f 7c3f
000000c0: 793b 823f 1228 813f e83a 7f3f e3c6 7c3f
000000d0: 0674 7f3f de3c 7f3f ec10 813f 4380 803f
000000e0: 9897 7f3f be8e 803f 83a2 7c3f c2e6 7e3f
000000f0: dd29 7e3f e795 813f e1b1 7d3f fea9 7d3f
00000100: b427 813f 28ca 7c3f a9f2 793f f7ce 803f
00000110: 94ea 7b3f 9812 813f fd10 803f b403 803f
00000120: 6cf2 7d3f d72f 7f3f 2a94 813f ab9f 803f
00000130: 8dc7 7e3f 04e5 803f d941 7c3f 8392 7f3f
00000140: d885 7f3f a305 7f3f 4376 7d3f db6f 803f
00000150: 65a7 7e3f 5b9c 7e3f f522 803f abf5 7d3f
00000160: 81ff 813f 8261 7b3f 5717 7e3f d949 7a3f
00000170: de4a 823f 84c1 803f 7f90 803f db1d 7c3f
00000180: d0bf 7e3f 60c3 803f d8d5 7e3f 7070 803f
00000190: e8a8 7a3f 240d 7d3f 3f0a 813f 37db 7d3f
000001a0: 35a9 7e3f 5120 7d3f dd24 803f 15e9 803f
000001b0: 72de 803f 7660 7d3f ce0a 813f 1678 7f3f
000001c0: 6ae8 813f cb38 7c3f ab33 7f3f ae27 803f
000001d0: de5d 803f 8f30 813f bf08 803f 63c5 7f3f
000001e0: 53f4 7e3f 1564 823f 7a9b 7e3f e5ba 803f
000001f0: 9c3f 7b3f ca64 803f dd6f 7d3f 7fa4 793f
0.9842753 0.99657786 0.98405075 1.0132768 0.9970228 1.0122572 0.98228407 0.9762928
0.9918333 1.0047071 1.0059298 0.9978572 1.0170369 0.9988802 1.0015365 0.99314266
0.9896126 0.97932523 0.9949943 1.0078106 1.0024295 1.0089058 0.988523 1.0010301
0.9785297 1.0049574 1.0003135 0.9803302 0.9990431 1.0145708 0.99653786 1.0140308
0.9885678 1.0066916 0.9874984 1.0052248 0.9773064 0.9922613 0.9953703 1.030024
1.0067955 1.0097692 0.985801 0.99808574 1.0001076 0.98288566 1.0241766 0.98461777
1.01744 1.0090353 0.9969926 0.9874098 0.9978641 0.9970225 1.0083289 1.0039142
0.9984069 1.0043561 0.98685473 0.9957086 0.9928263 1.0123872 0.99099547 0.9908751
1.0090241 0.98745966 0.97635895 1.0063161 0.9840481 1.0083799 1.0005184 1.000113
0.9919803 0.9968237 1.0123341 1.0048727 0.9952324 1.006989 0.98537976 0.99832934
0.99813604 0.99617976 0.9900858 1.0034136 0.99474174 0.9945733 1.0010668 0.99202985
1.0156099 0.9819566 0.99254364 0.9776893 1.0179098 1.0059056 1.0044097 0.98483056
0.9951143 1.0059624 0.9954505 1.0034313 0.9791398 0.98848176 1.0081252 0.9916262
0.9947694 0.98877436 1.001125 1.0071131 1.0067885 0.9897531 1.0081422 0.9979261
1.0149052 0.9852416 0.99688214 1.0012109 1.0028646 1.0092944 1.0002669 0.99910563
0.9959156 1.0186793 0.9945599 1.0057036 0.98143935 1.0030758 0.98998815 0.97516626

conv_layers.0.params.8 f4 [128]
00000000: 3d3b 7e3f c80e 7d3f ffb6 803f 4988 7f3f
00000010: ee4a 7e3f bae9 7e3f 9510 813f 2489 7d3f
00000020: 76d3 813f 5c83 7f3f 2e2f 7e3f 2cbb 813f
00000030: c3d2 7f3f 12ee 7f3f 1023 7e3f 89ae 803f
00000040: cd0d 7f3f 1a4e 7c3f 40be 7e3f 8bda 813f
00000050: 0573 7e3f e466 813f 549c 803f f9b3 7d3f
00000060: bb51 7d3f 3b7e 7e3f 1f65 7e3f 5fcd 7d3f
00000070: d816 7f3f 619a 7a3f 64cd 7d3f 862b 7b3f
00000080: 59c8 803f 8f87 803f eb67 7e3f 1c09 7f3f
00000090: 7517 7f3f 585b 813f 313a 7e3f 237b 7c3f
000000a0: 2731 7f3f 70d1 7d3f d20c 7e3f ebae 7c3f
000000b0: 188e 793f 3310 823f b0bf 813f 9e81 7d3f
000000c0: d212 7d3f 4bcc 833f 7e30 813f 65ba 803f
000000d0: 8f2b 7d3f 273d 7b3f b8a5 7f3f ba35 803f
000000e0: 0881 803f 4beb 7e3f 442c 7e3f a7e2 7a3f
000000f0: 8b69 7e3f 60a8 813f 4fd6 7a3f 54f3 7e3f
00000100: 6aa1 803f c195 813f 365d 823f 67df 7e3f
00000110: e9d5 773f 202f 823f ced0 7f3f 615c 7c3f
00000120: 12ee 7d3f d42b 7c3f f98c 7b3f 431e 803f
00000130: 0f84 7a3f 9a51 7e3f ea29 7e3f 0770 793f
00000140: 357b 7d3f bd9b 7d3f b7df 7a3f 9811 803f
00000150: 7dc6 7d3f cc5e 7c3f c5ed 813f bb65 7f3f
00000160: 927f 7f3f 372d 7f3f 25a4 803f b80b 813f
00000170: 5c7b 803f 38b3 803f 43e8 7f3f 6d92 7c3f
00000180: b37d 7a3f 17fd 7c3f c2ea 7f3f 6f5f 803f
00000190: 7084 783f 34fa 803f 26a7 7b3f e585 813f
000001a0: 18a5 803f 46d4 7a3f 3b69 7f3f 6609 803f
000001b0: 77af 803f 277e 7d3f 9cb4 813f 5e72 803f
000001c0: d763 7d3f 8433 7d3f abb9 7f3f c8e0 803f
000001d0: b053 813f 9bb2 803f 7dfe 793f 6dbc 7c3f
000001e0: 071d 813f 975b 803f 457f 813f 5153 7b3f
000001f0: 03eb 803f d004 813f cfce 813f 40d8 803f
0.9930914 0.9885068 1.0055846 0.9981733 0.99333084 0.9957539 1.0083185 0.99037385
1.0142658 0.99809813 0.9929074 1.0135245 0.9993097 0.9997264 0.9927225 1.0053264
0.99630433 0.98556674 0.9950905 1.0144819 0.99394256 1.0109525 1.0047708 0.9910274
0.98952836 0.9941136 0.9937305 0.99141496 0.9964423 0.97891814 0.99141526 0.98113286
1.0061141 1.0041369 0.99377316 0.99623275 0.9964517 1.0106001 0.99307543 0.9862539
0.99684376 0.991477 0.9923831 0.98704404 0.9748244 1.0161194 1.0136623 0.99025905
0.9885684 1.029672 1.0092924 1.0056883 0.9889459 0.98140186 0.9986224 1.0016396
1.0039377 0.9957778 0.99286294 0.98002094 0.99379796 1.0129509 0.9798326 0.9959004
1.004926 1.0123826 1.0184696 0.99559635 0.96810776 1.0170631 0.99927986 0.9857846
0.9919139 0.98504376 0.9826198 1.0009235 0.97857755 0.99343264 0.99282706 0.97436565
0.99016124 0.9906576 0.9799761 1.0005369 0.99130994 0.9858215 1.0150687 0.99764603
0.9980403 0.9967837 1.0050093 1.0081701 1.0037646 1.0054693 0.9996378 0.9866093
0.9784805 0.98823684 0.99967587 1.0029124 0.97077084 1.0076356 0.98301923 1.0118986
1.0050383 0.97980154 0.99769944 1.0002868 1.0053548 0.9902062 1.0133243 1.0034902
0.9898047 0.9890673 0.9989268 1.0068598 1.0103664 1.0054506 0.97653943 0.98725015
1.0086983 1.0027951 1.0116965 0.98174006 1.007172 1.0079594 1.0141238 1.0065994
