trained_model/2025-06-18_16-11-57/saved_model_2025-06-18_16-11-57.pkl (torch, 820950 bytes, 54 tensors)

conv_layers.0.f_lin.0.weight f4 [128, 5]
0	0xbd07cbb6	-0.03315326
1	0xbe31c8fb	-0.17361824
2	0x3d995ff0	0.07489002
3	0x3e329534	0.17439729
4	0x3cbc8e49	0.023017066
5	0x3e0f48d3	0.13992624
6	0xbe5908fc	-0.21194834
7	0x3c92cade	0.017919
8	0x3e445817	0.19174229
9	0xbe5119cc	-0.20419997
10	0x3b931db6	0.004489626
11	0xbde1c4a8	-0.11023837
12	0xbe03a6a4	-0.12856537
13	0x3e51b409	0.20478834
14	0x3de43fe2	0.11144997
15	0xbcf26f12	-0.029593978
16	0x3e50b32e	0.20380852
17	0xbdb83c62	-0.08995892
18	0xbdd30726	-0.10304098
19	0xbe02af93	-0.12762289
20	0x3d9e16f0	0.07719219
21	0x3e1a471d	0.1506619
22	0xbcab778d	-0.02093103
23	0x3db0bf0d	0.0863019
24	0x3cf73539	0.030176746
25	0xbe3328b3	-0.17495994
26	0xbcc3af65	-0.023887346
27	0xbb278900	-0.0025563836
28	0x3db7a9af	0.089679115
29	0xbe188239	-0.14893426
30	0xbe39901e	-0.18121383
31	0x3dc7b941	0.09752131
32	0x3d83442f	0.06409489
33	0xbdbd4e8d	-0.09243498
34	0x3e087196	0.1332458
35	0x3dae6d77	0.085169725
36	0x3de639a5	0.112414636
37	0x3e228d85	0.15874298
38	0x3d4a1108	0.04933265
39	0x3e262196	0.1622375
40	0xbde74426	-0.11292295
41	0xbdc87190	-0.09787285
42	0xbddbd562	-0.10734059
43	0xbb06db28	-0.0020577405
44	0xbe6067ac	-0.21914548
45	0xbe52b91d	-0.20578428
46	0xbe2f4ec5	-0.17119892
47	0x3c69e5bb	0.014275963
48	0xbe16de44	-0.14733225
49	0xbd1974ce	-0.03746491
50	0x3da594bc	0.080850095
51	0xbdb53635	-0.0884823
52	0x3dc46628	0.09589797
53	0xbd3179f5	-0.043329198
54	0x3dcfe34b	0.101507746
55	0x3dc179e1	0.09447075
56	0x3e566d27	0.20940076
57	0x3e44c01c	0.19213909
58	0xbc02e6a2	-0.007989557
59	0x3c823b0b	0.015897295
60	0xbd229d72	-0.039700933
61	0xbe3da3f0	-0.18519568
62	0x3e460a87	0.19339953
63	0xbe434b5c	-0.19071716
64	0x3cbf2bb7	0.023336275
65	0x3e14272a	0.14468065
66	0xbddd1190	-0.107943654
67	0xbe3a7756	-0.18209586
68	0x3ddb2ff4	0.10702506
69	0xbdfea19b	-0.124331675
70	0x3e2e6913	0.1703227
71	0x3d1cd595	0.038289625
72	0xbe07fde4	-0.13280445
73	0xbe2d9824	-0.16952568
74	0x3d15c871	0.03656811
75	0x3da74f83	0.081694625
76	0xbc8be984	-0.017079122
77	0x3dc48be2	0.09596993
78	0xbe4f1486	-0.20222673
79	0x3df7e8ba	0.12104936
80	0xbe35da08	-0.17758954
81	0x3e0cc875	0.13748343
82	0xbe54d214	-0.20783263
83	0x3df845a9	0.121226616
84	0xbdcb7af5	-0.099355616
85	0x3dbd9a1c	0.0925791
86	0xbd8b118d	-0.06790457
87	0x3db0742f	0.0861591
88	0x3d846d4d	0.0646616
89	0x3cb81bc0	0.02247417
90	0xbdca6987	-0.09883409
91	0xbdbe94a1	-0.093056925
92	0xbe1fa776	-0.15591225
93	0x3d5fe314	0.054659918
94	0x3d75fa19	0.060052965
95	0xbe28c25f	-0.16480397
96	0xbd9d3768	-0.076765835
97	0xbdb2de1c	-0.0873377
98	0x3dabb786	0.08384614
99	0xbd8ed907	-0.069749884
100	0x3df43b3b	0.1192536
101	0xbe2a02a6	-0.16602573
102	0x3e2a76b8	0.1664685
103	0xbddbf121	-0.10739351
104	0x3d421d93	0.047391485
105	0x3e00012f	0.12500452
106	0x3e41fda8	0.18944418
107	0xbd49f824	-0.04930891
108	0x3e48f7df	0.19625805
109	0xbe471734	-0.19442445
110	0xbe235fc6	-0.15954503
111	0x3cbc3963	0.022976583
112	0xbdd9c90f	-0.10634052
113	0x3e167834	0.14694291
114	0x3c2857ed	0.010274869
115	0x3df96aa1	0.12178541
116	0xbde44456	-0.111458465
117	0xbdc74823	-0.09730556
118	0xbe64e795	-0.22353967
119	0x3db17281	0.08664418
120	0xbde7d1e8	-0.11319333
121	0xbe095c34	-0.13414079
122	0x3d6a406e	0.05719035
123	0xbcda33c2	-0.026636008
124	0xbdd05bd8	-0.10173768
125	0x3dd54975	0.104144014
126	0x3d867be9	0.06566603
127	0x3e0c0c90	0.13676667
128	0xbe0987b2	-0.1343067
129	0xbe0c3155	-0.13690694
130	0xbde40bf7	-0.111350946
131	0x3d86ba9e	0.06578563
132	0x3d89fd46	0.06737761
133	0xbd2edde2	-0.042692073
134	0xbc265e6b	-0.010154347
135	0x3cfe1a2e	0.031018343
136	0x3b419e88	0.0029543955
137	0x3e07c4cd	0.13258667
138	0x3e2b7b9d	0.16746373
139	0xba6b93dd	-0.0008986572
140	0xbe15bf4b	-0.14623754
141	0x3e2fabb4	0.17155343
142	0xbe402eec	-0.187679
143	0xbd21d0a3	-0.039505612
144	0x3e3ee009	0.1864015
145	0xbc5d24ea	-0.0134975705
146	0xbd54d60a	-0.051961936
147	0x3e12bfce	0.1433098
148	0x3e0a6484	0.13514906
149	0x3e2889e6	0.16458854
150	0x3dc42dc5	0.09579042
151	0xbe3f9270	-0.18708205
152	0xbe2ef878	-0.17086971
153	0x3bb3dffb	0.005489347
154	0x3b32ab34	0.002726269
155	0x3d6b1e7e	0.057402126
156	0x3c88c482	0.016695265
157	0x3dc894cd	0.097940065
158	0xbdbf1d98	-0.093318164
159	0xbde36348	-0.11102921
160	0x3e0984c8	0.13429558
161	0xbe680718	-0.22658956
162	0x3cb2f6a8	0.02184613
163	0xbe67439b	-0.22584383
164	0x3d56906e	0.052383833
165	0xbd4b2ed4	-0.049605206
166	0x3e59a991	0.2125609
167	0x3d3be9d8	0.045877308
168	0x3e4f4bcd	0.2024376
169	0x3b3f8d1e	0.00292284
170	0x3db877db	0.090072356
171	0x3c028df7	0.007968417
172	0xbd2f97ad	-0.04286926
173	0xbe1c8845	-0.15286358
174	0x3e04aaa6	0.12955722
175	0x3e17c542	0.14821342
176	0x3d06a61b	0.032873254
177	0xbe5cb074	-0.21551687
178	0x3c6dda03	0.01451731
179	0x3e330ea9	0.17486061
180	0x3dd9b03c	0.10629317
181	0xbda5bf89	-0.08093173
182	0xbd347d37	-0.044064727
183	0x3d094ba0	0.033519387
184	0x3d169e64	0.036772147
185	0x3c624d6b	0.013812403
186	0xbe58c6a6	-0.21169528
187	0x3d982220	0.07428384
188	0xbdb1b0fb	-0.086763345
189	0xbe3cd6f8	-0.18441379
190	0xbd8b2d7a	-0.06795783
191	0xbdb6c7c1	-0.08924819
192	0x3d1e26f6	0.038611375
193	0x3e5daf99	0.21649016
194	0x3d816441	0.0631795
195	0xbce5f51c	-0.028070979
196	0xbe37c5b2	-0.17946509
197	0x3e3420f9	0.17590703
198	0xbe107493	-0.1410697
199	0x3e29b934	0.16574556
200	0xbdfd0f81	-0.12356473
201	0xbe3b4a8e	-0.18290159
202	0x3daa0a92	0.083027974
203	0x3dfc5dad	0.12322555
204	0xbda80ea6	-0.08205919
205	0x38cffe0d	9.91785e-05
206	0xbda1985a	-0.07890387
207	0x3e09d1d6	0.13458952
208	0x3db77056	0.08956973
209	0x3d8899bb	0.06669947
210	0x3d7b1382	0.0612979
211	0x3cf6ffb8	0.030151233
212	0x3d8ffef7	0.070310526
213	0xbe055646	-0.13021192
214	0xbd533bae	-0.051570587
215	0x3e235f14	0.15954238
216	0x3d213908	0.03936103
217	0xbe341854	-0.17587405
218	0x3d7ada17	0.061243143
219	0x3dbf9822	0.09355189
220	0x3dce2bf4	0.10066977
221	0x3e410768	0.18850482
222	0x3e35cbf2	0.1775358
223	0xbe1739b2	-0.14768103
224	0x3d175140	0.03694272
225	0xbe2d8efc	-0.16949075
226	0x3e5bc126	0.21460399
227	0x3e19e03c	0.15026945
228	0xbdfbbcee	-0.12291895
229	0x3da5e3a3	0.08100059
230	0xba8b9394	-0.001064884
231	0xbbb7d0c0	-0.0056096017
232	0xbd9023cc	-0.07038078
233	0x3e2ad0bc	0.16681188
234	0xbd89b433	-0.067238234
235	0x3e3e1802	0.18563846
236	0xbd0c054d	-0.034184743
237	0xbd29cb46	-0.041453622
238	0x3cec931a	0.028878737
239	0x3d1be70f	0.03806215
240	0x3ac66b5f	0.00151382
241	0x3e1ae8f6	0.1512793
242	0xbd25f9e2	-0.04052151
243	0xbdf79ac7	-0.12090068
244	0xbcd2fc07	-0.025754942
245	0xbd50fc01	-0.05102158
246	0xbdc1ce72	-0.094632044
247	0x3d9e72fa	0.07736774
248	0x3da2a9a7	0.07942515
249	0x3d9c7f2f	0.07641446
250	0x3e062144	0.13098627
251	0xbe49f5c3	-0.19722657
252	0x3cff6b7c	0.031179182
253	0x3d30fa2d	0.043207336
254	0x3e41c6f1	0.18923546
255	0x3d9a4f4d	0.07534657

conv_layers.0.f_lin.1.weight f4 [128, 5]
0	0x3bf9e012	0.007625588
1	0x3e1e02b9	0.15430726
2	0x3dee947b	0.11649414
3	0x3dbf871b	0.09351941
4	0xbcb56c3d	-0.022146339
5	0x3e4de441	0.20106603
6	0xbe563f8c	-0.20922679
7	0xbe2aa0d0	-0.16662908
8	0xbe5064e8	-0.20350993
9	0x3bb70359	0.005585116
10	0x3e4a92f5	0.19782622
11	0xbe6778fa	-0.22604743
12	0xbdcae51c	-0.099069804
13	0xbd5bc845	-0.05365779
14	0x3d7e67e4	0.062110797
15	0xbd6bcc1f	-0.057567712
16	0xbde9a68f	-0.11408722
17	0xbc90b1eb	-0.017662963
18	0xbe358d88	-0.17729771
19	0x3e38ba72	0.18039873
20	0xbc3e3c23	-0.011611017
21	0x3dc0df18	0.09417552
22	0xbe2f05c7	-0.17092048
23	0x3e5204f0	0.20509696
24	0x3e051499	0.12996139
25	0x3e4e283a	0.20132533
26	0xbe0cdef5	-0.13756926
27	0x3e2f3c35	0.17112811
28	0x3d2d54a7	0.04231706
29	0x3e47d094	0.1951316
30	0xbe4c7404	-0.19966131
31	0x3e0f131e	0.13972136
32	0xbdab262c	-0.0835689
33	0x3e1994e7	0.14998208
34	0xbe14d4c9	-0.14534296
35	0x3e34d765	0.17660291
36	0x3dbb8959	0.09157056
37	0x3cd45264	0.025918193
38	0x3d4eb810	0.050468504
39	0x3d970c5f	0.073754065
40	0x3d4b1eb5	0.04958983
41	0xbcd83566	-0.02639265
42	0x3d895d23	0.067072175
43	0xbe3292be	-0.1743879
44	0xbd8d15c8	-0.0688892
45	0x3db593c8	0.08866078
46	0x3d2c910f	0.042130526
47	0xbdfcbb96	-0.12340467
48	0xbe381092	-0.17975071
49	0xbe3a88a6	-0.1821619
50	0x3c8ffe15	0.01757721
51	0xbd8f0abf	-0.069844715
52	0xbe2fce97	-0.17168652
53	0x3e389b28	0.18027937
54	0x3b9b222d	0.0047342987
55	0x3e1ec70c	0.15505618
56	0x3c98515a	0.018593479
57	0xbe10b744	-0.1413241
58	0xbdb37b32	-0.08763732
59	0x3e237f3d	0.15966506
60	0xbd94879f	-0.0725243
61	0xbdeb467b	-0.114880525
62	0xbd060f74	-0.03272958
63	0xbe34e5ba	-0.17665759
64	0xbb8f2084	-0.00436789
65	0xbdae096b	-0.0849789
66	0xbdd3a73b	-0.10334631
67	0xbce7a07f	-0.028274773
68	0x3de31df4	0.110896975
69	0xbd617dce	-0.055051617
70	0x3d85e3fd	0.06537626
71	0x3cab4860	0.020908535
72	0xbe082e2e	-0.13298866
73	0xbd826b50	-0.063681245
74	0x3d79847b	0.06091736
75	0x3d90bd28	0.07067329
76	0xbcb48e9b	-0.022040656
77	0x3df52176	0.11969273
78	0x3e024e2b	0.12725131
79	0x3e697753	0.22799425
80	0x3d8ddc25	0.06926755
81	0x3d78d2e0	0.06074798
82	0x3d8e4875	0.06947414
83	0x3dbf920f	0.0935403
84	0xbd9d869d	-0.07691691
85	0xbe6c72ab	-0.23090617
86	0xbe482734	-0.19546205
87	0x3e287d00	0.16453934
88	0x3e4595f2	0.19295481
89	0x3e39afe2	0.181335
90	0x3e3de061	0.18542625
91	0x3d2a4e90	0.04157883
92	0xbdae5c1b	-0.085136615
93	0xbe22a6ff	-0.15884016
94	0xbd9e43d1	-0.07727779
95	0x3e513dec	0.20433778
96	0xbe6e1ffc	-0.23254389
97	0x3cb2d3f6	0.021829586
98	0xbd75ab3a	-0.059977747
99	0xbdd3fea5	-0.10351304
100	0x3dd4187a	0.10356231
101	0xbd056cea	-0.03257457
102	0xbdbd6fcf	-0.092498414
103	0xbe54348c	-0.2072317
104	0xbe579c61	-0.21055748
105	0x3e1064da	0.14100972
106	0xbda9556a	-0.082682446
107	0x3e3d1290	0.18464112
108	0xbdd375b7	-0.10325187
109	0xbe174a0e	-0.14774343
110	0x3e29315f	0.1652274
111	0xbe607b26	-0.21921977
112	0xbe5a6245	-0.2132655
113	0x3dd1af25	0.10238484
114	0xbc0cda3f	-0.008596956
115	0x3e26e01c	0.16296428
116	0x3dda8ef4	0.106717974
117	0xbdfb59b2	-0.122729674
118	0x3e1c39ce	0.15256426
119	0xbe1f46cb	-0.15554349
120	0x3ab2da4e	0.0013645382
121	0xbe0673a0	-0.13130045
122	0x3e18238a	0.14857307
123	0xbded3029	-0.115814514
124	0x3cccd161	0.025002183
125	0xbe59f8ef	-0.21286367
126	0x3e4df86a	0.20114294
127	0xbd00e405	-0.031467456
128	0xbda8bfbe	-0.08239697
129	0xbe050e3b	-0.1299371
130	0xbe59a832	-0.21255568
131	0xbe04cf79	-0.1296977
132	0x3e1335cc	0.1437599
133	0x3e309fde	0.17248484
134	0x3e278820	0.16360521
135	0xbe6786fa	-0.22610083
136	0xbe3fc810	-0.18728662
137	0xbdefc6fc	-0.11707875
138	0x3e0a8341	0.13526632
139	0x3e3df368	0.18549883
140	0xbadbbca1	-0.001676459
141	0x3ddcf6a7	0.10789233
142	0xbe3857a1	-0.18002178
143	0x3d6563cc	0.056003377
144	0xbd6bea98	-0.057596773
145	0x3cef1d6b	0.029188832
146	0xbd6ef664	-0.058340445
147	0x3d304574	0.043034986
148	0x3e24a86f	0.16079877
149	0x3e062aac	0.13102216
150	0x3d4601cd	0.04834156
151	0x3cdf322f	0.02724561
152	0xbdc4dd6e	-0.09612547
153	0xbc84f2f1	-0.016229125
154	0x3e04d5da	0.12972203
155	0xbcea20db	-0.02858012
156	0x3b9cf803	0.0047903075
157	0xbcd85b57	-0.026410742
158	0xbdc459ef	-0.09587466
159	0x3de82664	0.113354474
160	0xbe08c7c9	-0.13357462
161	0x3d907075	0.070526995
162	0xbdec0451	-0.11524261
163	0x3dc57e50	0.09643233
164	0x3d23e76a	0.040015616
165	0xbc61fb67	-0.013792849
166	0x3e4808b6	0.19534573
167	0xbda265de	-0.07929586
168	0x3deecef8	0.1166057
169	0x3e054825	0.13015802
170	0x3e4cb2f5	0.19990142
171	0x3b516018	0.0031948145
172	0x3dc187af	0.09449708
173	0x3e3b0c73	0.18266468
174	0x3d9fdea8	0.0780614
175	0xbd453d1c	-0.04815398
176	0x3b287812	0.0025706333
177	0x3d37b2fb	0.044848423
178	0xbd24d810	-0.040245116
179	0x3e583201	0.21112825
180	0x3d3f7545	0.046742696
181	0x3d8ac160	0.067751646
182	0xbd918211	-0.07104886
183	0x3dfaa895	0.12239186
184	0xbe1e15ca	-0.15438
185	0x3df78aa7	0.12086993
186	0xbd3abc90	-0.045589983
187	0x3dbc5e87	0.09197717
188	0x3dc91cde	0.09819959
189	0x3cd6a769	0.026202874
190	0xbddae14e	-0.10687505
191	0x3de5bd3b	0.112177335
192	0xbde4cbdc	-0.111716956
193	0x3d0b3a17	0.033990946
194	0xbe174fff	-0.1477661
195	0x3dc97198	0.098361194
196	0x3e4f4686	0.20241746
197	0x3e484df8	0.19560993
198	0xbdb421e1	-0.087955244
199	0x3e3f1160	0.18658972
200	0x3e008f2d	0.12554617
201	0x3e50fcca	0.20408931
202	0xbd81db1c	-0.0634062
203	0x3e5d6a40	0.21622562
204	0xbe2ecdd3	-0.17070703
205	0x3d743b46	0.05962684
206	0x3c5c8855	0.013460238
207	0xbdc9a39a	-0.09845658
208	0xbd6ee324	-0.058322087
209	0x3dcf04c1	0.101083286
210	0xbdaa5e34	-0.08318749
211	0xbdd85594	-0.10563198
212	0x3c6c6970	0.014429435
213	0x3e24c284	0.16089827
214	0x3ca03b09	0.0195594
215	0x3df6b5ac	0.1204637
216	0x3e196e2c	0.14983433
217	0x39db24c7	0.00041798336
218	0xbe069131	-0.13141324
219	0x3e51d343	0.20490746
220	0xbdfbedb0	-0.12301195
221	0xbd28dedb	-0.041228157
222	0xbdea2ef5	-0.114347376
223	0xbdba78e8	-0.09105092
224	0x3da60955	0.08107249
225	0x3d2e500c	0.042556807
226	0xbe373c84	-0.17894179
227	0xbd279baa	-0.040919937
228	0xbe5511f9	-0.20807637
229	0x3d5a3e2c	0.053281948
230	0xbe4ad69e	-0.19808432
231	0x3c675eec	0.014121752
232	0xbcdd0a70	-0.026982516
233	0x3e07ad7f	0.13249777
234	0xbe0a19e0	-0.13486433
235	0x3ddf490b	0.10902604
236	0x3e203928	0.15646803
237	0x3e0376f2	0.12838343
238	0xbdfd8370	-0.12378585
239	0xbe4c8db5	-0.19975932
240	0x3cc4c1ab	0.02401813
241	0xbbec5f65	-0.0072135204
242	0x3e19bbd9	0.15013064
243	0x3d9508ef	0.072770946
244	0x3e40306b	0.1876847
245	0x3e070448	0.13185227
246	0xbcc3fbc2	-0.023923758
247	0x3e19e59e	0.15028998
248	0xbe1ca4ed	-0.15297289
249	0xbdc3bbad	-0.09557281
250	0xbc6a9c9d	-0.014319566
251	0x3e650b3b	0.22367565
252	0x3e3dc004	0.1853028
253	0x3e23e6dc	0.16006035
254	0x3e3aef48	0.18255341
255	0xbe63d583	-0.22249417

conv_layers.0.f_lin.2.weight f4 [128, 5]
0	0xbe20c396	-0.1569961
1	0xbe33fc33	-0.17576675
2	0xbd1c7538	-0.038197726
3	0x3d6f48fb	0.05841921
4	0x3de295cf	0.1106373
5	0x3dbc1382	0.09183408
6	0x3d834c7e	0.06411074
7	0x3d20cba7	0.039256718
8	0xbe4c9887	-0.1998006
9	0xbe143d86	-0.14476594
10	0x3d3c34f0	0.045948923
11	0xbe5869d2	-0.21134117
12	0x3e14f197	0.14545284
13	0x3e1505b1	0.14552952
14	0xbd57ad1b	-0.05265532
15	0x3d42a68a	0.047522105
16	0x3e5edebd	0.21764655
17	0xbd6a4e52	-0.0572036
18	0xbd29a843	-0.041420233
19	0xbc4331bc	-0.011913713
20	0x3dd49b58	0.10381192
21	0xbe62c1f7	-0.22144304
22	0x3cd7fe99	0.026366519
23	0x3e0faa91	0.1402991
24	0xbe66e582	-0.22548488
25	0xbdd29f74	-0.102843195
26	0x3d42a8d9	0.047524307
27	0x3dcf0946	0.10109191
28	0xbdbbc629	-0.091686554
29	0x3c8ad00f	0.016944913
30	0x3d95051c	0.07276365
31	0xbc057c1c	-0.008147266
32	0x3dc4c760	0.0960834
33	0x3e1d9def	0.15392278
34	0xbbc7b4b5	-0.00609454
35	0x3e03870c	0.12844485
36	0xbe27042e	-0.16310188
37	0xbd58ec66	-0.052959822
38	0x3df442b6	0.119267866
39	0xbce31fdb	-0.02772515
40	0xbe3393af	-0.17536806
41	0x3cceb267	0.025231553
42	0xbdaad956	-0.08342235
43	0xbce0c0f5	-0.02743576
44	0xbdf592d8	-0.11990899
45	0x3dc834ac	0.09775671
46	0x3cae5955	0.021282831
47	0xbdc7f36b	-0.09763225
48	0x3e1b16e8	0.15145457
49	0x3ccf8e53	0.02533642
50	0xbe599603	-0.21248631
51	0x3e2c1ce0	0.1680789
52	0xbe0ede28	-0.13951933
53	0x3e3677d9	0.17819156
54	0xbe5d6995	-0.21622308
55	0x3df7f774	0.12107745
56	0xbd0b493f	-0.0340054
57	0x3e37fdae	0.17967865
58	0xbe09c403	-0.13453679
59	0xbe3e6aaa	-0.18595377
60	0x3d1216b2	0.035666175
61	0xbe3d31ee	-0.18476078
62	0xbde16c65	-0.11007003
63	0xbda87083	-0.08224585
64	0x3e392567	0.18080674
65	0x3d81249a	0.06305809
66	0xbe14d97b	-0.14536087
67	0x3e10fe8e	0.14159605
68	0xbd587964	-0.052850142
69	0x3d859eda	0.06524439
70	0xbe1f698e	-0.1556761
71	0x3e38f3ed	0.180618
72	0xbe3657b3	-0.17806892
73	0xbe2ab885	-0.16671951
74	0xbd77b044	-0.060470834
75	0x3d600ecd	0.054701615
76	0xbe539f49	-0.20666231
77	0xbe50c209	-0.20386519
78	0xbc91b361	-0.01778573
79	0x3df0e44d	0.11762295
80	0xbd78c992	-0.060739107
81	0xbe6149e5	-0.22000845
82	0xbe62c463	-0.22145228
83	0xbd438960	-0.047738433
84	0xbdcd29c5	-0.100177325
85	0x3e1ebf0f	0.1550257
86	0x3db4112d	0.087923385
87	0xbe1ca2f1	-0.15296532
88	0x3dcede1e	0.10100959
89	0xbe25e671	-0.16201188
90	0x3df8e569	0.121531315
91	0xbe2df615	-0.16988404
92	0x3e3dfed2	0.18554237
93	0xbe2884c8	-0.16456902
94	0xbd5fdfd5	-0.054656822
95	0x3d485878	0.048912495
96	0x3e0fb20b	0.14032762
97	0x3e11b3d9	0.14228763
98	0x3e196c59	0.14982738
99	0x3dc8c3f3	0.09802999
100	0x3e08c0f2	0.13354853
101	0xbe11aa3f	-0.142251
102	0x3de7deef	0.11321818
103	0xbe36f489	-0.1786672
104	0xbe1ffc64	-0.15623623
105	0xbe695016	-0.22784457
106	0xbe2b6071	-0.16736008
107	0x3c38dd56	0.011283239
108	0x3de1250c	0.10993394
109	0x3d3abd2d	0.04559057
110	0x3dce9bbd	0.100882985
111	0xbcc0853f	-0.023501037
112	0x3be28721	0.0069130813
113	0xbe082866	-0.13296661
114	0x3de1ffc7	0.11035114
115	0xbe320da6	-0.17388019
116	0x3c248738	0.010042004
117	0x3e1d2d37	0.1534928
118	0xbe22494e	-0.15848276
119	0xbd56873c	-0.052375063
120	0xbd559fae	-0.052154236
121	0xbe1de163	-0.1541801
122	0x3c038c4b	0.008029054
123	0x3e03293c	0.12808698
124	0x3e0999fd	0.13437648
125	0xbc01e4d6	-0.007928094
126	0x3e540a3a	0.20707026
127	0xbd7aa787	-0.061194923
128	0xbe34de09	-0.17662825
129	0x3d409fa1	0.047027234
130	0xbcec2898	-0.02882795
131	0xbdc45602	-0.09586717
132	0xbe179178	-0.14801586
133	0x3db9125e	0.090367064
134	0xbc91047a	-0.01770233
135	0xbe285418	-0.16438329
136	0x3e2a0e62	0.16607049
137	0x3e4ed98a	0.20200172
138	0xbdef7012	-0.116912976
139	0x3dc0853d	0.09400413
140	0xbd7f7a3b	-0.062372427
141	0x3e11dd66	0.14244613
142	0xbb89b215	-0.0042021372
143	0x3e1d0589	0.15334143
144	0x3bff92bf	0.007799476
145	0x3b0038d0	0.0019565113
146	0xbd93f69d	-0.07224772
147	0xbcafd29c	-0.021462731
148	0xbd9d74e0	-0.07688308
149	0x3db4c6c9	0.08826978
150	0x3e271c5a	0.16319409
151	0x3cc3962f	0.023875324
152	0xbc687086	-0.014186984
153	0xbe596e03	-0.21233372
154	0xbdc94ecf	-0.09829485
155	0xbdc65e7e	-0.09685992
156	0xbdae3d5d	-0.08507798
157	0xbdf1dbc2	-0.118094936
158	0xbd9672e1	-0.0734613
159	0x3d353500	0.044239998
160	0x3c6b3654	0.014356215
161	0xbd4bddbf	-0.04977202
162	0xbe18dd89	-0.14928259
163	0x3d05bc57	0.032650318
164	0x3d512e74	0.05106969
165	0xbdb0f90e	-0.086412534
166	0xbe56c87e	-0.20974919
167	0xbdea0c0d	-0.1142808
168	0xbc833467	-0.016016198
169	0x3e097ab8	0.1342572
170	0xbdd1bb33	-0.102407835
171	0xbd4d4e7f	-0.050123688
172	0xbe175b4a	-0.14780918
173	0x3daac5dc	0.0833852
174	0xbd668da9	-0.05628744
175	0x3e4f7ae9	0.2026173
176	0xbd0d477f	-0.034492012
177	0x3c8c1b48	0.017102852
178	0x3df16a4e	0.11787854
179	0x3d0dbe91	0.034605566
180	0xbc8cc6be	-0.017184611
181	0x3da7da8e	0.08195983
182	0x3d5ac58d	0.053411055
183	0x3e4e94fb	0.20174019
184	0xbe10b30f	-0.14130805
185	0xbc28ea46	-0.010309761
186	0x3def1bf9	0.11675257
187	0x3df80418	0.12110156
188	0xbde381b5	-0.11108724
189	0x3ddf3afc	0.10899922
190	0xbd640679	-0.055670235
191	0x3e3643d5	0.17799313
192	0xbe242817	-0.16030918
193	0x3db465f5	0.08808509
194	0x3c1548bc	0.0091115795
195	0x3d4c0c8e	0.04981666
196	0x3dbcb4fd	0.09214208
197	0x3e25da98	0.16196668
198	0x3deccc07	0.11562353
199	0x3d907168	0.070528805
200	0x3deeb7b3	0.116561316
201	0x3e5e0159	0.21680202
202	0xbe48091a	-0.19534722
203	0x3e29c628	0.16579497
204	0x3d7eb3a2	0.06218303
205	0xbd6a6193	-0.05722196
206	0x3dffb5c9	0.12485845
207	0x3e405311	0.18781687
208	0xbe411f9a	-0.18859711
209	0x3cd18ecf	0.025580792
210	0x3e23addd	0.15984292
211	0x3c2114e6	0.009831643
212	0xbda39f1d	-0.07989333
213	0xbbf2d35a	-0.007410449
214	0xbad7a955	-0.0016453663
215	0xbda47985	-0.080309905
216	0xbe38137a	-0.1797618
217	0x3df19513	0.11796012
218	0xbe3ef803	-0.18649296
219	0x3e26c975	0.16287787
220	0x3e3158b5	0.17318995
221	0x3e2e9db7	0.17052351
222	0xbe1ac362	-0.15113595
223	0xbe547d76	-0.20750985
224	0xbe3906e5	-0.18069036
225	0x3d655b9c	0.05599557
226	0x3dc8b081	0.097992904
227	0xbe4c5160	-0.19952917
228	0x3dc19668	0.09452516
229	0x3d10f8c7	0.035393503
230	0xbdc03303	-0.0938473
231	0xbe0328c9	-0.12808527
232	0x3c9d6658	0.01921384
233	0x3e48d748	0.19613373
234	0xbe194fe8	-0.14971888
235	0xbbf28553	-0.0074011474
236	0x3e123e85	0.14281662
237	0x3ddb3cc0	0.107049465
238	0x3d7bf51d	0.061513055
239	0x3d92b479	0.07163329
240	0xbd02eaf9	-0.03196237
241	0x3ddad6df	0.10685515
242	0x3dd6ef52	0.104948655
243	0xbb4d6be6	-0.003134483
244	0x3e513eb8	0.20434082
245	0x3d339868	0.043846518
246	0x3dec3603	0.115337394
247	0x3d9efc76	0.07762997
248	0x3d8f6e4f	0.070034616
249	0x3e5b3685	0.21407516
250	0xbd9919ad	-0.074756004
251	0x3ded986b	0.11601337
252	0xbe436e9c	-0.19085163
253	0xbe15a748	-0.14614594
254	0xbe5b0370	-0.2138803
255	0x3d46a8e8	0.048500925

conv_layers.0.params.0 f4 [128]
0	0xbb50260b	-0.0031760957
1	0x3cb03ca8	0.021513298
2	0x3b150c58	0.0022742953
3	0x3bc68f4d	0.0060595633
4	0xbbb6d6fc	-0.0055798274
5	0x3c4096b4	0.01175468
6	0xba8f3263	-0.0010925051
7	0xbc233170	-0.009960517
8	0x3c5ff84c	0.013670038
9	0x3caec736	0.021335226
10	0xbc075ac3	-0.008261385
11	0xbcb3aae2	-0.02193207
12	0x3cc4e8c3	0.02403677
13	0xbc246a49	-0.010035106
14	0xbb35d23b	-0.0027743715
15	0xbc989f26	-0.018630575
16	0x3bc4b643	0.0060031726
17	0xbca1798a	-0.019711275
18	0x3b7942b8	0.0038034152
19	0xbc90a701	-0.017657759
20	0xbc8f93cf	-0.017526535
21	0xbc24c8d4	-0.010057647
22	0x3c973702	0.018458847
23	0x3c8dd9b3	0.017315721
24	0xbb9c8cf9	-0.0047775474
25	0xbcd1b8c1	-0.025600793
26	0xbc8f9c40	-0.01753056
27	0xbc8a8adf	-0.016911922
28	0x3c2b89ee	0.010469897
29	0xbc3695f4	-0.01114415
30	0x3ba0e840	0.004910499
31	0xbccbdd53	-0.024885809
32	0x3cd9619a	0.026535798
33	0xbc03c772	-0.008043157
34	0x3c20ede0	0.009822339
35	0xbc6dac61	-0.01450643
36	0xbc83698d	-0.016041541
37	0x3cc9391d	0.024563367
38	0x3c4214db	0.011845793
39	0x3c7c88a3	0.015413436
40	0x3c8b8c8a	0.017034788
41	0xbb8086b6	-0.003922309
42	0xbcb38b41	-0.021916987
43	0xbba96a88	-0.00517017
44	0xbcd22cc8	-0.025656119
45	0xbc8576e4	-0.016292043
46	0xbc2a3966	-0.010389661
47	0xbcbeec2d	-0.023305977
48	0xba756d38	-0.0009362283
49	0xbcc87681	-0.02447057
50	0x3b538d1b	0.003228015
51	0x3c659f66	0.014015054
52	0xbca8b361	-0.020593347
53	0xbc8be9cd	-0.017079258
54	0x3cb9647b	0.02263092
55	0x3c9dde25	0.019270966
56	0xbccfcabb	-0.025365224
57	0xbc396388	-0.011315234
58	0xbc96c7ef	-0.018405883
59	0xbc6852ae	-0.014179869
60	0xbbb4dddb	-0.0055196113
61	0x3c891ecd	0.01673832
62	0x3c032fa3	0.008006963
63	0xbb0c18db	-0.002137712
64	0x3c85bcab	0.016325315
65	0x3c8c6f3a	0.01714288
66	0xbb5360fc	-0.0032253852
67	0x3c87573f	0.016521094
68	0xbb97a35f	-0.0046276296
69	0xbc479b84	-0.012183074
70	0x3cc78c17	0.024358792
71	0xbc3b838c	-0.011444937
72	0xbc3e09ce	-0.011599017
73	0xbbdead7a	-0.0067955824
74	0x3c364c74	0.011126626
75	0xbcacdd14	-0.021101512
76	0x3b6534f7	0.0034974196
77	0x3ad83ba8	0.0016497271
78	0xbcb2ba13	-0.021817243
79	0x3c0d5b2b	0.008627693
80	0x3cd58087	0.026062263
81	0x3c7043f7	0.014664642
82	0x3c8d6c64	0.017263599
83	0x3c3c6b3a	0.011500174
84	0xbc84e14f	-0.016220717
85	0xbc344387	-0.011002428
86	0x3c785b03	0.015158418
87	0xbbffc2e9	-0.0078052175
88	0xbbda05e9	-0.0066535366
89	0xbc93e4b4	-0.01805339
90	0x3c6858c4	0.01418132
91	0xbc84da8b	-0.01621749
92	0xbc67fd40	-0.014159501
93	0x3c93ddf5	0.018050173
94	0xbc4228ce	-0.011850549
95	0x3c7b4101	0.015335322
96	0xbc38881d	-0.011262921
97	0xb988bf9f	-0.0002608271
98	0xbc54d7e7	-0.012990928
99	0xbc14595b	-0.009054507
100	0xbca5816a	-0.020203311
101	0x3c9ae5eb	0.018908462
102	0x3c7de9c4	0.015497629
103	0x3cb4602c	0.022018515
104	0x3bb4dab3	0.005519235
105	0x3cd8bcb7	0.026457174
106	0x3c908b77	0.017644627
107	0x3c0971c3	0.008388939
108	0x3cab4f49	0.02091183
109	0x3ccc9efb	0.024978152
110	0xbc5c65d9	-0.013452017
111	0xbca794bd	-0.020456666
112	0x3b87c890	0.004143782
113	0x3c881d0c	0.016615413
114	0x3cc24db6	0.023718696
115	0xbc874a44	-0.016514905
116	0xbc17f4da	-0.009274686
117	0xbcc2f3a4	-0.023797818
118	0xbc3a0f98	-0.011356257
119	0xbccce290	-0.025010377
120	0xbb36f43c	-0.002791657
121	0x3ba764c6	0.0051084487
122	0xbc622a7f	-0.013804077
123	0x3c9974cf	0.018732456
124	0x3c663246	0.014050072
125	0xbc55fc30	-0.0130606145
126	0xbc5279f3	-0.012846458
127	0x3c957289	0.018243091

conv_layers.0.params.1 f4 [128]
0	0x39e37dd3	0.0004339056
1	0x39adfe92	0.000331868
2	0xba923d93	-0.0011157267
3	0xbc4f2953	-0.01264413
4	0x39be85a4	0.00036339194
5	0xbca24d5c	-0.019812278
6	0x399afdc4	0.0002956224
7	0xbae81952	-0.0017707741
8	0xbc2af476	-0.010434261
9	0xbb7c7088	-0.0038519222
10	0xba815fe5	-0.0009870498
11	0xbc1f5d09	-0.009726771
12	0xbc993367	-0.018701268
13	0xbb315267	-0.0027057172
14	0xbc5c33bb	-0.013440068
15	0xbbebb605	-0.0071933293
16	0xbc37e89a	-0.01122489
17	0x3a1fa352	0.0006089705
18	0xbc30eedc	-0.010799136
19	0x3a9ef85d	0.0012128461
20	0xbc0e5d13	-0.008689183
21	0xbc44fc0b	-0.012022982
22	0xb7b17f93	-2.115945e-05
23	0xbc30f919	-0.010801577
24	0xb797098a	-1.8005045e-05
25	0xbbb3906d	-0.0054798634
26	0xbb499e99	-0.0030764698
27	0x39294d61	0.00016145922
28	0xbaf6c051	-0.0018825625
29	0xb7411327	-1.1508156e-05
30	0xbb999e2e	-0.004688046
31	0xbc0ee98f	-0.008722677
32	0x396f0c9e	0.00022797516
33	0xbbaf0791	-0.005341478
34	0xbbdbf61a	-0.006712687
35	0xbb99950e	-0.004686958
36	0xbbaddc00	-0.005305767
37	0x3aa4fd45	0.0012587687
38	0xbaf3bdb1	-0.0018595961
39	0xbca0694d	-0.019581461
40	0x3948dc7f	0.00019155628
41	0xb7249bca	-9.811434e-06
42	0x3898822a	7.27217e-05
43	0xbc36ac83	-0.011149528
44	0xbc08c2e1	-0.008347244
45	0x39938fb5	0.00028145095
46	0xbb64ef22	-0.0034932573
47	0xbbdfcef4	-0.0068300907
48	0x393546fd	0.0001728795
49	0x39d8be5e	0.00041340565
50	0xbbdfbe7f	-0.006828129
51	0x3a62efab	0.0008656929
52	0xbb8dae11	-0.004323729
53	0xbaa0aa96	-0.001225787
54	0xbbdcec94	-0.0067420695
55	0xbb18563f	-0.0023244766
56	0x39ef8e99	0.00045691876
57	0x3aad2426	0.0013209626
58	0xbc142d4c	-0.009044003
59	0x3a1bdccf	0.0005945684
60	0x387fece6	6.1017367e-05
61	0xbc321051	-0.010868148
62	0xb7ed6342	-2.8298822e-05
63	0xbc7000de	-0.014648644
64	0xbc090776	-0.008363595
65	0xbc4f87ce	-0.012666656
66	0x388f1e2e	6.824393e-05
67	0x3ae638d7	0.0017564547
68	0xb792fcc6	-1.7522263e-05
69	0xb6a05c32	-4.7791045e-06
70	0xbc04d852	-0.008108215
71	0xb68274b5	-3.8878884e-06
72	0x39c1b476	0.00036946282
73	0xbc46cab9	-0.012133294
74	0xbca48af4	-0.02008579
75	0x39cc3189	0.0003894682
76	0xb8f97440	-0.000118948985
77	0x3a89c497	0.0010510859
78	0xb9e60866	-0.00043875276
79	0x39ea867b	0.00044732154
80	0x38a62167	7.9217185e-05
81	0xbc5f87ef	-0.013643249
82	0x397be3e9	0.00024022128
83	0xbc31d942	-0.010855021
84	0xbbc61a71	-0.0060456325
85	0x3942f516	0.00018592583
86	0xba19a2e0	-0.0005860757
87	0xbc3f6f47	-0.011684245
88	0x391b5708	0.00014814374
89	0xb4735359	-2.266146e-07
90	0x39e12f1e	0.0004295045
91	0xbc14f3b5	-0.009091307
92	0xbc781c55	-0.015143474
93	0xbc768a6c	-0.015047651
94	0xbc329dd3	-0.010901886
95	0x38c64645	9.4544645e-05
96	0xbb401554	-0.0029309588
97	0xb7ff83a0	-3.0459662e-05
98	0xbba36f7d	-0.0049876557
99	0x38d32b6f	0.00010069354
100	0x39853133	0.00025404393
101	0xbc477e5e	-0.012176124
102	0xb7680c0f	-1.3831085e-05
103	0xbc453749	-0.012037107
104	0xbc09ce10	-0.008410946
105	0x39cd9cf9	0.000392176
106	0x3884f0d2	6.339107e-05
107	0x3a428433	0.0007420212
108	0xbbec5613	-0.0072124093
109	0xbc056e82	-0.008144023
110	0xbc66cfe8	-0.014087655
111	0xba61ce67	-0.0008613825
112	0xbb83a8ca	-0.004017924
113	0xbabc3a1a	-0.0014360577
114	0xbbe0e756	-0.006863515
115	0xbba8cab2	-0.0051511163
116	0x389a6fe6	7.364135e-05
117	0x3a98a98e	0.0011647211
118	0xbb94092b	-0.0045176945
119	0xbc2456b8	-0.010030441
120	0xbc52d150	-0.012867287
121	0xbbd96cf9	-0.006635305
122	0x390a2a26	0.00013176407
123	0xb7bb4dc6	-2.2328353e-05
124	0xbbb4260f	-0.005497701
125	0xba96d163	-0.0011506494
126	0xbc7818c1	-0.015142621
127	0x38be49d5	9.073658e-05

conv_layers.0.params.2 f4 [128]
0	0xbbc96111	-0.0061456044
1	0x39ac9fb2	0.0003292538
2	0x3a9ffe3e	0.0012206507
3	0xb78bce07	-1.666603e-05
4	0xbb25e95e	-0.00253161
5	0xbc03f771	-0.0080546
6	0xbbe4c5ea	-0.006981601
7	0xbc2a7d88	-0.010405906
8	0xbcb49a29	-0.022046166
9	0xb6b3fdb9	-5.364153e-06
10	0xb914d4af	-0.0001419361
11	0x39ace0aa	0.00032973784
12	0xbc9e21b1	-0.019303175
13	0x39a4da4b	0.00031443159
14	0x3aa7fd9d	0.0012816672
15	0x3a8cd747	0.001074531
16	0x39d6c61e	0.0004096487
17	0xbc60b9a2	-0.013716133
18	0x3a8a51d6	0.0010552953
19	0xbb5dba56	-0.0033832989
20	0xb7d4df81	-2.5376447e-05
21	0x3956ff49	0.00020503732
22	0xbc0b9b91	-0.008520977
23	0x3974a06d	0.00023329417
24	0xbacca36f	-0.0015612672
25	0x3a984e44	0.0011620005
26	0xb6fd8c3f	-7.5563144e-06
27	0xbc3bf815	-0.011472722
28	0xb80bd16e	-3.333523e-05
29	0xbc99e6c4	-0.018786795
30	0xb6078135	-2.0191776e-06
31	0xbc2e3190	-0.010631934
32	0xbca3ec36	-0.020010095
33	0x3ababba9	0.0014246601
34	0xbbed11c9	-0.007234786
35	0xbac5a2c4	-0.0015078415
36	0x3a4c973b	0.00078045175
37	0xbc27161e	-0.010198144
38	0xba4aea93	-0.0007740643
39	0x3a4b0abd	0.00077454356
40	0xbb81651d	-0.003948821
41	0xbc88a35b	-0.016679456
42	0xbc916be9	-0.01775165
43	0x3a097220	0.0005243141
44	0xbbf9ce18	-0.0076234452
45	0xbb77fc53	-0.0037839606
46	0xb90b4094	-0.0001328013
47	0xbc3bd03c	-0.011463221
48	0xbc47ceea	-0.012195328
49	0xbc1ea3c1	-0.009682597
50	0x3a5f576e	0.0008519803
51	0xbc951017	-0.018196149
52	0x3a088ff4	0.0005209439
53	0xbc0ef141	-0.008724512
54	0xbb8a5190	-0.004221149
55	0xbc34af8f	-0.011028185
56	0x3a7ed89e	0.00097216095
57	0xbca01080	-0.019539118
58	0xbc65bbd0	-0.014021829
59	0xb79ae069	-1.846273e-05
60	0x3a0a17ee	0.0005267848
61	0xbc1edaf3	-0.009695756
62	0xb9495d71	-0.00019203663
63	0xbc8b12f5	-0.016976813
64	0x3a13de4b	0.0005640729
65	0xbc75987d	-0.014989969
66	0x3ab2be86	0.0013637103
67	0xbc4ee112	-0.012626903
68	0xbba57850	-0.0050497428
69	0xb72e1fd4	-1.0378619e-05
70	0xbc1afe03	-0.009459975
71	0xbb37105f	-0.0027933342
72	0x3a9da0c3	0.001202606
73	0xbc0f3e81	-0.008742929
74	0xbc8b2296	-0.016984265
75	0xbc9d16b2	-0.019175861
76	0xbb87ba15	-0.0041420558
77	0xbc18ad5c	-0.009318676
78	0xbc4e0095	-0.012573381
79	0xbc3f6367	-0.011681414
80	0x393686af	0.00017407046
81	0xb7a2fe4c	-1.9430321e-05
82	0xbc2a3a8b	-0.010389934
83	0x38bd4329	9.024732e-05
84	0xbc3c26de	-0.011483876
85	0xb8f16b73	-0.000115117895
86	0xbc549002	-0.012973787
87	0xbc46e8af	-0.012140437
88	0x3a52e4cd	0.0008044958
89	0xbb87567e	-0.0041301837
90	0xbc0c1fd1	-0.0085525075
91	0xb60a16d5	-2.0576892e-06
92	0xbc3429c1	-0.010996283
93	0x3a81470e	0.0009863095
94	0xb73a8b29	-1.1118865e-05
95	0xb91179c7	-0.00013873643
96	0xbca888b4	-0.020572998
97	0x3a3dee47	0.0007245284
98	0x3a719b7a	0.0009216588
99	0x3a59a2df	0.0008302163
100	0xb6b1dd4e	-5.3007743e-06
101	0x3a91964f	0.0011107418
102	0xbbcfa731	-0.0063370694
103	0x392024dc	0.0001527252
104	0x3a990ea7	0.001167734
105	0x3996003b	0.000286104
106	0xba9c801b	-0.0011940034
107	0xbc43f5e6	-0.011960482
108	0xbabc964f	-0.0014388057
109	0xba4267b5	-0.0007415966
110	0xbbc6e8dd	-0.00607024
111	0xbc36c04d	-0.0111542465
112	0xbaf2a08b	-0.001851098
113	0xbc127d60	-0.008941025
114	0x3a3c5e38	0.00071856705
115	0xbc0e5cc2	-0.008689107
116	0x38a2ea5d	7.7684155e-05
117	0xb71a1f36	-9.186382e-06
118	0xbcbc7444	-0.023004659
119	0x39b9eb55	0.00035461286
120	0xb7a6d668	-1.9888583e-05
121	0xbb95bb39	-0.004569438
122	0x3a2493d9	0.00062781345
123	0xbc40df02	-0.011771919
124	0xbb1b64fa	-0.002371131
125	0xbbe25110	-0.006906636
126	0xbaa0bf4c	-0.0012264042
127	0xbc2e1215	-0.010624428

conv_layers.0.params.3 f4 [128]
0	0xbbcd0dd5	-0.0062577524
1	0x3c64a20b	0.01395465
2	0x3c3ebadd	0.011641231
3	0x3c6adb58	0.014334522
4	0xbc4aa99e	-0.012369541
5	0x3c7b45b6	0.015336445
6	0xbc586978	-0.013208739
7	0x3ad1776b	0.0015981024
8	0x3c8ba2c9	0.017045395
9	0x3c83b60c	0.016078018
10	0xbbec8b14	-0.007218728
11	0xbc743ff8	-0.014907829
12	0x3c512475	0.01276504
13	0x3986c9a0	0.00025708694
14	0xbc0e1bc7	-0.008673615
15	0xbb806258	-0.0039179735
16	0x3c8752ab	0.016518911
17	0xbc01d4b2	-0.007924246
18	0x3c77f815	0.015134831
19	0xb98db9c8	-0.00027032034
20	0xbb117f9a	-0.00222013
21	0xbb7d19d6	-0.0038620136
22	0x3c95c2ee	0.018281426
23	0x3c6bd8b5	0.014394929
24	0xbc20178f	-0.009771242
25	0xbc98d89a	-0.018657971
26	0xbc719249	-0.01474435
27	0xbc82e2bc	-0.015977256
28	0x3c87d6a6	0.016581845
29	0xbc1e0180	-0.009643912
30	0x3bfa617d	0.007641016
31	0xbc8d9a7b	-0.017285576
32	0x3c185a9e	0.009298949
33	0xbc03bd46	-0.008040732
34	0x3b9061ad	0.004406175
35	0x3b9ea6bb	0.004841653
36	0xbc4f2400	-0.01264286
37	0x3c6ded42	0.014521899
38	0x3c12c608	0.008958347
39	0x3c143192	0.009045022
40	0x3c77cec8	0.015124984
41	0xbc27098c	-0.010195147
42	0xbc699f6b	-0.0142592
43	0xbbd3873e	-0.006455331
44	0xbc6cb8a7	-0.014448321
45	0xbc6687c3	-0.014070454
46	0x3b82c736	0.003991033
47	0xbc4317c1	-0.011907519
48	0xbc5f61ab	-0.013634126
49	0xbbc688e0	-0.0060587972
50	0xbc1cd8b2	-0.009573149
51	0x3c7880a2	0.015167387
52	0xbc7f7cc8	-0.015593715
53	0xbc0f8968	-0.008760788
54	0x3c821aee	0.015881982
55	0x3c313230	0.010815188
56	0xbc7afabd	-0.01531857
57	0xbb8b8d12	-0.0042587603
58	0xbc6dc407	-0.014512069
59	0xbb22d880	-0.0024848282
60	0xbbca32ef	-0.0061706225
61	0x3c94644b	0.01811423
62	0x3ae8eba4	0.0017770422
63	0x3a7e4c12	0.00097006664
64	0x3c739323	0.014866623
65	0x3c6fac00	0.01462841
66	0x3c461133	0.012089062
67	0x3c7abc02	0.015303614
68	0xbbe61475	-0.0070214816
69	0xbc79c319	-0.015244269
70	0x3c94d00e	0.018165614
71	0xbc8680d4	-0.016418852
72	0xbc6395e8	-0.013890721
73	0xbc5200f7	-0.012817613
74	0x3c6f8300	0.014618635
75	0xbc98468a	-0.018588323
76	0x3c2ccd9b	0.010547067
77	0xbc72f11d	-0.014827994
78	0xbc935346	-0.017984044
79	0x3c7862bc	0.015160259
80	0x3c8b297b	0.016987553
81	0x3c6cb54b	0.0144475205
82	0x3c6d47e1	0.014482469
83	0xbbde8ab2	-0.006791436
84	0xbc445731	-0.011983679
85	0xba7eb381	-0.0009716079
86	0x3c06991a	0.008215213
87	0xbc6685fa	-0.014070028
88	0x3b82b922	0.0039893547
89	0xbbded826	-0.0068006692
90	0x3b4d7df6	0.0031355596
91	0xbc81b5d9	-0.015833782
92	0xbc272827	-0.010202444
93	0x3c5d7e1e	0.013518838
94	0xbc591667	-0.01324997
95	0x3c843d79	0.016142594
96	0xbc732853	-0.014841157
97	0xbbc59d69	-0.0060307276
98	0xbc616cb2	-0.013758825
99	0xbc04924b	-0.00809152
100	0xbc2fe761	-0.010736317
101	0x3c0ff60d	0.00878669
102	0x3c3e8616	0.011628648
103	0x3c8762d1	0.016526612
104	0x3c7f9428	0.015599288
105	0x3c40c62a	0.011765996
106	0x3b8d2340	0.0043071806
107	0x3c583cca	0.013198087
108	0x3c90e588	0.017687574
109	0x3c53dd7e	0.012931226
110	0xbc85f1b3	-0.016350603
111	0xbc63609a	-0.013878012
112	0x3c727961	0.014799447
113	0x3c581b84	0.013190154
114	0x3c98f296	0.018670361
115	0xbc2e7d04	-0.010649923
116	0xbc07dea4	-0.008292828
117	0xbc800ad4	-0.015630163
118	0xbc5a128d	-0.013310087
119	0xbb0e41c7	-0.0021706687
120	0x3b86bb46	0.00411168
121	0xbbedf0c3	-0.007261367
122	0xbc6b5d6c	-0.014365535
123	0x3c7c8fe0	0.015415162
124	0x3c80e67b	0.015734902
125	0xbb6b14c1	-0.0035870525
126	0xbc19c4d3	-0.009385305
127	0x3c5724cb	0.013131331

conv_layers.0.params.4 f4 [128]
0	0xbc8dba26	-0.017300677
1	0x3b55ba44	0.0032612244
2	0xbb885c4b	-0.004161393
3	0xbc85feff	-0.016356943
4	0x3c4a40e1	0.01234457
5	0xbc6658ad	-0.014059228
6	0x3c7f4e61	0.015582652
7	0xbc5b1a01	-0.013372899
8	0xbc65032b	-0.013977806
9	0x3c1b9fb5	0.009498526
10	0x3b9633cf	0.004583813
11	0xbc5e663d	-0.01357418
12	0xbc61c8c8	-0.01378078
13	0x3b9a4be0	0.004708752
14	0xbc5db7ae	-0.013532562
15	0xbc769e4c	-0.015052389
16	0xbc80b04c	-0.015709065
17	0x3c5b878c	0.013399016
18	0xbc6d6b1e	-0.014490871
19	0x3c5f8a64	0.013643835
20	0xbc44ff5f	-0.012023776
21	0xbc5313f7	-0.012883178
22	0x3c82f7e1	0.015987338
23	0xbc66e0dd	-0.0140916975
24	0x3c51dc0f	0.012808814
25	0x3c2ec548	0.010667153
26	0x3c44f4ae	0.012021227
27	0x3c828b79	0.015935646
28	0x3c62517f	0.0138133755
29	0xbc50bd6c	-0.012740474
30	0xbc765ada	-0.015036309
31	0xbc82b007	-0.015953077
32	0xbb9b922e	-0.0047476506
33	0xbc37aaaa	-0.011210123
34	0xbc63ffee	-0.013915999
35	0xbc9181a8	-0.01776202
36	0xbc72a4b2	-0.014809774
37	0xbc30c64d	-0.010789466
38	0xbbd6ef3b	-0.00655928
39	0xbc87a40c	-0.016557716
40	0x3c63ffa2	0.013915928
41	0xbc1d241a	-0.009591127
42	0x3c8f633b	0.017503371
43	0xbc834211	-0.016022714
44	0xbc6adc63	-0.014334771
45	0xba96bc4d	-0.001150021
46	0xba75f452	-0.0009382415
47	0xbc83299a	-0.016011048
48	0x3be04fd9	0.006845456
49	0x3b90587f	0.004405081
50	0xbc7a9812	-0.015295045
51	0x3c37dd14	0.011222143
52	0x3c73afd3	0.014873463
53	0x3c797679	0.015226
54	0xbc5517da	-0.013006175
55	0x3c3c106e	0.0114785265
56	0xbb53c317	-0.0032312328
57	0x3bfb99ab	0.0076782308
58	0xbc8f3227	-0.01747997
59	0x3c9193cf	0.017770676
60	0x3c84272a	0.016131956
61	0xbc79fb57	-0.015257678
62	0x3c852682	0.016253714
63	0xbc4a91d6	-0.012363872
64	0xbc5786e3	-0.013154718
65	0xbc6546ae	-0.013993902
66	0xbbb1dc70	-0.0054278895
67	0xbc553dc0	-0.013015211
68	0x3c15e4cc	0.009148788
69	0xbbe0a2c6	-0.0068553416
70	0x3c7f5f51	0.01558669
71	0x3c1116d2	0.008855538
72	0x3c20dfe1	0.009819002
73	0xbc64842d	-0.013947529
74	0xbc7e5412	-0.015522974
75	0x3c629d09	0.013831385
76	0x3c7785a6	0.015107548
77	0x3b91a3f8	0.0044445954
78	0xbc7bf0cb	-0.015377234
79	0x3bd9c350	0.0066455975
80	0xbc6655dd	-0.014058557
81	0xbc4b8994	-0.012422938
82	0x3ba53d31	0.005042695
83	0xbbc01aef	-0.0058625857
84	0x3c747c28	0.014922179
85	0x3c9aefbc	0.018913142
86	0x3c6a55a9	0.01430265
87	0xbc808dc5	-0.015692601
88	0x3c3daa04	0.011576179
89	0x3c5dbe00	0.013534069
90	0xbbc0bc97	-0.0058818567
91	0xbbc787c9	-0.006089185
92	0xbb3a9365	-0.0028469202
93	0xbc8cee75	-0.017203549
94	0xbc1a0ef7	-0.009402982
95	0xbc5af96c	-0.013365131
96	0x3c356a65	0.01107273
97	0xbc066a8d	-0.008204115
98	0xbc7956fc	-0.015218493
99	0xbc5fbb6b	-0.013655524
100	0x3bc25f57	0.0059317756
101	0xbc76f883	-0.015073898
102	0x3c4687d4	0.012117345
103	0xbc94c89c	-0.018162064
104	0xbb7aa41a	-0.0038244785
105	0xbc7e4bd7	-0.015521011
106	0x3c44eef6	0.012019863
107	0xbb6a1c30	-0.0035722367
108	0xbbb0c0b8	-0.0053940676
109	0x3c712ba5	0.014719878
110	0xbb6c080a	-0.0036015534
111	0xbc82c67e	-0.01596379
112	0xbc6c5cb3	-0.014426398
113	0x3b624eac	0.0034531755
114	0xbc49d356	-0.012318453
115	0xbc03b268	-0.008038141
116	0x3c53c867	0.012926198
117	0x3c3e05a0	0.011598021
118	0xbc622cfb	-0.0138046695
119	0xbc5edfe8	-0.013603188
120	0xbc30c08b	-0.010788093
121	0xbc7bd9fa	-0.015371794
122	0x3c80cd5f	0.015722929
123	0xbc4ffc16	-0.012694379
124	0x3c6fd7d2	0.014638858
125	0x3c5da0ce	0.013527108
126	0xbc7c2e1c	-0.015391853
127	0xbc688e96	-0.014194151

conv_layers.0.params.5 f4 [128]
0	0xbc7a4b7a	-0.015276784
1	0xbc10fa47	-0.008848733
2	0x3c42e1d6	0.011894664
3	0xbc45ca1b	-0.0120721115
4	0x3c7f29cf	0.015573933
5	0xbc6d276a	-0.014474729
6	0xbc8218b1	-0.015880914
7	0xbc44ab4c	-0.012003731
8	0xbc821611	-0.015879663
9	0xbc8ec44a	-0.017427582
10	0x3c60b06f	0.01371394
11	0x3c4c3619	0.01246407
12	0xbc7f834a	-0.015595267
13	0xbbbe1d47	-0.00580183
14	0x3c69dc49	0.0142737115
15	0x3c25a4ca	0.01011009
16	0x3c57341c	0.013134982
17	0xbc4b791b	-0.0124190105
18	0xbb6d2bb5	-0.0036189381
19	0xbc4498bd	-0.011999306
20	0xbbc73eb0	-0.006080471
21	0x3c841ed7	0.016127987
22	0xbc78f44c	-0.015194964
23	0x3c5fdc4f	0.0136633655
24	0xba9675f6	-0.0011479247
25	0x3c2365ac	0.009972971
26	0x3c6f5092	0.014606612
27	0x3c7f0402	0.01556492
28	0xbb964238	-0.0045855306
29	0xbc5ed095	-0.0135995345
30	0x3c699c47	0.014258451
31	0xbc7a30e7	-0.015270448
32	0xbc771b23	-0.0150821535
33	0x3b81abe0	0.0039572567
34	0xbc3e9377	-0.011631838
35	0xbc13a904	-0.009012464
36	0x3c1cd943	0.009573284
37	0xbc41cdf9	-0.011828893
38	0xbc3ab88d	-0.011396539
39	0xb90dc020	-0.0001351838
40	0x3a6b791d	0.0008982586
41	0xbc0fccc1	-0.0087768445
42	0xbc63c37c	-0.013901588
43	0x3c6c9b23	0.014441284
44	0xbc6c9832	-0.014440583
45	0xbbb266c3	-0.005444379
46	0x3c6583ba	0.014008457
47	0xbc7446b6	-0.014909437
48	0xbc82cb99	-0.015966224
49	0xbc86fc62	-0.016477767
50	0x3c0942b6	0.0083777215
51	0xbc70ba9d	-0.01469293
52	0x3c6d182e	0.014471097
53	0xbc47870c	-0.012178194
54	0xbc64f337	-0.013974003
55	0xbc73aadc	-0.014872279
56	0x3c4580f2	0.012054669
57	0xbc80c686	-0.015719663
58	0xbc896354	-0.016770996
59	0x3c4d90e8	0.012546755
60	0x3c40b65e	0.01176223
61	0xbc922cbb	-0.017843595
62	0xbc1b6fbf	-0.009487092
63	0xbc6a30a4	-0.014293823
64	0x3c6049ec	0.013689499
65	0xbc65ce85	-0.014026289
66	0xbae184fd	-0.0017205771
67	0xbc2ff5c0	-0.010739744
68	0xbc67efef	-0.014156326
69	0x3c5ec5d4	0.013596971
70	0xbc5dec32	-0.013545083
71	0xbc873bba	-0.016507972
72	0x3abd167c	0.0014426257
73	0xbc84c2d9	-0.016206192
74	0xbc62c8dc	-0.013841834
75	0xbc765cea	-0.015036801
76	0x3c70311f	0.014660149
77	0xbc33008e	-0.010925425
78	0xbc2fb087	-0.01072324
79	0xbc5f8479	-0.013642424
80	0x3bb5eae2	0.005551682
81	0x3bc49d0d	0.006000167
82	0xbc6e1e7c	-0.014533635
83	0x3c678de9	0.014132955
84	0xbc821848	-0.015880719
85	0x3c8c450e	0.017122772
86	0xbc036406	-0.008019453
87	0xbc72c0b3	-0.014816451
88	0x3c48e499	0.012261533
89	0xbc6af24e	-0.0143399965
90	0x3ba86ca6	0.005139905
91	0x3c287c64	0.010283563
92	0xbb9593f9	-0.004564759
93	0x3c3b77ca	0.011442134
94	0x3c6cf40e	0.014462484
95	0xbc20606a	-0.009788612
96	0xbc3b50dc	-0.011432853
97	0x3c588ab8	0.013216667
98	0x3c4b7146	0.012417143
99	0x3c67a126	0.014137542
100	0x3c5fbc50	0.013655737
101	0x3c2989dd	0.010347811
102	0xbc2b07ec	-0.0104389
103	0xbbf1f765	-0.007384228
104	0x3b91dc82	0.0044513354
105	0x3b033b50	0.0020024367
106	0x3c53bb7b	0.012923117
107	0xbc8983a0	-0.016786397
108	0xbc8e1c65	-0.017347524
109	0xbc757a5e	-0.014982788
110	0xbc6fb743	-0.014631095
111	0xbc83d025	-0.016090462
112	0x3c70f3c4	0.014706556
113	0xbc5ebd76	-0.013594976
114	0xba88d618	-0.0010439781
115	0xbc17f9d6	-0.009275874
116	0xbba887b7	-0.0051431316
117	0xbc5397b6	-0.012914589
118	0x3a403fc8	0.0007333723
119	0xba8d0d9d	-0.0010761503
120	0xbc245e14	-0.010032196
121	0xbc07e1fa	-0.008293623
122	0x3c7834c3	0.015149298
123	0xbc690cb2	-0.014224218
124	0xbb3d54e3	-0.0028889708
125	0xbc9aef8d	-0.018913055
126	0xbbccaa45	-0.0062458836
127	0xbc2511a5	-0.010075008

conv_layers.0.params.6 f4 [128]
0	0x3f7db8ed	0.991103
1	0x3f814d99	1.0101806
2	0x3f7cda55	0.9877065
3	0x3f8027ae	1.0012109
4	0x3f7efc3d	0.99603635
5	0x3f81441f	1.0098914
6	0x3f7d8cc0	0.9904289
7	0x3f80a7e0	1.0051231
8	0x3f7c7f0e	0.9863137
9	0x3f82042a	1.0157521
10	0x3f810005	1.0078131
11	0x3f81d134	1.0141969
12	0x3f7d7fdf	0.9902324
13	0x3f7f67e4	0.997679
14	0x3f7d2af8	0.9889369
15	0x3f7e8f25	0.9943717
16	0x3f7f19bb	0.99648637
17	0x3f81495e	1.0100515
18	0x3f7fb6fc	0.99888587
19	0x3f7afd00	0.980423
20	0x3f7a4bd2	0.9777194
21	0x3f7d6cb6	0.98994005
22	0x3f7e81e6	0.9941696
23	0x3f7eddf8	0.9955745
24	0x3f7fd869	0.9993959
25	0x3f81eac6	1.0149772
26	0x3f80dcea	1.0067418
27	0x3f822e58	1.0170393
28	0x3f8111ce	1.0083559
29	0x3f80c14b	1.0058988
30	0x3f7debb0	0.99187756
31	0x3f8253f1	1.0181867
32	0x3f81cd61	1.0140802
33	0x3f7f61c0	0.9975853
34	0x3f7fb06a	0.9987856
35	0x3f7d535d	0.9895533
36	0x3f7f0c28	0.99627924
37	0x3f8122c3	1.0088733
38	0x3f7f017e	0.9961165
39	0x3f7bedae	0.98409545
40	0x3f7f4a10	0.99722385
41	0x3f80718a	1.0034649
42	0x3f820d31	1.0160276
43	0x3f7e8768	0.99425364
44	0x3f818182	1.0117648
45	0x3f7d4950	0.9893999
46	0x3f7af8e6	0.9803604
47	0x3f7f1720	0.9964466
48	0x3f829d19	1.0204192
49	0x3f7d80f1	0.99024874
50	0x3f7efc37	0.996036
51	0x3f7be1d5	0.9839147
52	0x3f804870	1.0022106
53	0x3f8035b5	1.001639
54	0x3f802255	1.0010477
55	0x3f7d97a9	0.9905954
56	0x3f81c1c5	1.0137259
57	0x3f81390a	1.0095532
58	0x3f7a8fc6	0.9787563
59	0x3f7da7a5	0.9908393
60	0x3f7e5cd0	0.9936037
61	0x3f7f5da0	0.99752235
62	0x3f818e6d	1.012159
63	0x3f7cd581	0.9876328
64	0x3f7d043c	0.98834586
65	0x3f7e00d1	0.99219996
66	0x3f7b411e	0.98146236
67	0x3f7f3cd5	0.997022
68	0x3f7e17e1	0.99255186
69	0x3f83004d	1.0234467
70	0x3f7faa77	0.99869484
71	0x3f7e6e62	0.9938718
72	0x3f81de7d	1.0146023
73	0x3f7cc201	0.98733526
74	0x3f7ab903	0.97938555
75	0x3f827b56	1.0193889
76	0x3f7d612a	0.98976386
77	0x3f81de12	1.0145895
78	0x3f7d7f60	0.99022484
79	0x3f7f61c4	0.99758554
80	0x3f825a72	1.0183852
81	0x3f7dd11f	0.9914722
82	0x3f802246	1.001046
83	0x3f802a61	1.0012933
84	0x3f7e7d39	0.99409825
85	0x3f7a86cc	0.97861934
86	0x3f7e2b53	0.9928486
87	0x3f8320e4	1.0244412
88	0x3f7b8c57	0.98261017
89	0x3f7e35e6	0.9930099
90	0x3f80a3c8	1.0049982
91	0x3f7eefaa	0.9958445
92	0x3f80a1df	1.0049399
93	0x3f7e2f73	0.9929115
94	0x3f818f1f	1.0121802
95	0x3f800e5e	1.0004385
96	0x3f7d859f	0.99032015
97	0x3f80eaaf	1.007162
98	0x3f8213f7	1.0162343
99	0x3f7d2194	0.9887936
100	0x3f7c8ab6	0.98649156
101	0x3f819aa5	1.0125319
102	0x3f7dba71	0.9911261
103	0x3f821def	1.0165385
104	0x3f8057c2	1.0026782
105	0x3f81d2d6	1.0142467
106	0x3f7b4ed9	0.98167187
107	0x3f809338	1.0044928
108	0x3f810340	1.0079117
109	0x3f7f9468	0.99835825
110	0x3f81253e	1.008949
111	0x3f8103c2	1.0079272
112	0x3f7e465f	0.9932613
113	0x3f7d7493	0.99006003
114	0x3f829f30	1.020483
115	0x3f7ca0f9	0.98683125
116	0x3f816a89	1.0110637
117	0x3f81f981	1.0154268
118	0x3f7e4e07	0.9933781
119	0x3f7bdb38	0.98381376
120	0x3f7b1912	0.9808513
121	0x3f7e6a25	0.99380714
122	0x3f81a0c2	1.0127184
123	0x3f7cc591	0.9873896
124	0x3f7b3d90	0.9814081
125	0x3f7ccff8	0.98754835
126	0x3f80135d	1.0005909
127	0x3f7f2e09	0.9967962

conv_layers.0.params.7 f4 [128]
0	0x3f811840	1.0085526
1	0x3f7d5185	0.98952514
2	0x3f8160a9	1.0107623
3	0x3f80c9b6	1.0061557
4	0x3f7e4c19	0.99334866
5	0x3f7d97fa	0.9906002
6	0x3f80cbbf	1.0062178
7	0x3f7e4fc2	0.9934045
8	0x3f7e6f88	0.99388933
9	0x3f7de01e	0.991701
10	0x3f7c99e1	0.986723
11	0x3f81787a	1.0114892
12	0x3f7ce359	0.98784405
13	0x3f7b51be	0.98171604
14	0x3f8111db	1.0083574
15	0x3f829b47	1.0203637
16	0x3f826ac5	1.0188833
17	0x3f7ef50d	0.9959267
18	0x3f8038a0	1.001728
19	0x3f7ebcaa	0.9950663
20	0x3f809fdd	1.0048786
21	0x3f7d5bb1	0.98968035
22	0x3f816e0d	1.011171
23	0x3f7db2e4	0.9910109
24	0x3f800e6f	1.0004405
25	0x3f8026cd	1.0011841
26	0x3f7fbb3e	0.99895084
27	0x3f801880	1.0007477
28	0x3f7dd092	0.9914638
29	0x3f80d090	1.0063648
30	0x3f81ba04	1.0134892
31	0x3f81b54b	1.0133451
32	0x3f8020d0	1.0010014
33	0x3f7ec6bd	0.99522
34	0x3f81d83e	1.0144117
35	0x3f823ed7	1.0175427
36	0x3f80d95d	1.0066334
37	0x3f7a0de1	0.9767743
38	0x3f7c3633	0.985202
39	0x3f814e44	1.010201
40	0x3f7ecbe5	0.9952987
41	0x3f80e8a2	1.0070994
42	0x3f7feeb2	0.99973595
43	0x3f7cea4e	0.9879502
44	0x3f7fcc2f	0.99920934
45	0x3f7d9552	0.9905597
46	0x3f7ca587	0.98690075
47	0x3f81ee2a	1.0150807
48	0x3f7bbe25	0.9833701
49	0x3f803266	1.001538
50	0x3f80de0b	1.0067762
51	0x3f7f0eee	0.99632156
52	0x3f800484	1.0001378
53	0x3f811c16	1.0086696
54	0x3f814c56	1.0101421
55	0x3f7e729a	0.9939362
56	0x3f7d5553	0.9895832
57	0x3f7c0879	0.9845043
58	0x3f7f92bf	0.9983329
59	0x3f81de3e	1.0145948
60	0x3f7f8b01	0.9982148
61	0x3f804f6e	1.002424
62	0x3f7d2960	0.9889126
63	0x3f7fda1e	0.99942195
64	0x3f82be86	1.0214393
65	0x3f8115bf	1.0084761
66	0x3f8008c2	1.0002673
67	0x3f7d0b6b	0.9884555
68	0x3f7ca695	0.98691684
69	0x3f7e5ba2	0.9935857
70	0x3f7bf471	0.98419863
71	0x3f7c044f	0.98444074
72	0x3f7e0d4b	0.99239033
73	0x3f7dabbe	0.9909018
74	0x3f7ff55c	0.99983764
75	0x3f7d1408	0.9885869
76	0x3f7d24a7	0.9888405
77	0x3f7b8111	0.98243815
78	0x3f81338c	1.0093856
79	0x3f7db1a1	0.99099165
80	0x3f80e6c6	1.0070426
81	0x3f802e0d	1.0014054
82	0x3f7ef323	0.9958975
83	0x3f8174e0	1.0113792
84	0x3f805a05	1.0027472
85	0x3f802ce3	1.0013698
86	0x3f7e4a45	0.99332076
87	0x3f808540	1.0040665
88	0x3f7c670b	0.9859473
89	0x3f8169f9	1.0110465
90	0x3f7d1d72	0.98873055
91	0x3f7c78f1	0.9862204
92	0x3f7e8c6f	0.99433035
93	0x3f803e76	1.0019062
94	0x3f7cc0f9	0.9873195
95	0x3f817664	1.0114255
96	0x3f7aa073	0.97901076
97	0x3f80c292	1.0059378
98	0x3f814afe	1.0101011
99	0x3f7f4936	0.99721086
100	0x3f81453c	1.0099254
101	0x3f7f61c9	0.99758583
102	0x3f7db7e0	0.99108696
103	0x3f8150fa	1.0102837
104	0x3f7dff35	0.9921754
105	0x3f81aea9	1.0131427
106	0x3f7b10ed	0.980727
107	0x3f7c9b9a	0.9867493
108	0x3f7d2dad	0.9889782
109	0x3f7de2ea	0.9917437
110	0x3f7ce8aa	0.9879252
111	0x3f81c117	1.0137051
112	0x3f819195	1.0122553
113	0x3f80c765	1.006085
114	0x3f7fbdde	0.9989909
115	0x3f7d69e1	0.98989683
116	0x3f7c7cd2	0.9862796
117	0x3f7a286a	0.97717917
118	0x3f81ab90	1.0130482
119	0x3f81723a	1.0112984
120	0x3f7f4538	0.99714994
121	0x3f80550c	1.0025954
122	0x3f7b992a	0.98280585
123	0x3f80f322	1.0074198
124	0x3f7e07cd	0.99230653
125	0x3f8157e5	1.0104948
126	0x3f80c9b1	1.0061551
127	0x3f801b6c	1.0008368
