trained_model/2025-06-18_15-32-16/saved_model_2025-06-18_15-32-16.pkl (torch, 820950 bytes, 54 tensors)

conv_layers.0.f_lin.0.weight f4 [128, 5]
00000000: 8249 303e 5fb4 4abe 93b6 253e 110f 583e
00000010: 6dc6 2d3e bc1b 163e ccd7 0d3c 1b10 e93b
00000020: e679 ba3c cbdf 373c 1bc9 c8bb 38a3 3d3e
00000030: e40b 0abe 4a05 b1bd aabe 4cbe 2b3a 53bd
00000040: 0d6e 86bd d337 603d 03c2 f3bd 18c6 f63d
00000050: f827 a93c a69e 1fbe 0089 03be 4adc 0ebe
00000060: 3b2a 3fbe 7b48 9ebd cad7 84bd 46d1 3fbd
00000070: 69e3 183e d4cd c2bb b6de 94bd 91f3 1b3e
00000080: e5fc 173e 308a 2abd 9efb 85bd ed5a e63c
00000090: 4444 2fbe a5fb 53be 17f2 413e 7ea8 843d
000000a0: 67a1 d73d 1258 553d 0a9d 553d 0413 00be
000000b0: 41cd f4bd 39f1 f63d f07a ec3d 1c13 12bb
000000c0: 7a1f 45be 53d2 63be 2d83 ee3c 4868 1f3e
000000d0: 7b51 163d 74b3 b63d 20f3 ce3c 8e8d 3c3e
000000e0: f1d2 c43c 4dcb c73d 99dd e03c 1189 6ebc
000000f0: c04b 143e 92de 1d3e 7fde 92bd 2e6e 53be
00000100: 8d43 4cbe b6a5 c4bc d687 f5bd 1306 c1bd
00000110: 016c 81bd 2069 c3bd 9515 3d3e b03f 3cbd
00000120: 00f9 153e 63fa 0ebe 3021 023c 382f 3b3e
00000130: 484e ce3d 0135 b5bd 1b71 11be b5a2 24bc
00000140: ef17 4f3c 9c6b 3d3e cd9e babd 6db0 2b3e
00000150: 8eb3 58bd 0362 febd 73e1 1fbe 7a67 113e
00000160: c2e6 00be a9b8 433e 913d dd3d 9523 36be
00000170: 940e 1b3d abf6 44bd 0aa3 5dbe 85d2 84bd
00000180: b23a 933d b98f ecbd a77e 21be 081c 39be
00000190: 0c9e 1fbe 3d74 463e 0b8b 33be b34a bbbd
000001a0: 6df7 66be 06d0 353e 8b71 b1bd f69f 3e3e
000001b0: 1784 07be 096c 86bd f3a9 57be bc0c 81bd
000001c0: fb3b c9bc 90f9 bcbc 83d5 51be 0e94 c63d
000001d0: f4a4 503d 188b 043d 213d 803d e44c 0bbe
000001e0: 7c37 c9bd ad14 393d 1aa0 8c3d a61d 853c
000001f0: 5ab7 ecbd 59d7 70bc 3bda 843d 2c43 883d
00000200: 30df 1b3d 7d82 e93d e3c5 1ebe 84fc 02bd
00000210: 8764 afbd 5fb2 20be 9ded 03be 3e49 3a3d
00000220: 1b46 e4bd 4efd 4abd d5fe 07be 0408 94bd
00000230: 6118 743d a953 68be 862c 49bd e206 5f3e
00000240: a566 d33d fb78 c9bc 1681 ceba e1e2 8f3d
00000250: 3cd9 ed3d 33ce eb3d 645b 29be c983 2f3e
00000260: f26d 34be fcea e73d d16b 293e 5dad 623d
00000270: 9165 aabd 0454 99bc eba1 d0bc a4cc 3e3e
00000280: 2f09 e4bd 49a8 d93c 3989 3a3e b7e5 303d
00000290: b0d8 353e ed1d 1cbe 5d6e 5e3e 5a7a 16be
000002a0: 32e5 553e 1937 d6bd 6270 49be 36c7 25bd
000002b0: d76e 863d 6e11 87bd 4792 debd 1178 a73d
000002c0: 5664 543e 3309 f8bd 1b52 743d 2012 a83d
000002d0: 98ac 48be 4d9c 303c f152 ed3d d832 06bd
000002e0: df5b 083e 1bab 8fbd a214 d43d cafb 003d
000002f0: 8eb9 3b3e efe8 1d3e ee0d 3d3e 592b e1bd
00000300: 73c8 38be 96ca b3bd e7ef de3d a3d0 ce3c
00000310: 8043 66be 832b d7bc 4a28 203e e7e7 a93c
00000320: aeab 423e f20b 8b3d c5e8 5bbe 99f3 113e
00000330: 8f14 90bd 5cf5 4cbd 6de1 cfbd 99a8 3ebe
00000340: 7891 7dbd dc99 1f3e b300 18bb 3f32 333e
00000350: 057b 3bbe a42a 02be 21a5 81bd 04b3 a63d
00000360: 9581 b43d ec53 18bd e898 f33d 2af9 163e
00000370: 175b 223d a7b9 49be b6e2 24be b162 19be
00000380: c503 f3bd 49ba 19be 6ca4 5cbe 4334 183d
00000390: 7dc5 603e b509 96bc 697f 08be 8518 ac3d
000003a0: 9432 60bd c0a9 2c3c c840 79bd b46d f93d
000003b0: 734f 3e3e 580c c63d 6b31 90bd 43b4 513e
000003c0: 1d4f acba 1555 e03c d4e7 d73d 8db6 46bd
000003d0: e6fa 1dbe 3f40 ffbd 0946 90bd 3d64 183c
000003e0: 785f 4e3e 4091 7c3c 6836 3e3d 8d83 0cbc
000003f0: 152e 0fbd 38d9 bfbd 36d2 b0bd 577a ff3d
0.17215541 -0.19795369 0.16182928 0.21099497 0.16970225 0.14659017 0.008657407 0.0071125156
0.022763204 0.01122279 -0.0061274893 0.18519294 -0.13481098 -0.08643587 -0.19994608 -0.051569145
-0.06563959 0.054740738 -0.11902239 0.12049502 0.020648941 -0.15587863 -0.1284523 -0.13951221
-0.18668453 -0.07728668 -0.06486471 -0.046830438 0.149305 -0.005944947 -0.07269041 0.15229632
0.14842565 -0.041635692 -0.06542133 0.028119529 -0.17115885 -0.20701464 0.18940006 0.0647745
0.10528832 0.052085944 0.052151717 -0.12507254 -0.119532116 0.12057728 0.11546886 -0.0022289222
-0.19250289 -0.22248201 0.029115284 0.15567124 0.0366988 0.08920947 0.025262415 0.18413374
0.024026366 0.097555734 0.027449416 -0.014559046 0.14482021 0.15416935 -0.07171344 -0.20647499
-0.19947644 -0.024004798 -0.11988799 -0.09424987 -0.06319428 -0.095415354 0.18465264 -0.045959175
0.14645767 -0.13962702 0.007942483 0.18279731 0.10073525 -0.08848 -0.14203303 -0.010048558
0.012639984 0.18498081 -0.0911232 0.1676652 -0.05290561 -0.12421038 -0.15613346 0.1419963
-0.12588027 0.19113411 0.108027585 -0.17787011 0.0378557 -0.048086803 -0.21644226 -0.06485466
0.071889296 -0.115508504 -0.1577097 -0.180771 -0.15587634 0.19380279 -0.1753351 -0.09145107
-0.22555323 0.17755136 -0.08664235 0.18615708 -0.13233982 -0.06563575 -0.21060924 -0.06301257
-0.024564734 -0.02306822 -0.20491605 0.09696208 0.05093856 0.032359213 0.062616594 -0.1360355
-0.09825036 0.045185734 0.068664744 0.016249489 -0.11558409 -0.01469978 0.06486937 0.06653437
0.038054645 0.11401842 -0.15505175 -0.0319791 -0.08564096 -0.15693043 -0.12883611 0.045480005
-0.11146184 -0.049557976 -0.13280804 -0.07228091 0.059593562 -0.22688164 -0.049114726 0.2177997
0.10322312 -0.02459382 -0.0015755023 0.070256956 0.116137 0.11513939 -0.16538769 0.17140116
-0.17620066 0.113241166 0.16545035 0.055341113 -0.083201535 -0.01871682 -0.025467834 0.18632752
-0.11134564 0.026569502 0.18216409 0.043187823 0.17758441 -0.15245791 0.21721788 -0.14695111
0.20888212 -0.10459728 -0.19671777 -0.040473185 0.0656411 -0.06595121 -0.10867744 0.08177198
0.207414 -0.121111296 0.059648614 0.08206582 -0.1959709 0.0107794525 0.115880854 -0.032763332
0.13316296 -0.07015058 0.10355498 0.031490125 0.18332502 0.15420888 0.18462345 -0.10994596
-0.18045215 -0.087788746 0.108856015 0.02524597 -0.22486687 -0.026265865 0.15640369 0.020740462
0.19010803 0.06789388 -0.21475513 0.14253081 -0.07035171 -0.05003868 -0.101504184 -0.18619002
-0.061906308 0.15586036 -0.0023193776 0.17499636 -0.18308647 -0.12711579 -0.06330324 0.08139613
0.08813778 -0.03718941 0.11894399 0.14743486 0.03963765 -0.19699727 -0.16102108 -0.14979054
-0.11865953 -0.15012468 -0.21547097 0.037159216 0.21950336 -0.018315176 -0.13329853 0.08403114
-0.054735735 0.010538518 -0.060852796 0.12179127 0.18584995 0.09670323 -0.07040676 0.2047892
-0.0013146136 0.02738432 0.105422646 -0.048513938 -0.15427741 -0.12463426 -0.07044608 0.009301242
0.20153606 0.01541549 0.046438605 -0.008576286 -0.034956057 -0.09367603 -0.086338446 0.12474506

conv_layers.0.f_lin.1.weight f4 [128, 5]
00000000: 1d7b f23d a5aa cc3d 5ba5 e8bd 90fd acbc
00000010: 6b51 18be f9dc 4abe 223b 3d3e b88b df3c
00000020: 6840 3dbe 3b7d d93d 1d47 f23d 72d6 373e
00000030: 03a5 25bd 174d f7bd c030 253e 1d91 0fbe
00000040: 1103 21be bc5f 4f3e f2a3 15be f7f6 16be
00000050: 65f4 99bd 7fab a93d 3a96 593d fdbd 313d
00000060: 860c 46be 2935 093e 9fad c23d e216 d13d
00000070: 2c0d 12be 1c13 103d b917 23be efce e2bc
00000080: 5070 183e 507b 1abe 1ab7 0abd 1f3e 23bd
00000090: 1206 83bd aa39 f53c 2ffe f0bd da4c 4b3d
000000a0: 6fe2 4a3d af44 36bd 364a eb3b 1034 463e
000000b0: d116 c3bd 56ac 483d 7399 473e 4a6e 333e
000000c0: 03c0 1c3e 2ddf 3bbe 186b b93c 7da8 7b3d
000000d0: cf57 213e 8cde 15be 41b5 43be ff17 453d
000000e0: 9e80 943d 29ad 3c3e 4be6 4a3c 53b1 98bd
000000f0: 26e2 2abe 0698 9b3d f91d a53d 85a8 053e
00000100: 63c1 8c3d cef0 19be dbe3 e53c 1672 82bc
00000110: f75b 20be d135 11bd a3c9 f43d 9d78 13be
00000120: 86d5 2ebe 0277 2dbe 0d38 963d 6610 e53d
00000130: 7ce0 56be 7542 21be 6249 d03c 5ff9 733c
00000140: 443f 283e 4c77 7ebd f546 913d bd40 35be
00000150: 7fa1 b23b c3d5 50be 402d eb3c b232 f8bd
00000160: 68b4 0e3e aaf9 4dbd 794c 52be ea08 453e
00000170: f175 8b3d 31cb 383e b8ab bbbd 69b3 c8bd
00000180: 2ce4 173e 6e23 29bd 83b1 3dbe b376 563e
00000190: 5e06 d23d 4795 33be 44a3 64bd efdf 343e
000001a0: 63a8 b83d 968a 56be abcc 5bbe d0e7 b73d
000001b0: 8dae 31bc 1783 1cbd 1402 cfbb 239f 63be
000001c0: e2de a63c 604b 43be 717a 2bbe 5f91 923c
000001d0: 2a8f 393e 8d40 3d3e 45fc 00be 2c6f 2fbd
000001e0: 0996 113e 8c6d b1bd 094a e9bc fa50 013e
000001f0: 6cf5 1dbd 9413 94bd 8287 91bd ccfa 8fbd
00000200: 8294 0d3e ed44 dabc 6a1a cb3d 8f18 183c
00000210: 687d d13d 1f7b c63d 95e5 af3d 50a9 b2bd
00000220: d617 f3bd 09e8 8fbd 4ae7 a13d 74f9 16bc
00000230: da25 4bbe 54b2 37be b101 ea3c 6e17 183c
00000240: a422 a53c b382 c63d 5232 85bd 3370 61bd
00000250: 74dd c43d e06e 04be f7ed 86bc 9bc0 40be
00000260: 2bb4 cc3d 635a c53c 0bcb 3ebe f88b 2a3d
00000270: 1920 4a3e 8224 853d b4f5 23be 133c 383d
00000280: e702 223e 989e 1c3e acc4 2dbe 95ea 993c
00000290: 5b12 5c3c af08 68bd 4417 31bc 4771 423e
000002a0: 41c3 19be cb99 f73c fe0a c23d 583c 09be
000002b0: ea33 383e 0ca3 37be 249a ce3d 2e0e 61be
000002c0: 9e96 2dbe 5293 263e ff5f 07bd 8184 6abe
000002d0: 0a32 55bc 2778 ab3d 73fa 6f3d 2b2a 283d
000002e0: 40c0 e83d ddc0 54be c07c c53d e26e 263c
000002f0: 343a 233e bd6a 153e 693e b63d 4380 31be
00000300: 04cb 853d 8597 5f3d f04f 52be 7bde c63c
00000310: 2af8 5a3c 513c 9fbd afd6 2bbe 5f07 28bd
00000320: a06c 19bc c5e1 0e3d 80e8 193d afc6 413e
00000330: e9de d93d 9c49 8e3d 68a7 c33b 69fc 133e
00000340: fca6 373e 279a bf3d 5f90 fc3d 13e9 05be
00000350: 9c3f 49bd 1f8d b1bd 189b 893b 57ff 45be
00000360: b06d a9bd e4a6 193e 2c52 53be bda4 e5bc
00000370: f847 a23c fa44 e13d 02d0 993c a276 523b
00000380: d1fa de3d aeff 563d 2071 ef3d c523 e6bd
00000390: a4ab 043e 4c06 103e a17b 49be 7d90 c6bd
000003a0: df9e 22be 8293 f83d f72c c2bd 1dc5 05be
000003b0: 730a 5fbe adae 0c3e 33f7 9cbd 1c62 323e
000003c0: cd72 ca3c 3769 62bc 5f1e d4bd c0a6 04bb
000003d0: 8b29 47be 0799 d7bd fc1c 043e 776e 95bb
000003e0: 5423 0a3e 1f2b 473e 841e 083e dfc5 173e
000003f0: 5480 a5bd f038 963d 8cdf 273e fc43 07bd
0.11839888 0.09993485 -0.11359664 -0.021117002 -0.14874808 -0.19810857 0.18479589 0.027288303
-0.184816 0.10619589 0.1182997 0.17952898 -0.04044057 -0.120752506 0.16131878 -0.140202
-0.15723826 0.20251364 -0.14613321 -0.14742647 -0.07517318 0.082846634 0.053121783 0.043394078
-0.19340715 0.13399185 0.09505772 0.10209443 -0.14262837 0.035174474 -0.15927018 -0.027686564
0.14886594 -0.15086102 -0.033866026 -0.039854165 -0.06397642 0.029934723 -0.11767232 0.04963384
0.04953235 -0.044499096 0.0071804775 0.19355798 -0.09525836 0.048992477 0.1949213 0.1752254
0.15307622 -0.18346854 0.022634074 0.06143998 0.15756153 -0.14635676 -0.19112112 0.048118588
0.07251094 0.1842543 0.012384008 -0.07455697 -0.16687831 0.075973555 0.080623575 0.13052566
0.06872823 -0.15033266 0.028062752 -0.015923541 -0.15660082 -0.035451714 0.11952522 -0.14401479
-0.1707364 -0.16939929 0.073349096 0.111847684 -0.20984071 -0.15748008 0.025425617 0.014890998
0.16430384 -0.06212549 0.07093612 -0.17700477 0.0054513807 -0.20394044 0.0287081 -0.12119044
0.13936007 -0.050286926 -0.20536985 0.19241682 0.06809605 0.18046261 -0.09163612 -0.09799845
0.14833134 -0.041293554 -0.18524747 0.20943718 0.10255121 -0.17537414 -0.055819765 0.17663549
0.09016492 -0.20951304 -0.21464793 0.089797616 -0.010844839 -0.038210955 -0.0063173864 -0.22228675
0.02036995 -0.19071722 -0.16745926 0.017891584 0.18121019 0.18481655 -0.12596233 -0.04283063
0.1421739 -0.086634725 -0.028477686 0.12628546 -0.03856413 -0.07230297 -0.07105924 -0.070302576
0.13826182 -0.026644194 0.099171475 0.009283199 0.102289975 0.09691452 0.08588711 -0.087237
-0.11869781 -0.07026679 0.07905443 -0.009214748 -0.19838658 -0.1793912 0.02856526 0.00928293
0.02015812 0.09692898 -0.065037385 -0.055038642 0.09612551 -0.1293292 -0.016470892 -0.18823473
0.09995302 0.024090951 -0.18632142 0.04163739 0.19738807 0.06501104 -0.16011697 0.044979166
0.1582142 0.15294874 -0.16969556 0.018788615 0.013432111 -0.056648906 -0.01080877 0.18988524
-0.1501589 0.030224701 0.09474753 -0.13401926 0.17988554 -0.17933291 0.10087994 -0.21978065
-0.16951987 0.16267136 -0.033050533 -0.22902109 -0.0130124185 0.083725266 0.058588456 0.04105584
0.11364794 -0.20776697 0.09642935 0.010158272 0.15940171 0.14591499 0.088986225 -0.17334084
0.06532863 0.05458786 -0.20538306 0.024276009 0.013364831 -0.07775176 -0.16781114 -0.041022655
-0.009364277 0.03488328 0.037575245 0.18923448 0.1063822 0.069476336 0.005970884 0.14451756
0.17934793 0.09355574 0.12332224 -0.13077192 -0.04913293 -0.08669495 0.004199397 -0.19335686
-0.08272874 0.1500507 -0.20636815 -0.028032655 0.019809708 0.10999484 0.018775944 0.0032114168
0.10887683 0.05248993 0.11691499 -0.11237291 0.129561 0.14064902 -0.19676067 -0.09695528
-0.15880917 0.1213751 -0.094812326 -0.13063474 -0.2178133 0.13738509 -0.07664337 0.17420238
0.024712944 -0.0138190305 -0.10357355 -0.0020240992 -0.19449441 -0.105272345 0.12901682 -0.0045602876
0.13490039 0.19450043 0.13292891 0.14821576 -0.08081117 0.07335079 0.1639387 -0.03302382

conv_layers.0.f_lin.2.weight f4 [128, 5]
00000000: 9b62 323e cecf 0abe 0a4c 163d 14fc 653e
00000010: 9be1 39bd 5ee7 96bd 560b b7bd 6a68 0b3e
00000020: 9fbf 403e 722e 213e 399d cc3d 6f60 08be
00000030: 08f7 3bbe 6dbe 1f3e adf7 0bbd 5730 63bd
00000040: 00b3 54bd 7cea 303e 3f84 223e a523 aebd
00000050: f9a4 e13b bbfd 603e 719f 2c3e 042b 173e
00000060: 7790 103e 6c64 4abd de9a 3cbd 5dda 82bd
00000070: af6f 183e be31 253e 21c7 4f3e 2c31 a3bd
00000080: e438 41be 6b06 5a3e 8f13 24bc fa6e 9bbd
00000090: 88be ba3d 79b5 01be 52de 1a3e 7488 3e3e
000000a0: 6883 b2bd c7e4 f63d c6e9 4a3c d8f5 4cbe
000000b0: db26 bb3d 3f51 353d e890 dcb9 e66f 1c3e
000000c0: 64ae 3c3d 2c37 de3d 48ba 3b3e 83da 0c3e
000000d0: 40d7 04be c3d5 203e caa8 a03d 25f4 94bd
000000e0: 54d0 643d d3a8 f4bd b0e0 533c 6e23 193e
000000f0: 2191 d13d 008f a8bc 53ec a1bb 6767 cf3c
00000100: 041a d83c 062c c7ba 16e4 cbbd 1c85 1b3e
00000110: a66e f9bd 9fa5 fabd cc1f 68be aa6c 32bc
00000120: 035d 863d 26e8 563e cd89 e13d 148f 12be
00000130: 9f7b 2b3d 1dbd 003e 7dce 463e 6e49 553e
00000140: 0821 193e 532b 37be 6640 4cbe 3ce9 4b3e
00000150: 6335 6f3c ccb4 0e3d d410 873d 8f14 dcbb
00000160: a0b2 01bd 44b8 3bbd d7d6 a73d 52d5 303c
00000170: 1355 173d 8298 3f3e 3dfd 1cbe 8da9 27be
00000180: 6404 30be 7113 0f3e 35b3 8fbc ff2f 70bd
00000190: 5eb3 99bd ab0b 1cbe e253 68be 031f 93bd
000001a0: 38da 99bc f1e7 0cbd 56c7 09be 6efa 00be
000001b0: fcdc d73d 700c e53d e00b 08be e390 3a3e
000001c0: 671c 00bd cef4 bebd 551f 13be 07a3 0f3d
000001d0: ee88 aebd b85d 3c3e 24d8 033e 6f7c 82bd
000001e0: 7d09 12be 33e8 52be 13cb 0b3e b648 27bd
000001f0: fa09 763d 74ce 17bc f782 593e 2d75 20be
00000200: abec fc3d 673c 1bbe 7889 b63d a356 cb3d
00000210: 0faf c8bd 48fe 323e 5d31 de3c 6958 503e
00000220: a0ab 4bbc 2b20 463e 3b5d 0ebd f56d d33d
00000230: 7618 5abe e94e a23c 3154 163d 0469 173e
00000240: d49e 0f3e f8ae 1c3e e55f 4e3d 2414 d73c
00000250: 7f59 2a3d 1bbd 453e d232 313e 29a2 53be
00000260: c9ec 363d 1147 d03d 1141 dfbd c02c 543e
00000270: ff86 f7bd 5346 b63d 03bd 38be df9c 59be
00000280: 4470 22bd 6739 483e 4599 d2bd 7023 2abd
00000290: ba7e 0ebe 7256 31bb 3d63 13bd 30ae bdbd
000002a0: 1657 ddbd da89 d1bc ff3b 5a3d a993 083e
000002b0: 8bbe 083d e7a6 e33d cba3 393e 398f 2b3e
000002c0: 6e9b f93b 33ac 26be 1aed 043d caf9 42be
000002d0: 97d5 fd3d 86bf d33d eff9 093e 1083 bdb9
000002e0: 7746 a8bd 978e 453d 45c7 04be 8e18 2cbe
000002f0: c29f 8c3d 33f2 083e 67db 20be 10f4 3bbe
00000300: db97 113d 9440 bd3d 1850 933d bafb abbd
00000310: 6c73 a2bd f487 5fbc 849d 9b3d b8fa b1bb
00000320: a6f1 363e 7c90 543b a8fb 053e c6d8 3e3e
00000330: 539f 0cbd 9b3d 243e 8c8f 2b3e ef32 393c
00000340: 4026 513e 5a6d 06be 6ade 08be 500f 143e
00000350: 0003 e53d 7daf 28be 8940 30be 0a36 013d
00000360: a528 443e 261b 463e 4b9f d83d 6c42 da3c
00000370: 1d75 453e 2245 29bd 2f5e 953d 92be e73c
00000380: 504a a3bb 4db5 2ebe 34bc d03d 0465 9f3d
00000390: d5d0 3c3e a45b 51bc 6cdc 9d3c edab c73c
000003a0: 1024 a3bd aa16 90bc 1ac1 f93d 1375 b53d
000003b0: 1ab9 e23d bfc4 26be 8759 1dbc 5620 6ebd
000003c0: 859e d63d d151 9abd 3fcf 58be 6df9 493d
000003d0: 6632 e83c 10a4 1e3e d275 bd3d ebae d3bd
000003e0: f6e3 d13d 46e7 aabd 90a7 4f3d ee71 413d
000003f0: 264c 15be 8fc5 f4bd e53b 2fbd 236a 103e
0.17420428 -0.13555834 0.03669361 0.22459441 -0.04538117 -0.073683485 -0.08937709 0.1361405
0.18823098 0.15740374 0.09990925 -0.13318036 -0.18355954 0.15599985 -0.03417175 -0.055466022
-0.05192852 0.17276949 0.1587076 -0.085028924 0.0068861214 0.2197179 0.16857697 0.14762503
0.14117609 -0.049412176 -0.04604613 -0.06389306 0.14886354 0.16132256 0.20290805 -0.07968363
-0.18869358 0.21291511 -0.010014429 -0.075895265 0.09118372 -0.12666883 0.15123871 0.1860674
-0.0871647 0.120553546 0.0123848375 -0.20015657 0.091382705 0.044266935 -0.00042069633 0.15277061
0.04606475 0.10850367 0.1833278 0.1375523 -0.12972736 0.15706544 0.07844694 -0.072731294
0.05586274 -0.11946263 0.012931988 0.14954922 0.10232759 -0.020576 -0.004941502 0.02531786
0.026379593 -0.0015195615 -0.09955613 0.15187496 -0.12179308 -0.12238621 -0.2266838 -0.010890165
0.06560709 0.20986995 0.110126115 -0.14312392 0.04186594 0.12572141 0.19414707 0.20828792
0.14954007 -0.1788762 -0.19946441 0.1991319 0.014600131 0.03484039 0.065950066 -0.006716318
-0.03166449 -0.045830026 0.08195274 0.010793047 0.036946367 0.18710521 -0.15330978 -0.16373272
-0.17189175 0.1397226 -0.017541507 -0.058639523 -0.07504915 -0.15238826 -0.22688249 -0.071836494
-0.018780813 -0.034400884 -0.13454947 -0.12595531 0.10540196 0.11184013 -0.1328578 0.18219332
-0.031277087 -0.093240365 -0.14367421 0.035067584 -0.08522211 0.18395126 0.1287542 -0.0637139
-0.14261432 -0.2059639 0.13651685 -0.040840827 0.06006811 -0.009265531 0.21241365 -0.15669699
0.12349828 -0.1515976 0.08912939 0.09928634 -0.09799015 0.17479813 0.027123148 0.20346226
-0.012431055 0.19348209 -0.03475688 0.10323707 -0.21298394 0.019813018 0.036701385 0.14786154
0.14025432 0.1530112 0.05038442 0.026254721 0.041589256 0.1931042 0.17304543 -0.20667328
0.04465941 0.10169805 -0.10901082 0.20720196 -0.12086295 0.08900132 -0.18040852 -0.21251248
-0.039657846 0.19553147 -0.1028314 -0.041537702 -0.1391553 -0.0027059582 -0.035983313 -0.09261739
-0.10807626 -0.025578428 0.053279873 0.13337578 0.03338484 0.111158185 0.18128888 0.16753854
0.0076174056 -0.16276626 0.03245268 -0.190406 0.12394255 0.103392646 0.13474248 -0.00036146538
-0.08216565 0.048231687 -0.1296664 -0.16806242 0.06866409 0.13373642 -0.15708695 -0.18354821
0.03554521 0.09240833 0.07193011 -0.083976224 -0.07932171 -0.013643254 0.07598403 -0.0054314993
0.17865619 0.0032434752 0.1308428 0.1863738 -0.03433163 0.16039126 0.16753978 0.011303647
0.20424747 -0.13127652 -0.13366094 0.14458966 0.11182213 -0.16473193 -0.17212118 0.031545676
0.1915613 0.19346294 0.10577258 0.026643 0.19282956 -0.041325696 0.07293355 0.028289113
-0.004983224 -0.17061348 0.10192147 0.07782939 0.18439038 -0.0127781965 0.019270144 0.024373973
-0.07965863 -0.017588932 0.12195034 0.08860221 0.110704616 -0.1628599 -0.0096038645 -0.058136307
0.10479454 -0.075351365 -0.21172808 0.049310137 0.028344344 0.15492272 0.09250988 -0.10336097
0.10248558 -0.08344893 0.05069691 0.047227792 -0.1457983 -0.11951744 -0.04278173 0.14102988

conv_layers.0.params.0 f4 [128]
00000000: 833a 203c 6e20 55bc 5fb7 29bc 1890 623c
00000010: abd1 303c 5dc5 953c c45e 75bc 65df 203a
00000020: bd29 01bb a1ff 52bc d7a8 0a3c d424 86bc
00000030: 0e1a 4cbc bc37 8bb9 bb8b 97bc 1ac8 adbc
00000040: aead 473c 644e 443c 48dd 9a3c 66d3 823b
00000050: f9c3 5ebc b7eb abbc e4f4 383c 3f10 f43b
00000060: ccd8 bb3b e816 813c 5d69 993b 4596 7d3c
00000070: 8186 0b3c f424 cdb9 d045 80bb a6d2 e33b
00000080: e815 d2bb ea74 b53b f954 d1ba e2ad b93b
00000090: cfe4 873a 3904 7c3c f420 3d3c 3745 723c
000000a0: 1ae0 33bb 2a7d 10bc 51f0 8fbc 8985 ba39
000000b0: 7fe0 8a3c a9fc 673c 1820 22bc 69a1 603a
000000c0: 8c6c 94bc 770c c13b 4cb6 0a3c 1c8d 323c
000000d0: 57ea 013c 717a 64bc 2792 2f3b 2b64 57bc
000000e0: cedd b5bc 36c2 da3b a4c4 9abc e6d8 9abc
000000f0: 8d9f 6b3b e475 05ba 1cfe 863c 2bd2 19bc
00000100: d4d4 71bc 8c35 573c ee87 4d3b 6f16 783b
00000110: 2ed1 d83b d7be bdba 4640 cb3b cd83 943c
00000120: 29eb abbc d3db a7bc 39a6 733c 4546 93bc
00000130: ca96 96bb 1171 df39 42ae df3b d2e8 133c
00000140: 9c66 853b 87fd 6f3b 271e 02bc 5437 acbc
00000150: 72d1 9b3c 7c64 64bc 2f16 8f3c 652c 53bc
00000160: d4ed 393c 24ff a8bb 37aa fabb 3b6c 8a3c
00000170: beeb 873c 338e a4bc 0e98 11bc dca5 52bc
00000180: 28df a93c 4183 853b 4c94 1b3c 8d4a a03c
00000190: 0a0e 1a3c b5f9 23bc c9ad 31bc ee46 babc
000001a0: 3278 4f3c 6080 80bb 4db5 a6bc 3e3e bbbb
000001b0: ee8b 2c3c 5d72 8b3c e1e0 33bc 9f4d 903c
000001c0: a143 a1bc 3f55 16bc 1d03 ed3b 259e a6bc
000001d0: 408e f13b 8bc6 a13b b39c 4f3c c225 7c3a
000001e0: d9eb 8b3b 0015 ec3b 9af7 acbc 7e42 a83c
000001f0: 4150 fa3b 59f9 7fbc 2b53 c4ba b219 a1bc
0.009779575 -0.01300822 -0.0103586605 0.0138283 0.010792176 0.018282587 -0.014976207 0.0006136804
-0.0019708716 -0.0128783295 0.008463106 -0.016374983 -0.012457384 -0.0002655367 -0.018499246 -0.02121358
0.012187405 0.01198158 0.018904343 0.003992486 -0.013596528 -0.020986421 0.011288855 0.0074482257
0.0057326313 0.015757993 0.0046817497 0.015477722 0.008515955 -0.0003912818 -0.0039145723 0.0069526015
-0.006411303 0.005537619 -0.0015970758 0.0056664804 0.0010367873 0.015381866 0.011543501 0.01478701
-0.0027446807 -0.008818904 -0.017570646 0.00035576176 0.016952751 0.01415936 -0.009895347 0.0008568974
-0.018118165 0.0058913785 0.0084663145 0.010897901 0.007929406 -0.013945208 0.0026789994 -0.0131464405
-0.022200491 0.006675984 -0.018892594 -0.018902253 0.0035953254 -0.00050911144 0.01647859 -0.009388487
-0.014760215 0.013135325 0.0031361538 0.0037855168 0.006616733 -0.001447643 0.0062027304 0.018129254
-0.020986157 -0.020490563 0.014871174 -0.017977843 -0.004595612 0.00042618116 0.006826193 0.009027677
0.00407107 0.003661962 -0.007941759 -0.021022476 0.01902077 -0.013939973 0.017466633 -0.012889002
0.011348207 -0.0051573683 -0.0076496857 0.016897311 0.016591903 -0.020087337 -0.00888635 -0.012856927
0.020736292 0.0040744846 0.009495806 0.019566799 0.009402761 -0.010008265 -0.010844656 -0.0227389
0.012662934 -0.0039215535 -0.020350123 -0.005714207 0.010531409 0.017022306 -0.010978908 0.017615138
-0.019685568 -0.009175598 0.007233037 -0.020339081 0.007371694 0.0049369982 0.012671637 0.00096186635
0.0042700586 0.007204652 -0.02111416 0.020539518 0.0076389615 -0.015623414 -0.0014978399 -0.019665573

conv_layers.0.params.1 f4 [128]
00000000: 23db 9cbc 0130 26b8 30e6 d3b7 d507 fb37
00000010: 92ef 22bc 9617 2a37 a047 28bb 712d 52bc
00000020: e531 15bb c0e4 8fb7 4882 fab6 3f5d 5137
00000030: cf6d fcba e519 36bc bf2b bd37 fa3b 03bb
00000040: daf3 8bba dca1 64b7 4416 8d37 2a25 a8bc
00000050: b393 2cbc d66c 45b7 fc61 55b8 4d66 adbc
00000060: 6cb6 8cba 0a99 d4bb 039c e2b7 c53f 40bb
00000070: 7cbd fcba cd75 d837 d915 71bc cd97 a4bc
00000080: 9549 b0b7 9cd2 e2ba 2042 64b7 683e b437
00000090: 0b50 33b6 66a4 9f36 4002 fbb7 ea71 85bc
000000a0: 0504 0db7 b0fa f6b7 966c c937 f684 32b9
000000b0: 36fb 50bc 9252 f9b7 8408 b1b6 35e4 53bb
000000c0: c0e4 8ab7 f794 6aba afd2 81b6 39f6 b5bb
000000d0: 0419 17bc d409 d136 1cf3 d3b7 bd97 91ba
000000e0: 6335 b7bc 61d4 1a38 3f26 11bb 8471 bf37
000000f0: 5eff 5cb7 7d3c 7eb5 e507 e2b7 56b9 52bc
00000100: 5d0a 59bc 1356 9dbc 4a16 72bc ca03 e0ba
00000110: 4873 8537 eeeb 31bc 4afa e9b7 7be1 62b6
00000120: 018a 77bc e905 bebb e0a6 40bb 0b8a a0b6
00000130: f7d1 b5bc b212 42b8 e844 cabb e21e 0fb8
00000140: 6626 d9b5 d637 00bc bdb3 8bbc 0edd 5837
00000150: 9ce2 46b7 72ce d7b7 1d2d febb 3c2c 80bc
00000160: 45f4 8937 842e 66b7 1b91 e4b6 ee63 7dbc
00000170: e9d5 fcbb 03c8 7fbc e6c8 9fbb 2dad 06bb
00000180: 8c23 9936 c4fc ccb7 3168 a8b6 a19a f7bb
00000190: 3bb9 1bb7 63ab e9ba 843e d6b7 0ebf 1fbb
000001a0: 7dd4 fd37 784e 6d37 ef00 67bc 0b2f c5b7
000001b0: 9878 dbb7 a83d 30bc 91ce 30b7 1989 d0bb
000001c0: 9113 a5b6 5cf0 b5bb bd67 25bc b25f 5c37
000001d0: 546d 02bc 998b e5bb 5e60 28bb f283 b237
000001e0: 968c 98b7 066c 2eb7 ba45 2937 d329 2bbc
000001f0: 079f 76bb 4905 74b7 765d edb7 e4ba 38b7
-0.019147461 -3.962219e-05 -2.526035e-05 2.9925179e-05 -0.009944813 1.0138281e-05 -0.0025677457 -0.012828217
-0.0022765335 -1.7153448e-05 -7.4657473e-06 1.2479081e-05 -0.00192588 -0.011114572 2.2550927e-05 -0.0020024762
-0.0010677532 -1.3627545e-05 1.6818878e-05 -0.020525534 -0.010533261 -1.1767455e-05 -5.0874412e-05 -0.021166945
-0.0010735518 -0.0064879702 -2.7013948e-05 -0.0029334885 -0.0019282545 2.5804062e-05 -0.014714682 -0.020091916
-2.10151e-05 -0.0017305198 -1.3605255e-05 2.1486732e-05 -2.671967e-06 4.7577078e-06 -2.992258e-05 -0.01628967
-8.405191e-06 -2.944222e-05 2.4011631e-05 -0.00017024935 -0.012755206 -2.9721563e-05 -5.2760024e-06 -0.0032332067
-1.6557402e-05 -0.0008948589 -3.8690264e-06 -0.0055530337 -0.009222273 6.2298295e-06 -2.5266367e-05 -0.0011107844
-0.022364324 3.6914254e-05 -0.002214804 2.2821834e-05 -1.3172479e-05 -9.4710396e-07 -2.6944976e-05 -0.01286157
-0.0132471 -0.019206082 -0.014775822 -0.0017090973 1.5908518e-05 -0.010859473 -2.7892314e-05 -3.3807871e-06
-0.015108586 -0.0057990444 -0.002939634 -4.784442e-06 -0.022194846 -4.6270616e-05 -0.006172765 -3.412262e-05
-1.6178935e-06 -0.007825812 -0.01705348 1.2926072e-05 -1.1854481e-05 -2.572613e-05 -0.0077568428 -0.015646093
1.644542e-05 -1.3719899e-05 -6.811822e-06 -0.01546572 -0.0077159298 -0.015611651 -0.004876244 -0.0020549998
4.5638935e-06 -2.4436398e-05 -5.0189196e-06 -0.007556275 -9.281847e-06 -0.0017827566 -2.5539899e-05 -0.0024375352
3.0258898e-05 1.4144571e-05 -0.014099344 -2.3506136e-05 -2.616299e-05 -0.0107568875 -1.05385125e-05 -0.0063639996
-4.919661e-06 -0.0055523347 -0.010095534 1.3135303e-05 -0.007960636 -0.0070051667 -0.0025692205 2.1280695e-05
-1.8185277e-05 -1.0396359e-05 1.0089419e-05 -0.010446983 -0.0037631409 -1.4544764e-05 -2.8296123e-05 -1.10107685e-05

conv_layers.0.params.2 f4 [128]
00000000: dfd8 5138 5616 c737 c392 8eb7 a339 cab7
00000010: 6308 ee37 17ca dfbb a705 1238 19c6 babc
00000020: 37b0 91bc cf0f 1838 45cd 50bc d104 3f37
00000030: 3469 efbb 4a47 d9b7 ec38 f737 2e2b 00b7
00000040: b0e0 c537 9e05 2ab8 7671 13b8 ee07 59bc
00000050: 8b86 c937 0408 0638 64ea debb b7c4 e9b6
00000060: f527 eb37 49b4 aebc 9d2d 2dbc 52cc 4838
00000070: 42aa ce36 613a d0b7 3356 e2b8 89ef 3c38
00000080: f5b9 b7bc 5ad4 09b6 0bbb 04bc 2fe7 bcbb
00000090: 620d 1cb7 f8a0 6037 cd07 82ba 93cf c9bb
000000a0: 2d0b a7b6 37b1 9537 369d 8837 5cb7 12b8
000000b0: cbcc eeb7 92d8 a2bc aebe 45bc c72b bcb4
000000c0: 7ea2 6d38 0335 40b7 4d01 8ebc b79b 0bbc
000000d0: 89ab 48b7 b2a9 d8b7 9d6b 0038 adc9 0138
000000e0: 3f87 81bc 007f 6dba ba1e 97bb 9118 1abc
000000f0: 0f3f 52bc b44a 32b8 ce84 9336 782a 27bc
00000100: 3444 e437 0f81 bdb6 fd7e cdb5 e405 d9bb
00000110: 2a93 6bb7 f00a 93bc 14af ac37 0a16 ff36
00000120: 83d8 9237 344f 9237 4268 99bc 4fd2 deb7
00000130: 6395 0d38 a297 adb7 7ffd b1b7 761c 32b6
00000140: 2b30 f4b6 0815 0837 09d9 97bc 71b5 5cb6
00000150: 4916 feb5 3871 1b38 fb35 77bc 50c2 31b7
00000160: a3bc 43bc 03ba e3b7 ae7e 0838 9c88 99b7
00000170: 4e72 8cbc cf88 a737 8293 a6b7 5b23 e837
00000180: ba51 4038 a515 2838 e49b df37 1773 6abc
00000190: b4f8 e737 b26c 43b7 0a3f 48bc 179e 5fb7
000001a0: f08f 73ba a5c5 1a38 0065 f237 2149 43bb
000001b0: 071a f3b7 1c8d 7137 933b f1b7 e8b0 5837
000001c0: 8c48 88ba 3abd 61bb ca43 5537 7790 8dba
000001d0: 1be4 6537 6834 afbc a0a9 cab6 4acd 84bc
000001e0: 40a9 9abc b564 35b7 4d24 0438 45d7 a3bc
000001f0: c618 07bc 20f7 5bb8 3d47 1938 2c91 aebc
5.003146e-05 2.373305e-05 -1.699606e-05 -2.4107116e-05 2.8375716e-05 -0.006829511 3.4814377e-05 -0.022799538
-0.017784221 3.6254347e-05 -0.012744253 1.1385609e-05 -0.0073062424 -2.5901612e-05 2.94712e-05 -7.639448e-06
2.3588858e-05 -4.053639e-05 -3.51532e-05 -0.0132465195 2.4023719e-05 3.1955555e-05 -0.006802844 -6.9668417e-06
2.803279e-05 -0.021326201 -0.010569957 4.7874004e-05 6.159099e-06 -2.4822717e-05 -0.000107925756 4.5045777e-05
-0.022427538 -2.0538196e-06 -0.008101235 -0.005764864 -9.3014405e-06 1.3388919e-05 -0.0009920538 -0.006158778
-4.978289e-06 1.7844706e-05 1.628567e-05 -3.497988e-05 -2.8467175e-05 -0.01987866 -0.012069387 -3.504958e-07
5.6656536e-05 -1.1456435e-05 -0.017334605 -0.008521012 -1.1960868e-05 -2.5828227e-05 3.06178e-05 3.0943822e-05
-0.01581156 -0.0009059757 -0.004611817 -0.009405271 -0.012832417 -4.250808e-05 4.396402e-06 -0.010202996
2.7211478e-05 -5.6476633e-06 -1.5310649e-06 -0.0066230167 -1.4041356e-05 -0.017949551 2.0585525e-05 7.602158e-06
1.7505377e-05 1.7441438e-05 -0.018726472 -2.6562395e-05 3.3756147e-05 -2.0693817e-05 -2.1218088e-05 -2.6540633e-06
-7.277374e-06 8.111128e-06 -0.018536108 -3.2888167e-06 -1.893096e-06 3.7060323e-05 -0.015088554 -1.0595264e-05
-0.01194683 -2.7147127e-05 3.2542906e-05 -1.8302635e-05 -0.017144348 1.9971658e-05 -1.985743e-05 2.7673019e-05
4.585248e-05 4.007448e-05 2.6656264e-05 -0.014309666 2.7653157e-05 -1.1648213e-05 -0.012222061 -1.3328644e-05
-0.0009291163 3.6900532e-05 2.889568e-05 -0.0029798227 -2.8979977e-05 1.4397574e-05 -2.875718e-05 1.29157925e-05
-0.0010397597 -0.0034445063 1.2711573e-05 -0.00108005 1.3702574e-05 -0.021387294 -6.039816e-06 -0.01621117
-0.018879533 -1.0811888e-05 3.150506e-05 -0.02000011 -0.008245653 -5.2443822e-05 3.654439e-05 -0.021309458

conv_layers.0.params.3 f4 [128]
00000000: 4ca2 783b 6d36 f5bb a21b 7f3c 78e6 c43b
00000010: a241 5a3c f377 9d3c 6e9f 3bbc 3fef 653c
00000020: 94d8 7dbc f6d0 05bc a35b a7bb d27e 6ebc
00000030: 179c 263c 7ff2 eab4 e293 7ebc 6177 2abc
00000040: bf12 a23b 5631 f33b cb50 6d3c 4f42 823c
00000050: 8d73 203c 2edc 6dbc e44e 2e3c 2837 4abc
00000060: cc63 17bc 3409 36bc 0709 773c cb65 4e3c
00000070: c6ea 7b3c c9e9 7dbc dd5e 8c3c 1eb7 93ba
00000080: 793f 9abc bc34 683c 73b4 d03a 61ca 71bc
00000090: 67bc 43bc 6e58 5a3b 8f06 573c 1e21 803c
000000a0: f698 873b 7125 a03a 3326 4a3c 35de e93a
000000b0: 7cdb 573c 4a8a 053c 1bb2 7f3c 403c 83bc
000000c0: 66d9 8cbc 46d6 133c 3ab3 413b 5507 72ba
000000d0: fc34 1a3c 9eba 94bb 90f1 973b bfb4 2dbc
000000e0: 9909 a43b faa6 573c d41f 3ebc ed46 47bc
000000f0: bf18 b5bb dc01 87bc b963 eb3b 71d4 613c
00000100: da1a de3b 7ef4 153c f795 19bc 3d05 48bc
00000110: 4f55 433c 70a8 353c 89cb 173c f53f 293c
00000120: 658c 9fbb aba0 703b fbac 1b3c c5cc 91bc
00000130: d142 fcbb d055 3abb 2bb9 673c 2cdb bbbb
00000140: 2718 263c ca6f 89bc 6018 88bc f97a 82bc
00000150: 89f5 26bb 6dc0 13bc 36c8 993c 1783 c7bb
00000160: 9e40 3bbc 28a2 713c ef4d a3bb d1b8 713c
00000170: 950e 463c f3ca bf3a df44 1e3c 2f4a b5ba
00000180: 5e60 6a3c ac2e c23b 4425 0e3b 35fb 783c
00000190: 8e0e e3bb 88d2 77bc c1e8 8d3c 30ba b33b
000001a0: 4140 06bc f59c cdbb 8da1 82bc 8477 ee3b
000001b0: dd7e b0ba b680 ea3b ee9e 4e3c bd49 863c
000001c0: 2e5b 8dbc 04ea 26bb 79b2 4dbc 11a0 85bc
000001d0: 033b 543a 5d87 04bb 95a5 953c eb17 153b
000001e0: 8a3d 1bbc 87c3 ac3b 198d 87bc c98e 6b3c
000001f0: cd74 b13b a383 583b f9ee 82bc 82f9 0cbc
0.0037938533 -0.0074832947 0.015570553 0.0060089193 0.013321312 0.019222235 -0.011451585 0.0140340915
-0.015493531 -0.008167496 -0.0051073595 -0.0145566035 0.010169051 -4.3762336e-07 -0.015538188 -0.010404439
0.0049460824 0.007421653 0.014484595 0.015900759 0.009793174 -0.014517827 0.010638926 -0.012342252
-0.009240102 -0.011110593 0.015077836 0.0125975115 0.015375799 -0.015497633 0.017135078 -0.0011269783
-0.018829094 0.014172729 0.0015922919 -0.014757724 -0.011946774 0.0033316868 0.013124122 0.015640792
0.0041381074 0.001221819 0.012338209 0.0017842712 0.013174888 0.008150646 0.0156064285 -0.01601994
-0.017193507 0.009023255 0.002955629 -0.000923266 0.0094120465 -0.004538848 0.004636951 -0.010602175
0.005006027 0.013162369 -0.011604268 -0.012162906 -0.0055266316 -0.016480379 0.0071835187 0.01378356
0.0067781033 0.00915253 -0.009374133 -0.01220828 0.011922195 0.011087522 0.009264835 0.01033019
-0.0048690313 0.003671686 0.009501691 -0.017797837 -0.007698395 -0.0028432496 0.014143269 -0.0057329144
0.010137594 -0.016776938 -0.016613185 -0.015927779 -0.002547594 -0.009018046 0.018772226 -0.006088625
-0.01142898 0.014748134 -0.0049836556 0.014753536 0.012088438 0.0014632627 0.009659975 -0.0013831313
0.014305202 0.005925974 0.0021689693 0.015196611 -0.0069292253 -0.015125878 0.0173229 0.0054848418
-0.00819403 -0.0062748143 -0.015946174 0.007277431 -0.0013465543 0.007156457 0.012611134 0.016392583
-0.017255392 -0.0025469074 -0.012554758 -0.016311677 0.00080959516 -0.0020222284 0.018267432 0.0022749852
-0.009475121 0.005272332 -0.016546773 0.014377304 0.005415535 0.0033037446 -0.015983092 -0.008604409

conv_layers.0.params.4 f4 [128]
00000000: 2e6d 83bc bd76 3a3c b55a 6ebc afa4 903c
00000010: c670 4cbc fe8f 44bc 41a1 a93b ea6f e3bb
00000020: 4119 97ba 71be 04bc 238a 33bc ab6e 8abb
00000030: 660c 583c 3992 aaba a95f 693c c9f0 443c
00000040: 8a54 4abc 57f6 4cbc a6e2 5b3c e864 80bc
00000050: 580f 3d3c 23cc 173c 3ad2 553c da10 13bc
00000060: dbc0 993b 3282 7c38 c93c 6abc 609b 103c
00000070: 6640 3e3c 45fe 833c 0fba adbb a6cd 70bc
00000080: e2b1 f1bb c1cb 8e3c 6efe 95bb da54 603c
00000090: 756e d5bb dd5d 3f3c dafc 393c 65d1 49bc
000000a0: ca1e 59bc 6f4e 31bc f072 913c 65f1 3a3c
000000b0: 6cfb 83bb 1884 43bc babf fa3b 6768 563c
000000c0: 6b68 1fbc 2af5 783b 5f72 48bc e9ac 86b9
000000d0: dd36 f3ba b9e4 563c 5d92 38bc 4348 95ba
000000e0: 6371 403c 361b 0e3c 2509 2f3c 6e95 05bb
000000f0: 80bf 41bc 64af 3dbc 76b2 373c 0282 5b3c
00000100: a222 1e3b 1beb 72bc a272 6ebc e19b 3abb
00000110: 9964 003c c8ac 6cbb e920 eb3b 67a1 a23b
00000120: e3c6 8cbc 810e 553c 8da6 313c 630a 24bc
00000130: 0360 25bc 8114 cabb 5ffe 7fbc 3a75 f8bb
00000140: e050 2ebc adc1 0c3c 904d 913b 028c 483c
00000150: cccc 303c daaf 2b3b 73e2 35bc af81 813b
00000160: fe74 6c3c 40f6 f93b 8def 75bc f6a1 82bc
00000170: 217d 65bc 5451 46bc fa0d 6c3b f3dc 9cb8
00000180: 3ecb 4e3c d62b 6bbc d20a 81bc 76b5 65bc
00000190: 1cde edb9 5c1c 1fbc 55e6 403c e896 af3a
000001a0: 3472 383c ce6d 9bb8 9c80 0cbc e418 62bc
000001b0: 4e0b 7fbc c5a9 da3a 988a 4fbc ec5e 43bc
000001c0: edc6 34bc 45b0 613c e930 d2bb 326b 4d3c
000001d0: 0fab 193c 6fa5 5abc 2e5c 1c3c b952 813b
000001e0: 9d09 c93b a986 1abb 25ba 0e3c 46d4 58bc
000001f0: b481 54bc e599 28bc 6960 0dbc 313e 603a
-0.016043272 0.0113808485 -0.014547993 0.017656652 -0.012478059 -0.011997221 0.0051766937 -0.0069408314
-0.0011527912 -0.008102045 -0.010958227 -0.0042246184 0.01318655 -0.0013013548 0.014243999 0.012020298
-0.012349257 -0.012509904 0.013420736 -0.015673116 0.011539303 0.009264979 0.01305061 -0.008976186
0.0046921796 6.0202736e-05 -0.014296719 0.008826107 0.0116120335 0.016112456 -0.005301721 -0.014697468
-0.0073759416 0.017431142 -0.0045774495 0.013692105 -0.0065134116 0.011680094 0.011351788 -0.01231799
-0.01325197 -0.010821923 0.017755002 0.011410092 -0.0040277746 -0.011933349 0.00765225 0.013086415
-0.009729485 0.0037987926 -0.012234299 -0.000256873 -0.0018555779 0.013116055 -0.0112653645 -0.0011389334
0.0117457835 0.00867348 0.010683333 -0.0020383256 -0.011825442 -0.011577461 0.011211982 0.0133976955
0.002412953 -0.014826561 -0.014553698 -0.0028474259 0.007836484 -0.0036113728 0.007175554 0.0049630883
-0.01718468 0.013003946 0.010842931 -0.010012242 -0.010093692 -0.006166995 -0.015624612 -0.007582334
-0.010639399 0.008591098 0.004434295 0.012240412 0.010791015 0.0026197345 -0.011101353 0.003952227
0.01443219 0.0076282322 -0.015010727 -0.01594637 -0.014006884 -0.012104351 0.0036019073 -7.479815e-05
0.012621699 -0.014353713 -0.01575223 -0.014020314 -0.00045369647 -0.009711351 0.011773665 0.0013396414
0.011257697 -7.411429e-05 -0.008575585 -0.01379988 -0.01556666 0.0016682675 -0.012667321 -0.011924487
-0.011033756 0.013774936 -0.006414522 0.012537764 0.009379162 -0.0133451065 0.009543462 0.003946629
0.006135179 -0.00235788 0.0087113725 -0.013234204 -0.012970377 -0.010290598 -0.008628943 0.0008554189

conv_layers.0.params.5 f4 [128]
00000000: 32b8 383c f65c 2d3c b20e 4f3c 7f60 32bc
00000010: a89a 4d3c 0263 76bc aee4 873c 508e 09bc
00000020: 89a7 e3bb 4813 d13b a079 c43b 35bd 4dbb
00000030: e50c 74bc 789d a4bb 85b7 4e3c a24d 03bc
00000040: e96c 183c 6c37 4dbb 1590 84bc 0e49 11bc
00000050: 4e68 5a3c 6484 6c3c e891 8ebc 97bc 42bc
00000060: 7d13 4b3c 53c5 febb 6c44 80bb 0a9d 5339
00000070: e5c2 393c 0a6f 37bc 1fcd 3d3c 0f8c 6e3c
00000080: 8470 46bc ca0c dbbb 1d0b 2ebc 7c6e 9abb
00000090: c67c 0dbc 0577 1d3c 0656 383c d71c adbb
000000a0: c2fa 6ebc d4d9 403c b577 483c 04f4 06bc
000000b0: 6520 85bc cf02 07bc 8a29 4fbc 2653 89ba
000000c0: cebe 8c3c 6010 8cbc a579 74bc 7c21 5dbc
000000d0: b482 12bc 358c 1abc a65b 243c 9fc1 b73b
000000e0: 662d 56bc bda8 20bc 088d e93b 359f 293b
000000f0: 4537 9dba a71c 273c 6f32 3abc b075 b639
00000100: 619a f9bb 1df2 59bc 4441 05bc 249e 4b3b
00000110: fdeb f6bb 544b 13bc 252a 4dbc ccce 50bb
00000120: 6726 603c 90f1 9c3b 8516 8cbc 1b6e f93b
00000130: 8e96 0e3c dc07 5dbc 3913 10bc 5e99 2d3c
00000140: 9819 3d3c b4ad 1a3c 718b 5cbc 4be7 193c
00000150: 116f 313c 77ce 4c3c 6e2d 2a3c 0f4c 72bc
00000160: 50ac 23bc fbaf 62bc 1933 833c 68c1 01bc
00000170: 5eff eb3a 6c0f d2bb 33b7 113c 5acc 5e3c
00000180: b993 763c d7ba 4e3c ec2d 643b a08d f73a
00000190: 3a48 803c 2048 fabb e7f2 023c 8c92 403c
000001a0: 0af1 72bc c91e 7c3c 3e10 2b3c e6d4 35bc
000001b0: 0f4e 64bc 0dce 803c 058d 9f3b 0cf8 593c
000001c0: 7629 053c ea21 8abb 84a5 3f3c 1471 2ebc
000001d0: 463f 643b 6575 f5bb 096c f33b cd8a 73bc
000001e0: 9cca 45bc d791 97bb 592f 3a3c 1bff 60bc
000001f0: a4b4 1bbc d037 813b 5672 e738 2515 9d3b
0.011274384 0.010581246 0.012637781 -0.010887264 0.01254908 -0.015038254 0.016588535 -0.008395746
-0.006947462 0.0063804723 0.005995944 -0.0031393294 -0.014895652 -0.0050236546 0.012616997 -0.008014115
0.00930331 -0.0031313552 -0.016181985 -0.008867515 0.013330532 0.014435861 -0.017403558 -0.011885784
0.012394783 -0.0077749877 -0.0039144065 0.0002018103 0.01133797 -0.011195907 0.011584549 0.01455976
-0.012111787 -0.006684874 -0.010622767 -0.004712878 -0.008635705 0.009610896 0.011250978 -0.005282979
-0.0145861525 0.011770684 0.012235572 -0.008236889 -0.016250798 -0.008240416 -0.012644181 -0.0010477051
0.017180827 -0.017097652 -0.01492158 -0.013496753 -0.008942295 -0.009432842 0.010031616 0.005607798
-0.013072347 -0.009805855 0.007127408 0.0025882248 -0.0011994621 0.010199702 -0.011364563 0.0003480143
-0.0076172804 -0.013302353 -0.008133236 0.00310696 -0.007535456 -0.008990128 -0.012522255 -0.0031861542
0.013681031 0.0047895387 -0.017100582 0.0076120025 0.008702887 -0.013490643 -0.008793646 0.010595648
0.011541747 0.009440828 -0.01346098 0.009393523 0.010829703 0.012500397 0.010386808 -0.014788642
-0.009989813 -0.013835902 0.016015576 -0.007919647 0.0018005183 -0.00641053 0.008893776 0.013598526
0.015049868 0.012617788 0.003481741 0.0018886812 0.01565944 -0.0076379925 0.007992483 0.0117536895
-0.014827976 0.015388199 0.010440884 -0.011098122 -0.013934626 0.015723253 0.0048691058 0.013303768
0.008127561 -0.0042154687 0.011697177 -0.010647077 0.0034827753 -0.007490801 0.0074286503 -0.014864636
-0.012072232 -0.0046255398 0.011363828 -0.013732697 -0.009503517 0.003943421 0.00011036235 0.0047937804

conv_layers.0.params.6 f4 [128]
00000000: fedd 7c3f 8f15 803f 7123 813f 1080 7e3f
00000010: 832c 813f 7897 7e3f 019e 7c3f a219 7d3f
00000020: f98d 803f 9943 803f 097e 803f b178 803f
00000030: 0067 803f d51f 803f 5861 803f 9394 7b3f
00000040: 45c3 7f3f 472d 7d3f 0dca 823f 1098 7f3f
00000050: b00a 823f 534b 7d3f 1020 803f d03b 803f
00000060: 0e6d 7e3f 9e55 823f 6e3c 813f 6bc2 813f
00000070: 7e35 823f d61a 7f3f 04a1 7d3f 122c 7f3f
00000080: b957 7e3f 2f7d 7f3f 2af8 7f3f 70d6 803f
00000090: cb95 7e3f 1f6c 7d3f 5f86 7f3f 1c7c 823f
000000a0: 5f51 7b3f dd86 7d3f 303e 813f 8619 7f3f
000000b0: 1f19 823f 8737 813f d186 803f ab42 823f
000000c0: 8ed0 7b3f e7ab 7e3f 4ebb 7f3f 991e 7c3f
000000d0: 9493 7f3f 2a37 7f3f 83b2 803f 77f3 7d3f
000000e0: 510f 803f c556 7b3f a94a 813f c51c 823f
000000f0: e524 7d3f 03d0 813f ecb5 7f3f 0f05 7f3f
00000100: af1c 823f e853 7b3f e376 813f 445a 803f
00000110: 85ba 803f 1511 813f 5402 813f 1c6f 7e3f
00000120: d56b 7e3f 30df 7b3f 1a11 803f 4eae 7e3f
00000130: afc4 7c3f af88 7e3f cdad 803f cc40 7b3f
00000140: 7324 7c3f ec7c 823f 1217 813f 6c28 813f
00000150: dbd1 7d3f 9eff 7e3f 9436 7f3f 3564 7e3f
00000160: 83f8 7d3f 9c3d 803f 60a9 813f f188 7d3f
00000170: 1356 7f3f c297 7f3f 8349 803f da84 813f
00000180: b126 803f 5221 7d3f fc3f 803f 085e 803f
00000190: ae45 823f 8cea 7c3f 63f2 7b3f 9f30 803f
000001a0: 069f 823f dbe5 7c3f d594 803f 842c 7c3f
000001b0: e82e 7b3f b699 7f3f fd37 803f a5b3 813f
000001c0: f978 823f e97a 7c3f e481 813f 5840 7e3f
000001d0: b0b7 7f3f 16a3 803f 2203 7d3f df30 7e3f
000001e0: 3a5e 803f 3b22 813f ec32 7e3f 28ac 7e3f
000001f0: dc94 7e3f 4356 7c3f 46e9 813f 893f 7b3f
0.98776233 1.0006579 1.0088941 0.9941416 1.0091709 0.9944987 0.98678595 0.9886724
1.0043327 1.0020629 1.0038463 1.0036832 1.0031433 1.0009714 1.0029707 0.9827358
0.9990733 0.9889721 1.0217911 0.99841404 1.0159512 0.9894306 1.0009785 1.0018253
0.99385154 1.0182378 1.0096567 1.0137457 1.0172575 0.99650323 0.99073815 0.9967662
0.99352604 0.9980039 0.99988043 1.0065441 0.99447316 0.98993105 0.9981441 1.0194125
0.9817104 0.9903391 1.0097103 0.9964832 1.0163916 1.0095071 1.0041143 1.0176595
0.98365104 0.9948105 0.9989518 0.9848419 0.9983456 0.9969355 1.0054477 0.9919962
1.0004674 0.98179275 1.010091 1.016503 0.9888442 1.0141605 0.99886966 0.99617094
1.0165004 0.98174906 1.0114406 1.0027547 1.0056921 1.0083338 1.0078835 0.9938829
0.9938329 0.9838743 1.0005219 0.9948472 0.98737615 0.9942731 1.005304 0.9814575
0.9849312 1.0194373 1.0085166 1.0090461 0.9914834 0.9960879 0.99692655 0.99371654
0.99207324 1.0018802 1.0129814 0.9903708 0.99740714 0.9984094 1.0022434 1.0118668
1.0011808 0.9887897 1.0019526 1.0028696 1.0177515 0.9879539 0.9841673 1.0014838
1.020478 0.9878823 1.004542 0.98505425 0.9811845 0.9984392 1.0017086 1.0132948
1.0193168 0.98625046 1.0117764 0.9931693 0.9988966 1.004977 0.98832905 0.9929332
1.0028756 1.0088571 0.9929645 0.9948144 0.9944589 0.98569125 1.0149314 0.9814382

conv_layers.0.params.7 f4 [128]
00000000: 2d4c 7e3f 9da8 803f 7f20 7e3f b804 7d3f
00000010: 8206 803f 8a6e 7f3f b4cd 7f3f ea37 813f
00000020: 4281 7e3f cf12 803f 67f7 7d3f 830e 7e3f
00000030: de33 7e3f 6c6f 7f3f bdfd 7e3f 0fc6 803f
00000040: b1fc 7e3f d920 7d3f 07b4 7c3f e5de 803f
00000050: 472c 7d3f e6b1 7e3f d58d 7f3f 452a 803f
00000060: ae93 7f3f 8301 7b3f 2ff3 813f 43ed 7c3f
00000070: ebdb 7b3f 2bc2 7d3f 84a6 7c3f 7b7d 803f
00000080: d7e9 7e3f c7d5 7e3f 133e 7f3f 32c0 7e3f
00000090: ca1c 813f 4708 803f e081 813f 2288 803f
000000a0: b61f 813f dbcd 7f3f 199b 7e3f 1596 7e3f
000000b0: 6f35 813f 53c7 7b3f 8f9c 7f3f efa7 803f
000000c0: b93d 7e3f 9eff 7b3f 1fd6 803f b5cf 7b3f
000000d0: a1d4 7b3f 8add 7c3f c9aa 7f3f e4bb 813f
000000e0: c506 813f e623 7d3f 663b 803f 6e83 803f
000000f0: afdd 7b3f bf1f 803f 3a10 803f fd76 7f3f
00000100: 5500 823f 0c98 803f c565 7c3f 4c2f 803f
00000110: 9e5d 7b3f 91e0 7f3f 5b90 7b3f 74c2 803f
00000120: 988b 813f a5ae 7e3f 42e2 803f 9f5e 7f3f
00000130: bc0e 813f fabb 7e3f 0849 7c3f d423 7f3f
00000140: 20a3 813f 4237 7f3f 498c 7a3f 9ffe 803f
00000150: 7539 7e3f 276c 7d3f 487f 803f 15e7 813f
00000160: b781 7c3f 5a21 7f3f e383 7d3f 1a8d 803f
00000170: 471e 813f 3978 803f c2fa 7d3f eebf 7d3f
00000180: 0cd7 7f3f 6ba4 813f 1a18 823f 8432 813f
00000190: e011 7c3f f060 7d3f be2b 7c3f c0cb 7b3f
000001a0: 2b82 7c3f e8a3 7d3f 3b51 813f afec 813f
000001b0: c2e4 803f eeb1 803f ad60 813f 8bbc 7f3f
000001c0: caef 803f 71e6 7c3f 15fc 7d3f 98f1 803f
000001d0: 6ba5 7d3f 9ca2 803f 86d9 803f 1313 803f
000001e0: b94a 813f 47d5 813f b5ad 803f 62d1 7d3f
000001f0: 9fb4 813f 3bc6 813f 8c6e 7c3f 6838 7d3f
0.99334985 1.0051457 0.99268335 0.98835325 1.0001986 0.99778044 0.99923253 1.0095189
0.9941598 1.000574 0.9920563 0.99240893 0.99297893 0.9977939 0.99605924 1.0060443
0.99604326 0.98878247 0.987122 1.0068022 0.98895687 0.994902 0.99825794 1.00129
0.99834716 0.9804918 1.0152339 0.9879953 0.98382443 0.991244 0.9869158 1.0038294
0.9957556 0.9954495 0.9970409 0.99512017 1.0086911 1.0002526 1.011776 1.0041544
1.0087802 0.99923486 0.9945541 0.99447757 1.0094432 0.9835102 0.99848264 1.0051249
0.9931293 0.98436916 1.0065345 0.9836381 0.9837132 0.9877554 0.9986997 1.0135465
1.0080191 0.988829 1.0018127 1.0040109 0.9838514 1.0009688 1.0004952 0.99790937
1.0156351 1.0046401 0.9859279 1.0014434 0.98189723 0.99952036 0.98267144 1.0059342
1.0120726 0.99485236 1.0069048 0.99753755 1.0082622 0.9950558 0.98548937 0.99664044
1.0127907 0.9969369 0.9787031 1.0077704 0.9930642 0.9899315 1.0038843 1.0148646
0.9863543 0.99660265 0.9902937 1.0043061 1.0087365 1.0036689 0.9921075 0.99120986
0.9993751 1.0128301 1.0163605 1.0093541 0.98464775 0.9897604 0.98504245 0.9835777
0.9863612 0.99078226 1.0102915 1.0150355 1.0069811 1.00543 1.0107628 0.9989707
1.0073178 0.98789126 0.9921277 1.0073729 0.9908053 1.0049624 1.0066383 1.0005821
1.0100929 1.0143212 1.0053011 0.9914762 1.0133246 1.013862 0.9860618 0.98914194

conv_layers.0.params.8 f4 [128]
00000000: 3bfe 7d3f b87c 7d3f 1ab9 7e3f 7507 7e3f
00000010: efa4 7d3f 3a46 803f 85ba 7d3f 6aec 803f
00000020: 9522 823f f551 7f3f 12fd 7c3f 5bd9 803f
00000030: b4f9 813f b614 803f 1936 7f3f a7f2 7c3f
00000040: ffed 803f ce2c 813f 1458 813f e553 7c3f
00000050: 3a96 7e3f 6dab 7f3f e568 813f bb3a 803f
00000060: 7dc7 7c3f 1930 813f d08b 7d3f 0c57 803f
00000070: 101b 803f e286 813f bf0f 7e3f 7820 7d3f
00000080: 0d5d 823f b839 813f f669 813f ff5e 7f3f
00000090: 3906 813f 4fe2 7f3f 65c4 7b3f faae 7c3f
000000a0: f3e4 803f 8763 7d3f 251f 7f3f 1695 7f3f
000000b0: 042e 823f 89b9 7c3f 00aa 813f 510e 803f
000000c0: e25d 7e3f cb32 803f 5143 7f3f c2a4 803f
000000d0: 8451 803f 68c8 813f c48e 7c3f dd76 7d3f
000000e0: 1007 803f 07d2 803f da47 7e3f 2866 7d3f
000000f0: b143 803f 10d2 813f 5709 823f 3d15 7b3f
00000100: 2faf 7d3f 096f 803f ab27 813f 578e 803f
00000110: 49e5 813f ee4e 813f a16c 813f d6d6 813f
00000120: 9f07 813f c143 7c3f c4f2 7e3f 0cfa 7b3f
00000130: cc2c 7d3f 990f 813f fb1d 7e3f c526 803f
00000140: b9f3 7c3f 0568 7e3f a60c 7e3f 19c6 7d3f
00000150: d122 7d3f cf60 7e3f 6b63 803f 75f2 803f
00000160: ea23 7d3f 06d7 803f 12bb 7e3f 044a 803f
00000170: e332 803f ce50 7c3f 4391 7b3f c0f6 7d3f
00000180: 5f16 7d3f e601 803f dd11 7c3f ae81 803f
00000190: 3386 7d3f 23e9 7f3f c4c2 7d3f 1993 7f3f
000001a0: cd8f 7e3f 65da 7d3f 9a6f 7f3f 1a0f 7d3f
000001b0: c8f5 7e3f 7e61 803f 3138 7f3f 8c7c 7c3f
000001c0: 7e6c 7d3f abf4 7b3f 061f 7e3f 6ea2 813f
000001d0: 7629 803f 0e79 7e3f 0ed7 7c3f 291b 823f
000001e0: fa42 803f e790 7c3f 9442 7d3f c8c6 813f
000001f0: a48a 7c3f f81b 7d3f 4e2b 803f cb0c 7e3f
0.9921605 0.9901843 0.9950119 0.9923013 0.99079794 1.0021431 0.9911273 1.0072148
1.0166804 0.9973443 0.98823655 1.0066332 1.0154328 1.000632 0.9969192 0.9880776
1.0072631 1.0091798 1.0105004 0.9856551 0.9944798 0.9987095 1.0110136 1.0017923
0.98741895 1.0092803 0.9904146 1.0026565 1.0008259 1.0119288 0.99242777 0.9887767
1.0184647 1.0095739 1.0110462 0.9975433 1.0080024 0.99954695 0.9834655 0.98704493
1.006987 0.9897999 0.996569 0.9983686 1.0170293 0.98720604 1.0130005 1.0004369
0.99362004 1.0015501 0.9971209 1.005028 1.0024877 1.0139284 0.98655343 0.99009496
1.0002155 1.0064095 0.99328387 0.98984003 1.0020658 1.0142231 1.01591 0.9807928
0.99095434 1.0033885 1.0090231 1.0043439 1.0148097 1.0102212 1.0111276 1.0143688
1.0080451 0.98540884 0.9958918 0.98428416 0.9889648 1.0082885 0.99264497 1.0011832
0.9880939 0.9937747 0.9923805 0.991304 0.9888125 0.9936647 1.003034 1.0073992
0.98882926 1.006562 0.99504197 1.0022588 1.0015529 0.985608 0.98268527 0.99204636
0.9886226 1.0000579 0.9846476 1.0039575 0.99032897 0.99965113 0.99125314 0.9983383
0.9943817 0.9916137 0.99779665 0.9885117 0.9959378 1.0029752 0.99695116 0.98627543
0.9899367 0.9842021 0.9926609 1.0127695 1.0012653 0.99403465 0.9876565 1.0164539
1.002044 0.98658603 0.98929715 1.0138788 0.9864905 0.988708 1.0013216 0.9923827
