trained_model/2025-06-19_03-14-51/saved_model_2025-06-19_03-14-51.pkl (torch, 820950 bytes, 54 tensors)

conv_layers.0.f_lin.0.weight f4 [128, 5]
00000000: d745 2d3e 0bbd 45be a045 263e 0d90 573e
00000010: f281 2c3e 4384 103e 77ce 123c c2da 023c
00000020: 1d22 af3c 6c2f 583c 94ee 40bb 5c08 3a3e
00000030: f4d9 0fbe 7c40 b1bd 2bbf 57be b4d8 3fbd
00000040: f063 96bd 933f 4e3d 1b5a f3bd 4479 fc3d
00000050: b9ad 043d 03b9 25be c510 fbbd e5fc 0dbe
00000060: 6113 45be c9f4 9ebd 934f 85bd ce84 59bd
00000070: eae2 193e a3ad 7fbb 3efe 90bd 15e4 1c3e
00000080: e5a7 1b3e ca98 32bd b953 68bd fc1a 243d
00000090: cbda 29be 7aed 57be 3803 483e a2af 893d
000000a0: 9432 da3d f0e8 4d3d d536 4d3d 8f4d fabd
000000b0: 1351 f6bd af43 f53d 5d6e e63d a85f 843b
000000c0: c727 4bbe 1d6b 6ebe 8e9a 103d 9d2a 1d3e
000000d0: 6e05 283d a6cc a93d 2ba3 143d 5b8d 363e
000000e0: 0dde d83c 31ca cc3d dfec f83c b4e8 aabc
000000f0: e650 163e 3196 173e dca8 95bd 9db9 5abe
00000100: ff89 55be c115 f1bc c99e fbbd f0c1 bbbd
00000110: a41d 73bd 7ee8 c0bd 1ea9 373e e018 49bd
00000120: f7ab 103e 56e8 11be 5317 823c bcb0 3d3e
00000130: 23d4 d03d a843 a2bd b823 12be 2d37 afbc
00000140: 9f19 873c e8e0 393e 74fc b1bd b5f6 293e
00000150: 3504 2fbd f9f2 fabd 5708 2cbe d48c 0c3e
00000160: b46c 06be b9b4 423e abfe e13d ceff 34be
00000170: 63f3 193d 6b84 60bd 8f5f 62be 12de 87bd
00000180: 1078 903d 2efa dabd a3cd 22be ab27 45be
00000190: a39b 21be d78c 3e3e 9c8f 3bbe a3be b3bd
000001a0: bdeb 6bbe a29b 333e 7cf0 a8bd 715f 3b3e
000001b0: d33b 05be 87d5 85bd 9e1e 62be 25bc 6bbd
000001c0: 43d3 8bbc a5fc 90bc abf2 5bbe aa32 d03d
000001d0: 6768 493d 735b fa3c 7e56 8d3d bdb1 06be
000001e0: 9a0c c1bd d3dd 2a3d 852f 833d dfea 9b3c
000001f0: 4cee efbd 88ac 0ebc 7ebe 873d 7988 813d
00000200: 8ea3 1c3d ee8f f23d 1279 1fbe f0b7 29bd
00000210: 6e35 9ebd 5626 21be f30d 0dbe 0dcf 3f3d
00000220: 8f65 f6bd b83f 52bd c3bc 09be 58f5 a2bd
00000230: 61c5 6e3d e5ce 64be 429e 59bd 9823 693e
00000240: fa6f e03d 2862 dcbc bd86 74bb 1915 853d
00000250: 747a ef3d 5c71 df3d 6bad 24be 0c6d 263e
00000260: 1e51 3dbe 48d0 df3d 3226 333e a19c 6e3d
00000270: 9695 adbd 128a 83bc 9416 11bd 2a07 403e
00000280: 15a2 e3bd abcf fd3c 4b6c 353e 34cd 4f3d
00000290: 3de1 383e 8f82 19be 0775 583e 3d0c 18be
000002a0: 99d0 4e3e e68d cbbd 38a6 4fbe 7c41 07bd
000002b0: e1ac 913d eaa6 86bd edca e4bd 0c76 a13d
000002c0: 2565 503e e954 f1bd a7aa 5d3d 49b4 ba3d
000002d0: 1869 41be 1f75 b13b e996 e53d 6464 fdbc
000002e0: 9232 133e 3add 8bbd 5c99 cb3d f67c f73c
000002f0: d776 363e 9bbb 273e d25e 3c3e 7871 f1bd
00000300: 54bc 3fbe df37 b5bd f831 dc3d 1e71 a83c
00000310: 4b2e 6dbe 7cb6 edbc efeb 283e 0013 743c
00000320: 0ee7 423e eeb9 7a3d 078f 61be 8d95 093e
00000330: 812a 6bbd ebcd 3fbd 7802 bcbd 31b7 48be
00000340: fa46 79bd f25d 293e c22a 8bba cf96 313e
00000350: 05f9 37be 18dd ffbd 8d9e 99bd dcd6 983d
00000360: b650 b73d 2c29 0fbd 7b4b ef3d a14a 1f3e
00000370: 596b 513d 74f9 48be e026 23be b853 17be
00000380: 8e17 06be 9af4 1dbe f8d0 5abe 8d91 193d
00000390: 1689 663e 1dd3 d6bc 2fbb 0fbe ad11 ae3d
000003a0: 21ad 4ebd 9388 8f3c c067 81bd 6280 f53d
000003b0: 029c 3c3e fedc c33d 4ba8 87bd 3d7f 5b3e
000003c0: 7c03 933b c179 1a3d 1e71 e13d 9a97 2ebd
000003d0: 3c03 26be b8f9 06be dc7f 8dbd ae77 233c
000003e0: 3588 523e 432b 933c df22 493d 604f 05bc
000003f0: 4398 00bd 8163 c6bd 9cbb bfbd feaa fc3d
0.16921173 -0.19310395 0.16237497 0.21051045 0.16846445 0.14112954 0.008960358 0.007986726
0.021378571 0.0131949 -0.0029439079 0.18167251 -0.14047986 -0.086548775 -0.21069019 -0.046837524
-0.0734328 0.050353598 -0.11882421 0.12327817 0.032392237 -0.16183858 -0.12259058 -0.13866003
-0.19245674 -0.07761533 -0.06509318 -0.053105168 0.15027967 -0.0039013408 -0.07079743 0.15321381
0.15200765 -0.043602742 -0.05672047 0.040064797 -0.16587369 -0.21086684 0.19532478 0.067229524
0.10654178 0.050270975 0.05010112 -0.122218244 -0.120271824 0.119758 0.11251519 0.0040397234
-0.19839393 -0.23283048 0.035303645 0.15348287 0.041020803 0.08290987 0.03628842 0.1782736
0.02647307 0.099995025 0.030386386 -0.020862915 0.14679298 0.14803387 -0.07307598 -0.21359868
-0.20853423 -0.029429318 -0.12286145 -0.0916785 -0.05935444 -0.09419344 0.17935607 -0.04909599
0.141281 -0.14248785 0.015880262 0.1852445 0.10196712 -0.07923061 -0.14271438 -0.021388615
0.01649171 0.18152201 -0.0869073 0.16598018 -0.04272862 -0.122533746 -0.16800056 0.13725597
-0.13127404 0.19014253 0.11034902 -0.17675707 0.037585627 -0.054813784 -0.22106765 -0.066341534
0.0705415 -0.10692249 -0.15898757 -0.19253413 -0.15782027 0.18608414 -0.18316501 -0.087765954
-0.23039146 0.17539838 -0.08248994 0.18298127 -0.13011102 -0.06534868 -0.22081992 -0.057552475
-0.01706851 -0.017698595 -0.21479289 0.101659134 0.04917183 0.030561185 0.06901263 -0.1315374
-0.09426232 0.041715454 0.06405548 0.019032894 -0.117153734 -0.008708127 0.066281304 0.06324858
0.038241915 0.11843859 -0.15573528 -0.041435182 -0.07725035 -0.1573728 -0.13774852 0.04682832
-0.120310895 -0.0513303 -0.13450913 -0.07956952 0.058293704 -0.22344549 -0.053129442 0.22767484
0.10958858 -0.026902273 -0.0037311756 0.06498165 0.11693278 0.109102935 -0.16081779 0.16252536
-0.18487975 0.10928398 0.17495039 0.05825484 -0.08475797 -0.016057048 -0.035421923 0.18752733
-0.11114899 0.030982813 0.17717092 0.050732806 0.18054672 -0.1499121 0.21138392 -0.14848419
0.20196761 -0.09939174 -0.20278251 -0.033021435 0.07113052 -0.06574805 -0.111715175 0.07883844
0.20351084 -0.117837735 0.054117825 0.09116418 -0.18887746 0.0054155733 0.112104245 -0.030931659
0.1437476 -0.06829305 0.0994136 0.030210953 0.17818771 0.1638016 0.18395546 -0.117892206
-0.18724185 -0.08848547 0.10751718 0.020561751 -0.2316219 -0.02901768 0.16496252 0.014897108
0.19033453 0.061212473 -0.22027217 0.13435955 -0.05741358 -0.046827238 -0.091801584 -0.19601132
-0.060858704 0.16539744 -0.0010617601 0.17342685 -0.17966087 -0.12493342 -0.07500944 0.07462856
0.08950941 -0.034951374 0.11684319 0.15555812 0.051127765 -0.19626409 -0.15932798 -0.1477803
-0.13094923 -0.1542534 -0.21368778 0.037492324 0.22513232 -0.026223714 -0.14036249 0.08499465
-0.050458077 0.017521178 -0.06318617 0.11987378 0.18418887 0.09563635 -0.06623896 0.21435256
0.0044864994 0.03771377 0.110079035 -0.042625047 -0.16212171 -0.13181198 -0.06909153 0.009977264
0.20559771 0.017964965 0.04910552 -0.0081366 -0.031395208 -0.096869476 -0.093619555 0.12337302

conv_layers.0.f_lin.1.weight f4 [128, 5]
00000000: f66d e83d 85e6 da3d 3d6d f4bd 6ad9 e8bc
00000010: 1c7f 18be b1f9 51be ed16 403e d0c1 033d
00000020: 4279 39be a4b2 e93d f598 e53d 27d7 343e
00000030: d37a 2bbd 5dad efbd b2c4 213e 1e62 0cbe
00000040: fba3 22be bf82 523e 9e83 1bbe 1900 1fbe
00000050: a501 a1bd e493 b03d 8916 643d 43b1 303d
00000060: 6279 43be c781 033e 8077 c93d 8075 cb3d
00000070: 2b43 0abe 67bd 0a3d b48b 20be af49 f0bc
00000080: 7c6e 183e 3e7f 16be 3c13 02bd 108c 17bd
00000090: 9928 78bd 9f33 cc3c f630 f3bd efc7 513d
000000a0: d8f3 5e3d 2455 2fbd 8e79 2e3c 1582 4e3e
000000b0: 1b16 d6bd cd88 523d c166 453e 4e09 2f3e
000000c0: 082a 133e e752 37be e2da e63c 703a 923d
000000d0: 808d 293e fe0d 0dbe b11d 48be 5269 3e3d
000000e0: 303b a13d f530 3e3e b9f5 763c 04c9 a6bd
000000f0: cda8 2dbe f709 a23d 9b48 b53d a93a 0d3e
00000100: a7eb 8d3d 6d2c 1dbe d35c b63c ef14 07bc
00000110: 1782 25be 48c5 0cbd 157d f73d cfc9 12be
00000120: b35d 30be bbe4 2cbe 18e6 8f3d 6e99 e83d
00000130: 4154 56be bb6f 22be 6bc1 f93c 7c32 173c
00000140: 510c 2d3e 7041 72bd 9a67 913d 520c 31be
00000150: ad32 5f3b 3eb9 4fbe 371c 9d3c 8270 05be
00000160: 1d78 063e abf4 2fbd a88c 51be c2ee 453e
00000170: 1dc8 873d a716 3b3e 1ddc b9bd 1a71 dabd
00000180: 2069 1b3e 0391 07bd c919 3bbe dcd0 603e
00000190: 9032 d93d 951f 2ebe 2f51 75bd f976 3a3e
000001a0: 114a ba3d 0a5f 5fbe 3706 5ebe 899f b63d
000001b0: d489 04bc 788b 2bbd f525 20ba 0fd8 6bbe
000001c0: 1535 c03c 579f 47be fd8e 34be 752f 3b3c
000001d0: 2ced 363e 72ff 3a3e 11db fabd a445 0dbd
000001e0: 27b0 123e 521a b3bd 091a 06bd f71c 0b3e
000001f0: 0e4b 43bd 9554 95bd c802 95bd 7a16 83bd
00000200: 38de 053e f096 d3bc 2aa6 ce3d 04a4 043c
00000210: fa17 c93d 5b48 bd3d 9540 b23d e848 b6bd
00000220: 3bcf 01be 7a18 8fbd 1b6f ad3d 32a2 7dbc
00000230: a724 4abe 1927 3abe 0543 e13c 61c8 553c
00000240: e156 bf3c bc3d c93d f50b 93bd b34d 5dbd
00000250: cf26 b93d 4f2a 08be a0c2 4cbc 4cc5 3cbe
00000260: 0298 d63d 6190 a83c 2b6e 3bbe 7841 123d
00000270: 7c26 503e 8228 853d 8a7e 20be 1189 5d3d
00000280: 9494 1a3e cfcf 133e b8c3 2fbe 1eb5 6d3c
00000290: fac4 963c 5758 71bd d9c0 eabb ccdd 423e
000002a0: b6ee 19be 8700 143d 7436 ce3d 7565 0abe
000002b0: 5970 3b3e bf5a 39be 7d94 b93d cb79 62be
000002c0: e2f8 2fbe 66e5 283e d5a7 1bbd 7467 6fbe
000002d0: ba42 0dbc e579 a63d 7999 5e3d c626 153d
000002e0: 400d e83d cce9 58be d52b d23d 950b 6a3c
000002f0: 4db1 273e b3db 1c3e 3bfe bd3d 7ec3 2dbe
00000300: 25ff 903d 6b25 633d 1f3e 5dbe 337b 7c3c
00000310: 34c1 793b f76c 93bd b0cb 22be 0734 0fbd
00000320: 9c4c 12bc 6c25 033d ea9f 133d a0c2 3b3e
00000330: 3f07 e93d a0d9 983d 298f c43b 84c5 0c3e
00000340: 7ce5 363e fc54 b13d 23d8 fa3d 04a9 0abe
00000350: b22c 47bd 7b48 bfbd 4af6 de38 be42 47be
00000360: 40bb b3bd d349 1a3e 28bc 55be 074b 00bd
00000370: fee6 6c3c 99a7 d23d 36aa 893c 12bf afbb
00000380: ed26 f63d e23e 643d 5164 e43d fb9c efbd
00000390: ce4c 013e 012a 0b3e 0754 4dbe ae10 c0bd
000003a0: d0fb 2bbe 311d ee3d bafe bbbd 4823 05be
000003b0: 5474 61be d934 0d3e b517 a7bd b090 303e
000003c0: 1dd8 bc3c 94c2 1dbc 0a5b cfbd c536 04bc
000003d0: c9d0 3dbe 4169 e1bd 901c 083e 4026 afbb
000003e0: 259c 0e3e 0090 4f3e 3cab 033e e87f 143e
000003f0: 5932 a3bd f85d 863d 598c 293e c47c d9bc
0.113490984 0.10688499 -0.11934898 -0.028423984 -0.14892238 -0.20505406 0.18758745 0.032167256
-0.18112662 0.11411026 0.11210815 0.17660199 -0.04186518 -0.11702988 0.1579769 -0.13709304
-0.15882866 0.20557688 -0.15186927 -0.15527381 -0.07861642 0.08621958 0.055685554 0.0431378
-0.19089273 0.12842475 0.09837246 0.09934521 -0.13502185 0.033872034 -0.15678293 -0.02933201
0.14885896 -0.14696977 -0.031756625 -0.03699881 -0.060585592 0.024926959 -0.11874573 0.051216062
0.054431766 -0.042805806 0.010649098 0.2016681 -0.10453435 0.051399995 0.19277479 0.17093393
0.14371502 -0.17902718 0.028180543 0.07140052 0.16557884 -0.13774869 -0.19542576 0.04648716
0.07872617 0.18573363 0.015073233 -0.081438094 -0.16958924 0.07912057 0.08851739 0.13791908
0.06929713 -0.15348978 0.022261059 -0.008244737 -0.16162907 -0.03436783 0.120844044 -0.14334796
-0.17223243 -0.16884129 0.07026309 0.113573894 -0.20930578 -0.15862934 0.030487737 0.009228345
0.1689923 -0.059144437 0.070998386 -0.17289856 0.0034057305 -0.20285508 0.019178493 -0.130312
0.13131757 -0.042957943 -0.20463812 0.1932936 0.066299655 0.1827036 -0.090751864 -0.10666104
0.15176821 -0.03309728 -0.18271555 0.21954674 0.10605347 -0.17004235 -0.059891876 0.18209447
0.09096158 -0.21813598 -0.21682058 0.08917148 -0.008089501 -0.041881055 -0.00061091717 -0.23031639
0.023462811 -0.19494377 -0.1763267 0.011424889 0.17863911 0.18261507 -0.12248815 -0.034490243
0.1432501 -0.087452546 -0.032739673 0.13585268 -0.047679 -0.07291523 -0.07275921 -0.064007714
0.13073051 -0.025828809 0.10090287 0.008095745 0.09819026 0.09242316 0.08703724 -0.089006245
-0.12676708 -0.069870904 0.08468457 -0.015480565 -0.19740544 -0.18178977 0.027497778 0.013048262
0.023356857 0.09826228 -0.07180015 -0.054029178 0.09040605 -0.1329739 -0.012497574 -0.18434638
0.10478212 0.020576658 -0.18303744 0.035706967 0.2032718 0.06501867 -0.15673271 0.054085795
0.1509574 0.14434741 -0.17164505 0.014508514 0.018404473 -0.058922138 -0.0071641025 0.19029921
-0.15032467 0.036133315 0.1006898 -0.13515265 0.18304576 -0.18101023 0.09061525 -0.22116773
-0.17184785 0.16493759 -0.038001854 -0.23379308 -0.008621866 0.08128718 0.05434558 0.03641393
0.11330652 -0.21182936 0.102622665 0.014284988 0.16376229 0.15318184 0.09277006 -0.16969106
0.07079915 0.055455606 -0.21605729 0.015410232 0.0038109543 -0.07198518 -0.15898013 -0.034961727
-0.008929398 0.03201811 0.036041178 0.18335962 0.11378335 0.07463384 0.0059985113 0.13747221
0.17860979 0.086587876 0.12248256 -0.13541037 -0.04862661 -0.093399964 0.0001063166 -0.19459054
-0.087759495 0.15067224 -0.20872557 -0.03132155 0.01445937 0.10285873 0.016804796 -0.0053633535
0.12019143 0.055724032 0.11151946 -0.116998635 0.12626955 0.13590242 -0.20051585 -0.093781814
-0.16795278 0.116266616 -0.091794446 -0.1300174 -0.22017032 0.13789691 -0.08158819 0.17242694
0.02305227 -0.009628911 -0.10124786 -0.008069699 -0.18536676 -0.11006404 0.13292146 -0.005345136
0.13926752 0.20269775 0.1285829 0.14501917 -0.079685874 0.06560892 0.16557445 -0.02654875

conv_layers.0.f_lin.2.weight f4 [128, 5]
00000000: 6ec2 323e 3370 06be 14bd 203d 055d 6a3e
00000010: 2acd 50bd a28e 85bd 37b1 c4bd e0e0 133e
00000020: 0ac9 3d3e b88f 183e bba8 d03d f952 08be
00000030: 8ee4 33be 150c 213e 2181 16bd 7650 7abd
00000040: b2a6 66bd 6460 2f3e 93e1 213e ca82 a4bd
00000050: cdb9 783b b63d 643e 709b 2e3e 380e 1b3e
00000060: 367a 113e a7ac 59bd d274 4fbd 4127 8dbd
00000070: 1c09 133e 271e 233e e0c7 4b3e 935a abbd
00000080: d628 46be 35ea 5d3e 18d7 92bc 35b0 abbd
00000090: 729e c73d 5173 f3bd e6ed 223e be6e 493e
000000a0: 5c73 b1bd 40c8 f03d cbed 503c 1d85 52be
000000b0: 33d7 bd3d 0b21 273d 56e1 74bb d72f 193e
000000c0: cb31 3d3d c232 de3d 2daf 3d3e ea0b 133e
000000d0: ec18 01be 7311 273e c014 9c3d f5df 88bd
000000e0: aaff 493d cc50 edbd 7d37 ab3b 330b 153e
000000f0: 127f c53d 5303 adbc dab3 42bc 660f a43c
00000100: b3cb f13c 90dc cd3b 3996 c0bd d1f4 1b3e
00000110: 3bc8 04be 5404 eebd 8852 6dbe 18dc 51bc
00000120: 6060 823d 6362 583e 3dcf e03d 78fa 0ebe
00000130: 618f 373d febf 033e f754 433e 5451 4f3e
00000140: 3766 1a3e f59d 3dbe 87e6 47be 1680 573e
00000150: 07ef 853b b704 ec3c 34f6 653d ee12 57bc
00000160: f75b d2bc 85b3 17bd 5b72 b33d b537 cf3b
00000170: aa23 243d a94d 363e 14ca 18be 4b06 24be
00000180: 05b3 2dbe 9fc8 113e 506c 74bc e3f5 6abd
00000190: 871a 98bd f681 1ebe aa5b 6abe a8f2 8fbd
000001a0: 13a9 65bc df14 2dbd b120 0dbe eb7a f7bd
000001b0: e837 da3d 479d f53d e1bf 07be 43bd 3f3e
000001c0: 1edd d3bc 1dc1 c0bd 0d79 19be a975 1d3d
000001d0: 6cd3 a9bd d0e7 373e 0896 053e ea50 87bd
000001e0: 3307 18be a4cb 55be 3b28 103e 13db 1fbd
000001f0: 4638 563d dda9 8ebc 5e0b 5e3e 5564 1bbe
00000200: 7107 073e 180d 14be 6509 bb3d 9a71 cd3d
00000210: 2184 b7bd 74f1 383e 50f4 0e3d 9065 583e
00000220: 3103 53bc b28f 3f3e 7578 21bd 9250 ce3d
00000230: b450 60be 961b a03c 9a1d 163d 133d 1d3e
00000240: 975f 153e be13 153e d53c 463d 8b67 bd3c
00000250: f7f8 393d 13b4 4d3e 790c 353e 29f5 53be
00000260: 91b1 443d 2710 d33d 0d03 ecbd 5273 5b3e
00000270: 0af1 fdbd 3a0c bb3d 35a5 3ebe 65ae 5fbe
00000280: c015 42bd 3939 463e a5bf cfbd 9ba4 31bd
00000290: ab14 09be 0c02 84bb af99 37bd 93db b2bd
000002a0: 660d e2bd 8136 95bc 84d1 453d 22f3 023e
000002b0: 72ca 023d 945e db3d 89f6 3f3e fbfe 273e
000002c0: a978 153a 9af6 26be 81d9 fe3c 535d 38be
000002d0: 52ab 043e 8fe0 cd3d 07e5 063e f0e5 88bb
000002e0: 94ec 9abd 93b4 413d 91a9 0dbe 7dbb 2abe
000002f0: 7c3f 993d e989 073e 3643 2abe e182 39be
00000300: 1de0 193d 7bd0 bc3d 1ff2 8f3d a037 9cbd
00000310: b02a 9cbd 2187 90bc f12e 893d 1f20 74ba
00000320: 882d 343e 172f 263a 784f 033e 7a62 3d3e
00000330: 5450 0ebd 966e 223e 47d9 2c3e 8784 5e3c
00000340: f524 4d3e 95a9 03be c7d1 05be 44ec 183e
00000350: 73c0 e63d 12f2 2cbe 6135 33be 1974 163d
00000360: d7a3 473e cd72 493e 48ea d03d 6d94 973c
00000370: a888 433e b793 25bd 1d75 8c3d 4003 043d
00000380: b3c7 8a3b ff6d 31be cf54 d43d c723 a73d
00000390: 2705 413e bb5e 92bc 937e a53c 3964 903c
000003a0: 81cc a4bd 5d7b 99bc 77a3 003e e675 b93d
000003b0: 400b e73d 02cb 1bbe f295 83bc 995f 64bd
000003c0: f23f e53d 6159 8ebd b37d 5abe e7ec 693d
000003d0: c66b b13c 0996 163e d8e6 b13d 8abf d9bd
000003e0: 06b3 c93d c778 9bbd c01e 3a3d 8604 223d
000003f0: a64b 0fbe df28 f5bd 2d3a 04bd cbc0 113e
0.17456982 -0.13128738 0.03924282 0.22887047 -0.05097691 -0.06521346 -0.096041135 0.14441252
0.18533722 0.14898574 0.10188433 -0.13312902 -0.17567655 0.15727265 -0.03674424 -0.06111189
-0.056311317 0.17126614 0.15808706 -0.080327585 0.0037952543 0.22289166 0.17051482 0.15142143
0.14206776 -0.05314317 -0.050648518 -0.06892253 0.14358944 0.15929471 0.19900465 -0.08366885
-0.19351515 0.21671374 -0.01792483 -0.08383218 0.09747018 -0.11887229 0.15911064 0.19671151
-0.08664581 0.11756945 0.012752007 -0.20558591 0.092695616 0.040802997 -0.0037365756 0.14959656
0.046190064 0.10849525 0.18523856 0.14360014 -0.12607163 0.1631525 0.07621145 -0.066833414
0.049316086 -0.115876764 0.0052251206 0.14555053 0.09643377 -0.02111975 -0.0118837 0.020026874
0.029516077 0.0062823966 -0.09403653 0.15230109 -0.12967007 -0.11621919 -0.23176014 -0.012808822
0.06366038 0.21131282 0.109770276 -0.13962734 0.04481447 0.12866208 0.1907538 0.20245868
0.15078054 -0.18517287 -0.19521533 0.21044955 0.004087332 0.028810842 0.056143 -0.013127072
-0.025678618 -0.037036438 0.08762046 0.0063237795 0.040073074 0.17803062 -0.14920837 -0.16018026
-0.16962822 0.14236687 -0.014918402 -0.057363402 -0.07426935 -0.15479264 -0.2288653 -0.07028705
-0.014017361 -0.042256232 -0.13782002 -0.120839916 0.106551945 0.11992889 -0.1325679 0.18724541
-0.025862273 -0.094118334 -0.14987583 0.038442288 -0.08292279 0.17959523 0.13045514 -0.0660723
-0.14846496 -0.20878464 0.14077847 -0.039027285 0.05229976 -0.017414981 0.21684024 -0.15174992
0.13186432 -0.1445812 0.09132651 0.100314334 -0.089607485 0.18060857 0.034900963 0.21132493
-0.012879179 0.18707159 -0.039421517 0.10073961 -0.21905786 0.019544404 0.036649324 0.15355329
0.14587246 0.14558312 0.048397858 0.023120662 0.045403447 0.20088224 0.17680539 -0.2069899
0.048020903 0.10305815 -0.115240194 0.2143071 -0.1239949 0.091331914 -0.18617709 -0.2184387
-0.047384024 0.19357766 -0.10143975 -0.04336987 -0.1338679 -0.0040285643 -0.0448243 -0.08733287
-0.11037712 -0.018214466 0.048295513 0.1278806 0.03193135 0.10711399 0.1874639 0.16405861
0.00057018787 -0.16305009 0.031109573 -0.1800435 0.12955979 0.10052597 0.13173304 -0.0041778013
-0.07564655 0.04729135 -0.13834216 -0.16673084 0.07482812 0.13236202 -0.16627201 -0.18116333
0.037567247 0.09219452 0.07028603 -0.07627797 -0.076253295 -0.01764256 0.066984065 -0.0009312648
0.17595494 0.00063394144 0.12823284 0.18494597 -0.034744576 0.15862498 0.1687976 0.013581402
0.20033629 -0.12857659 -0.13068305 0.14933878 0.112671755 -0.16889217 -0.17500831 0.036731813
0.19496094 0.196727 0.102009356 0.018503392 0.19095099 -0.040424075 0.06858275 0.032229662
0.004235232 -0.17327116 0.103677385 0.08161121 0.18849622 -0.017867437 0.020201957 0.017625915
-0.080468185 -0.018735582 0.12562357 0.090556905 0.11281443 -0.1521416 -0.01606271 -0.05575523
0.11193837 -0.069506414 -0.21337013 0.057110693 0.021657836 0.14705671 0.08686608 -0.10632236
0.09848599 -0.07591396 0.04543948 0.039555095 -0.13993701 -0.11970686 -0.032282043 0.14233701

conv_layers.0.params.0 f4 [128]
00000000: 434e 803c db1a 80bc bfff 62bc cc64 083c
00000010: 51fb 813c af6a ad3c c3b4 82bc eb01 9a3b
00000020: 9567 dfbb 0fd7 80bc 8191 9a3b a1ad 9abc
00000030: 648b 87bc ed19 0d3b 3043 babc b0f5 9ebc
00000040: eb64 1a3c cd2b 233c a897 d33c f113 613b
00000050: ac1c b0bc 2ab6 c8bc da00 983c 892d f93a
00000060: 62fc b13a 6291 6b3c 430d 9f3a 159a a03c
00000070: b32a 7a3c 24f9 3fbb 1128 5abc ce28 e43b
00000080: dafa b5bb 9f99 d439 d342 523b fb29 413b
00000090: 2bc4 97bb a767 423c e57d 6d3c 6727 b83c
000000a0: 83a0 0abc c646 dd3a e1d2 afbc 0642 32b9
000000b0: c436 c93c 2894 a23c 6dd4 12bc 64e9 60bb
000000c0: fd26 52bc 891c 1f3c 4a98 4d3c df18 6a3c
000000d0: f2a2 003b a8ec c8bb 27c7 433c 4eac dbbb
000000e0: 950d dabc f922 4c3c 1871 a9bc 80af cabc
000000f0: 8b5a 113c beee 0d3c dce9 963c 41fa c4bb
00000100: 7188 55bc e2b5 833c e3ab 91ba d337 16ba
00000110: dc45 f93b f69c 5539 58b4 063c f6c7 223c
00000120: 3b3f 94bc f869 8ebc fba2 b03c 30a1 cbbc
00000130: 196b 0cbc 2e3f 393c 5286 4a3c 078f 023b
00000140: 6362 843b 06dd 9038 f08e 43bc 64bc a9bc
00000150: ce5d 9e3c 32ff 6abc 8bea 613c 4c1f 7ebc
00000160: edef 2f3c 3c3d 54bc 8ce1 97bc 9320 823c
00000170: 7e83 253c e29e e3bc e186 b0bb 336c 18bc
00000180: d40a d93c ff09 f83a 4481 fd3b 855f a73c
00000190: e644 a03c abf1 75bc ec31 48bc 33ae b9bc
000001a0: b9ce 463c ffa8 13bc c364 afbc 72f0 62bb
000001b0: 2dc3 333c 4052 b53c 093e 06bc 7d3a c53c
000001c0: 80e4 b5bc 1eb7 0abc 8352 903b 37d5 66bc
000001d0: 626e 863c 36d7 24bb 87d1 863c 7224 eb3b
000001e0: 1ab7 24bb c71b 593c b3ab c6bc 5bfd fa3c
000001f0: 15aa 833c 5c85 5abc ba2b 96bb 618a bbbc
0.015662318 -0.015637806 -0.01385492 0.008324813 0.015866907 0.021169035 -0.015955335 0.0046999357
-0.006817768 -0.015727548 0.0047170524 -0.01888162 -0.016545959 0.0021530346 -0.022737116 -0.019404262
0.009423475 0.009959173 0.025829151 0.0034344161 -0.021498047 -0.024500925 0.018555094 0.0019010763
0.0013579244 0.014377924 0.001213469 0.019604722 0.015268969 -0.0029292786 -0.013315217 0.006962872
-0.0055535855 0.00040550248 0.0032083287 0.0029474485 -0.0046315393 0.011865533 0.014495348 0.022479726
-0.008461121 0.0016882054 -0.02146286 -0.00016999998 0.024562247 0.019846037 -0.008961779 -0.00343188
-0.012826678 0.009711393 0.012548516 0.014288156 0.0019628373 -0.0061317272 0.011949337 -0.00670389
-0.026617805 0.01245951 -0.02068381 -0.024741888 0.008871685 0.008662878 0.01842206 -0.006011278
-0.013033018 0.01607794 -0.0011113848 -0.00057303644 0.007607205 0.00020371735 0.008221708 0.00993537
-0.018096557 -0.017384514 0.02156209 -0.024857134 -0.008570456 0.011306567 0.012361126 0.0019921677
0.004040049 6.907624e-05 -0.011935934 -0.020719714 0.019331839 -0.01434307 0.01378883 -0.015510391
0.010738355 -0.012954053 -0.018540166 0.015884673 0.010102151 -0.027785722 -0.0053871726 -0.00930314
0.026494421 0.0018923878 0.007736357 0.02043129 0.019564103 -0.015011231 -0.012218934 -0.022666072
0.012134247 -0.00901246 -0.021410352 -0.003462818 0.0109718265 0.022133946 -0.008193501 0.024075741
-0.022203684 -0.00846651 0.0044043674 -0.01408892 0.016410057 -0.002515269 0.016457332 0.0071759755
-0.002513355 0.013251252 -0.024251794 0.030638387 0.016072312 -0.013337459 -0.0045828493 -0.022893133

conv_layers.0.params.1 f4 [128]
00000000: 1201 72bc 9736 bbb6 6063 fbba 35ce b438
00000010: 740d 1abc f7d4 f7b4 8dcc fcb7 5acd adbc
00000020: 7e89 28b7 2d82 0cbc 8af7 ae37 8944 4cb9
00000030: 0dde ceb8 f890 8ebc 2568 acba a1fa 31b8
00000040: 39c0 87b8 d8c7 1dbc f989 02ba cba8 8fbc
00000050: 4f87 d3bb 0b4d 1638 3295 b738 7c93 e1bc
00000060: 21cc 89b7 b8ec 3dbc 24d2 81bb a015 ccb8
00000070: 1385 d6b7 6bb1 48ba 92fb 6ebc d242 a3bc
00000080: 143d 06bc 22ef 1f38 b1aa 96ba 81c2 fab9
00000090: b58f 8abb 8828 2f38 3903 18b8 3efa e4bc
000000a0: d96f 3bbb 09d6 51b7 8a64 bcb7 0699 9bb9
000000b0: ec4b adbc 4ce2 32bb 487f e3bb a2b1 2eb9
000000c0: 51d5 d7bb cd74 77b8 0e6f 4dbb 0fcb 55bc
000000d0: 77f1 bbbb ccd7 f8b7 4c76 4aba 4478 9138
000000e0: a56f 9ebc 8a07 5bb9 7282 91bb 7bc4 2938
000000f0: ab94 5c37 9764 53bb 8aa7 0fbc a11a 80bc
00000100: 8dfe 36bc e783 97bc 5534 b4bc 1a97 09bc
00000110: ee09 99bb c82d 28bb 0d6d 84b8 a8c4 dbba
00000120: 21da 2cbc 50f3 46bc d796 6cbb cb73 22ba
00000130: 045a 86bc 0952 6e37 6aca 27bc 9d6c debb
00000140: b984 89b6 293d e1bb e9a9 4dbc 492a d5b9
00000150: c10a 02b8 1ed5 a1bb 60f6 07bc f8ef 81bc
00000160: 46b2 d7b7 0094 e7b7 084e d9b7 95ac 81bc
00000170: d6e9 16bc e234 9ebc 4cbb 56b7 426d 9abb
00000180: e891 34b9 3e5b ffb6 1ac9 26bb 0469 78bc
00000190: d12f 2eb9 b246 79b8 d57b 7eb6 0e40 a6ba
000001a0: 31b2 8d38 3f34 1eb7 c87d afbc b94c e6b7
000001b0: 499d 45bb 3efc 5dbc bf3a aaba 893b 4bbc
000001c0: 2ce8 bcb7 fcd4 0bbb 8a85 8abc 28bf 4138
000001d0: cda1 5dba bbe0 c5bb 3240 9f37 6501 fc37
000001e0: e013 27bc 1b59 98b7 d625 2938 9ee7 e1bb
000001f0: b1c6 49bc e7ec 98ba 037f 0dbc 2e62 be37
-0.014770763 -5.5793894e-06 -0.0019179396 8.621478e-05 -0.009402622 -4.6162288e-07 -3.0135992e-05 -0.021216083
-1.0045593e-05 -0.008575958 2.0857686e-05 -0.00019480487 -9.864206e-05 -0.01740311 -0.0013153596 -4.2433505e-05
-6.473106e-05 -0.009630166 -0.0004979666 -0.017536541 -0.006455339 3.583454e-05 8.75391e-05 -0.027536146
-1.6426728e-05 -0.011592083 -0.0039618183 -9.731506e-05 -2.5572755e-05 -0.0007655832 -0.014586346 -0.019929323
-0.008193273 3.8131264e-05 -0.0011494962 -0.00047828633 -0.004228557 4.1761e-05 -3.6242625e-05 -0.027951356
-0.0028600602 -1.2507205e-05 -2.2458164e-05 -0.00029677915 -0.021154366 -0.0027295528 -0.0069426633 -0.00016660106
-0.0065867086 -5.899817e-05 -0.0031346711 -0.013048901 -0.005735572 -2.9664392e-05 -0.0007723316 6.93654e-05
-0.019340346 -0.00020888276 -0.004440599 4.0475727e-05 1.3147636e-05 -0.0032256 -0.008767972 -0.015637698
-0.011169088 -0.018495513 -0.02199761 -0.008397842 -0.004670373 -0.0025662053 -6.314563e-05 -0.0016766982
-0.010550053 -0.012142971 -0.003610065 -0.0006197064 -0.016400345 1.4205006e-05 -0.01024113 -0.00678785
-4.098369e-06 -0.006873746 -0.012552717 -0.0004065803 -3.100443e-05 -0.0049387356 -0.0082984865 -0.015861496
-2.5713012e-05 -2.7606264e-05 -2.5904752e-05 -0.015829364 -0.009211024 -0.019312326 -1.2799002e-05 -0.0047127316
-0.00017220492 -7.610214e-06 -0.0025449456 -0.015161756 -0.00016611746 -5.9432066e-05 -3.792103e-06 -0.0012683885
6.756595e-05 -9.429698e-06 -0.021422282 -2.7453863e-05 -0.0030153564 -0.013548909 -0.0012987478 -0.012404331
-2.251946e-05 -0.0021336665 -0.01690938 4.6192814e-05 -0.0008454591 -0.006038753 1.898417e-05 3.004139e-05
-0.01019761 -1.8161305e-05 4.0327977e-05 -0.006894066 -0.012315438 -0.0011667282 -0.008636239 2.2695483e-05

conv_layers.0.params.2 f4 [128]
00000000: 210b c037 3c24 f438 33e0 6137 167b edba
00000010: d118 2438 f9ea 24bc 4a61 eab7 dc0d 85bc
00000020: a3a1 c0bc 6d0a 2eb8 88ac c3bb ebac a5bb
00000030: b78d 2abc 35d4 23bc 4b6d 4838 0ecb 07bb
00000040: 8572 3238 43cf 35bc dbce f3bb 2aef 2dbc
00000050: 3fc9 a137 8b91 9738 c087 35bb 8db0 99ba
00000060: e6a0 9b38 9762 7ebc b145 09bc 435b 9fbb
00000070: 079c e7b8 845e 32ba e970 9d38 c944 ebb6
00000080: d252 d0bc 9db8 f8ba 73cf 4cbc 3fb0 2dbc
00000090: 07b9 09bc a856 8938 f85b 29b8 a55d 8cbc
000000a0: 2543 e0ba 4f4e 8f38 090f 1dba a5ab c7ba
000000b0: 73ae e2b5 196e 76bc 26ef 34bc faaa c0ba
000000c0: 5e99 1439 563b 5dbb 1d3d b6bc 0060 95bc
000000d0: a3ab 0c38 449e 1bbb 1b43 9eb7 7430 85ba
000000e0: fb17 b9bc 1c58 37ba f66b abbb 8783 f9bb
000000f0: 7393 28bc 06ad efba bd32 33bb c7ad 4abc
00000100: d0c9 44ba e451 abbb 3080 72bb 8345 c0bb
00000110: 8b17 b4bb e631 4ebc ffd6 0bba d3b0 a2b7
00000120: 0e25 9138 7d8a 8d37 17bd 90bc 9761 babb
00000130: 7f02 26b9 67c2 81ba cb8a 1b39 47db fcb7
00000140: 5b8a fe38 2d6c c138 37ef b0bc 4bd5 c9b7
00000150: 23f6 aa38 d41c b538 4089 7abc db1e e4ba
00000160: 3fe0 c4bb d6fe 08bc f7ea 1e39 aee6 20b8
00000170: 3e9e 80bc 3158 e9b7 6026 82bb e51f 8c38
00000180: 13a4 ea38 f772 ea38 a874 f7b7 e7d5 72bc
00000190: 1c59 aabb 812a 9dbb 4db3 00bc a17a 26b7
000001a0: 7664 0cb8 0f02 9137 5b8d 3f38 9f51 4db7
000001b0: 9446 8db6 daec e6b9 68ff a9bb c6dc 60bb
000001c0: e4d5 ffb7 78b9 8dbb 7922 a537 1691 0dbc
000001d0: cdb2 0cb8 bbdd b5bc 64e8 4938 99f2 42bc
000001e0: 7ad4 ddbc da32 0fb7 afbf 90b9 4057 dabc
000001f0: dcc4 93bc b78d 63b7 a783 1fbb d4b5 95bc
2.2893366e-05 0.00011641576 1.34632455e-05 -0.0018118348 3.912376e-05 -0.0100657875 -2.7940278e-05 -0.01624196
-0.023514574 -4.1494543e-05 -0.005971495 -0.005056014 -0.010409764 -0.009999325 4.7785503e-05 -0.0020720395
4.254516e-05 -0.011096778 -0.0074404306 -0.010616103 1.9286408e-05 7.2273506e-05 -0.0027699322 -0.001172559
7.4209456e-05 -0.015526435 -0.008378432 -0.004863174 -0.00011044001 -0.0006804245 7.5073745e-05 -7.0115534e-06
-0.025430117 -0.0018975917 -0.012500632 -0.010601102 -0.00840593 6.54881e-05 -4.0378392e-05 -0.017134497
-0.0017109854 6.8333575e-05 -0.0005991315 -0.0015233649 -1.6889084e-06 -0.015040898 -0.011043346 -0.0014699392
0.00014171514 -0.003375729 -0.022245938 -0.018234253 3.353845e-05 -0.0023745457 -1.8866316e-05 -0.0010161535
-0.022594443 -0.00069940253 -0.005231376 -0.0076145562 -0.010289061 -0.0018285818 -0.0027343475 -0.012370533
-0.0007506879 -0.005228268 -0.0037002675 -0.0058676614 -0.0054959706 -0.012585139 -0.0005334466 -1.9394245e-05
6.921041e-05 1.6872998e-05 -0.01766829 -0.005687903 -0.00015831924 -0.0009899855 0.00014833656 -3.014285e-05
0.000121374345 9.2231065e-05 -0.021598442 -2.406039e-05 8.152078e-05 8.636122e-05 -0.015291512 -0.0017404215
-0.0060081775 -0.008361539 0.00015155585 -3.836181e-05 -0.015700456 -2.7816832e-05 -0.00397186 6.681661e-05
0.00011188551 0.000111794034 -2.9499017e-05 -0.014821506 -0.005198611 -0.0047963266 -0.007855249 -9.922923e-06
-3.3472163e-05 1.7286306e-05 4.5669596e-05 -1.2237956e-05 -4.210344e-06 -0.00044045487 -0.0051879175 -0.0034311279
-3.049797e-05 -0.004325088 1.9685585e-05 -0.008640548 -3.3545122e-05 -0.022200456 4.8138565e-05 -0.01189866
-0.027078856 -8.535304e-06 -0.00027608636 -0.026652932 -0.018038206 -1.356325e-05 -0.0024339946 -0.018275179

conv_layers.0.params.3 f4 [128]
00000000: 3241 103c 97c7 2fbc e2f7 8e3c 71ea 803b
00000010: c9ef 823c ebf7 b33c d41d 39bc cff6 993c
00000020: 5803 a4bc 25f2 f3bb b151 ebbb 20d7 8ebc
00000030: a0b2 3f3c eab7 69bb 43d7 96bc f6f1 49bb
00000040: 23e6 723b 4b6e 243c 74f1 8f3c f995 8a3c
00000050: 5212 3e3c b2bb 86bc 9f69 6c3c ab67 98bc
00000060: 991e 4abc e9f2 69bc 6811 963c 6702 6e3c
00000070: 82f2 9d3c 685f a1bc 5cc8 813c e7ab 1abb
00000080: c945 b4bc 5392 703c d777 bd3b 75d9 9fbc
00000090: 9157 81bc 33ef 90ba 73d9 803c d259 a83c
000000a0: 416e 043a b1fd 62ba 9ca0 583c 262c 0fbb
000000b0: 83cf 833c e7bf 443c feee 9d3c 5c47 a3bc
000000c0: 32a7 79bc 16ae 673c 7e76 db3b b762 5a3b
000000d0: b64c 363c 8975 e1bb 44ac 183c 0b09 ffbb
000000e0: be45 033c 9ca0 833c cacc 86bc d863 88bc
000000f0: 340e 05bc c78d a9bc 95b6 2e3c 4b1e 853c
00000100: 9308 223c 9aef 543c e7c7 58bc d95f 8fbc
00000110: c3cf 8a3c 6809 773c 22ca bb3b 17b8 353c
00000120: e97a d2bb a027 c8b9 1331 403c 372d b0bc
00000130: 1876 30bc 1c79 dfbb 5538 9e3c 08a5 18bc
00000140: 7282 493c ceb7 aabc 7e4e aabc 18c6 97bc
00000150: 4249 efbb f5fb e8bb f7f1 873c 4829 10bc
00000160: 621d 6ebc 3c6b 3e3c 7c5c 0bbc a21c 923c
00000170: 2882 143c 93f2 a53b ef07 613c 7a03 9dbb
00000180: b354 983c 7501 8439 0db7 40bb 48f6 723c
00000190: a791 30bc 5813 90bc 02ee 823c a12d 323c
000001a0: 6ef4 33bc ba37 18bc 224f a3bc efe5 1b3c
000001b0: 10d3 e5ba bf36 8b3b 8d37 423c 3269 9a3c
000001c0: c4d0 b4bc fa78 cabb e598 84bc ba2b 81bc
000001d0: 1175 b23b 8e40 cabb 65b9 ad3c f7b8 60bb
000001e0: 3330 4bbc 218d 293c 8edf a5bc 685a 8b3c
000001f0: 5b06 323c 7e1d 9cb8 b7f6 98bc 6d9d c7bb
0.008804606 -0.010728738 0.017452184 0.0039341976 0.01598348 0.021968802 -0.0112986155 0.018794445
-0.020021126 -0.0074446374 -0.0071813692 -0.017436564 0.011700302 -0.00356626 -0.018413192 -0.0030814386
0.0037063442 0.0100360615 0.017571189 0.016917216 0.011601048 -0.016446922 0.014429479 -0.01860412
-0.012336397 -0.014279106 0.018318847 0.01452694 0.019280676 -0.019698814 0.01584261 -0.0023600997
-0.022005932 0.014683324 0.0057821083 -0.019512871 -0.015788825 -0.0011057615 0.015728688 0.020550642
0.00050518295 -0.0008659019 0.013221886 -0.0021846383 0.01609016 0.012008644 0.019279 -0.019931488
-0.015237616 0.014140626 0.006697475 0.0033322999 0.011126688 -0.0068804664 0.009318415 -0.0077830604
0.008012233 0.016067795 -0.016455073 -0.016649172 -0.008121062 -0.020697488 0.010663648 0.016249796
0.00988974 0.012996579 -0.013231254 -0.017501758 0.016944772 0.015077926 0.005730883 0.011091254
-0.0064233434 -0.00038176496 0.01173045 -0.021505935 -0.010770343 -0.0068198573 0.01931397 -0.00931669
0.012299167 -0.020839598 -0.020789381 -0.018527076 -0.007302434 -0.0071101137 0.01659487 -0.008798905
-0.014533373 0.011622246 -0.008505937 0.017835919 0.009064235 0.0050643175 0.013734802 -0.004791674
0.018595075 0.00025178088 -0.0029405982 0.014829226 -0.010776914 -0.017587349 0.015982632 0.010875137
-0.01098357 -0.00929063 -0.019935194 0.00951527 -0.0017534215 0.0042484696 0.011854065 0.01884899
-0.022072203 -0.0061789723 -0.016186187 -0.01576792 0.0054460843 -0.0061722463 0.021206567 -0.0034289935
-0.012401628 0.010348589 -0.0202482 0.017010882 0.010865773 -7.444153e-05 -0.01867233 -0.0060917647

conv_layers.0.params.4 f4 [128]
00000000: b7e5 82bc b015 7f3c b459 89bc c359 b43c
00000010: cdba 62bc 40b1 96bc dc94 5e3b 101c 2fbc
00000020: 0e61 d63b e654 3bbc 247a f7bb 6b12 39bb
00000030: c1db 813c 9d8c 71bb 881e 8a3c 59ff 873c
00000040: 545f 50bc db83 7cbc e2b7 7b3c 81af 31bc
00000050: 6d95 823c b050 4a3c cfd3 9b3c 1f1a 84bc
00000060: bda7 3f3b 488b af3a e59f 8cbc 63db 543c
00000070: 703a 933c 8f35 803c 97da 19bb 7532 9ebc
00000080: 89eb 4ebc 7253 9b3c 549d 03ba 967b 903c
00000090: 9a8d 45bc b406 833c 96c2 833c 5537 92bc
000000a0: b1e9 88bc 752c 6abc 47e7 8b3c 335f 6e3c
000000b0: d629 18bc 8a74 8ebc 05e6 c73b c5fa 793c
000000c0: 5966 5cbc 3ada e5ba de23 83bc 62dc 81bb
000000d0: 2722 11bb de6c e33b 5111 58bc dce3 0c3b
000000e0: bff5 893c 1259 383c c691 483c c11b b8ba
000000f0: 67a6 85bc 21c9 7abc 9066 023c 8d3f 623c
00000100: 5ffc b23b 7c09 6dbc 1a95 74bc 7028 d9bb
00000110: e350 e73b b556 b839 dda7 4e3b 4b0e 6f3a
00000120: d64e a6bc f2c8 733c ae6c 593c 2e0c 58bc
00000130: cad0 45bc d996 32bc ce4f 90bc 17aa 36bc
00000140: 0cb1 69bc 9215 193c d8fa 923b 651c 863c
00000150: 0a4d 083c 1146 abb8 78fd 6cbc cc55 b03b
00000160: ce8f 613c 5a7b b03b 2733 8bbc 8df8 a4bc
00000170: ff59 95bc d820 9abc 88c6 913b 7578 42bb
00000180: 2e37 473c 1fa0 95bc 1b2f a1bc 2285 a0bc
00000190: 48c0 073b f154 26bc 27b2 543c 91ac cc3a
000001a0: 15ce 233c 570d 103b dbde 58bc 1d77 89bc
000001b0: 6449 9abc 4520 a73b 92cb 8cbc 33b3 81bc
000001c0: 8ff4 5dbc b3f3 7a3c 494a 58bb 4cb0 843c
000001d0: fd5d 5a3c 0316 86bc 4421 6f3c 0d33 f13b
000001e0: 54ab 263b 820c b8bb a804 713c 38bc 8ebc
000001f0: 38d3 8fbc cc72 69bc 7a6d 16bc ac5e 833b
-0.015978677 0.015569136 -0.016766407 0.022015458 -0.013838482 -0.018395066 0.0033963239 -0.010687843
0.0065423315 -0.011433816 -0.007552402 -0.0028239738 0.015851857 -0.0036857494 0.016860262 0.016601251
-0.0127180405 -0.015412296 0.015363665 -0.010845066 0.015940392 0.012348339 0.019021897 -0.016125737
0.0029244267 0.001339295 -0.017166087 0.012991759 0.017972201 0.015650539 -0.0023476237 -0.01931117
-0.012629398 0.018960688 -0.0005020697 0.017637055 -0.012057686 0.015994407 0.016083997 -0.01784865
-0.016712995 -0.014292826 0.017078055 0.014549064 -0.009287318 -0.017389555 0.0061004185 0.015257542
-0.013452136 -0.001753635 -0.016008314 -0.0039630393 -0.00221456 0.006940468 -0.013187722 0.002149812
0.016840814 0.011251705 0.012241786 -0.0014046357 -0.016314698 -0.015306742 0.007959023 0.013809097
0.005462214 -0.014467593 -0.014928127 -0.006627135 0.007059203 0.00035159817 0.003153316 0.0009119256
-0.020301264 0.014879452 0.01327054 -0.013186498 -0.012073705 -0.010900223 -0.017616179 -0.011148951
-0.014263403 0.009343522 0.0044854693 0.016370961 0.008319149 -8.166966e-05 -0.0144647285 0.0053813215
0.013767196 0.0053857984 -0.016992165 -0.02013805 -0.01823139 -0.01881449 0.0044487156 -0.0029673849
0.012159152 -0.018264828 -0.019675782 -0.019594733 0.0020713974 -0.010152088 0.012981928 0.0015615394
0.009997864 0.0021980607 -0.013236727 -0.01678043 -0.018833824 0.0051002824 -0.017186914 -0.01583252
-0.013547077 0.0153168915 -0.0033003262 0.016197346 0.013328073 -0.016367918 0.0145953335 0.007360822
0.002543171 -0.0056167254 0.014710583 -0.017423734 -0.017556772 -0.014248561 -0.009181375 0.0040090885

conv_layers.0.params.5 f4 [128]
00000000: d866 643c 4f48 7a3c de14 6d3c a9c5 71bc
00000010: 8e29 7b3c de92 96bc a171 8b3c 0d7c fcbb
00000020: 7416 b7bb a8f6 1d3b bb0c 213c b2f3 cbbb
00000030: 076c 98bc 86ab ecbb d53f 833c cafa 8dbb
00000040: 1a0b 423c daf1 f7bb d49e a9bc e16c 20bc
00000050: ec80 903c 65d3 823c ed31 81bc 2087 4dbc
00000060: f3a0 813c 350c cdbb 622d acba f5e9 0738
00000070: 94bc 633c 2982 7bbc 2289 823c 6dc2 983c
00000080: 2adc 2abc f6f6 24bc d20c 72bc 6d74 09bc
00000090: c78e 36bc 9293 463c ecdb 663c cc26 20bc
000000a0: 7114 88bc 3bda 5a3c 7dde 733c 3bb5 08bc
000000b0: f36e a3bc 7d9e a3bb 3554 6dbc ba66 79bb
000000c0: a079 9d3c 49fb b1bc 774e 9abc 749f 8ebc
000000d0: 1c1c 8cbb 99be 6bbc a8cb 3d3c ff68 d93b
000000e0: 4d0f 4ebc 21d3 4cbc 576c 233c 2712 5d3b
000000f0: e0dc 543a 5583 543c b0bb 59bc 41b0 4f3b
00000100: 3aef 4cbc 07ae 9abc 812d 70bc efa5 e23b
00000110: 3af7 3abc 4d70 96bb 9d38 6ebc e7b3 f4bb
00000120: 1810 983c b446 e73b 883e afbc dfb2 6a3b
00000130: a799 2f3c 0d8c 85bc 1847 88bb fd75 683c
00000140: 3828 4e3c b70b 6c3c 4a07 8abc 5803 673c
00000150: 4a1b 843c e3a6 5e3c 2e11 623c ab72 93bc
00000160: c733 dbbb 2fe1 82bc 1ad0 8a3c 1552 58bc
00000170: 4662 843b 7f81 86bb 2e43 d03b 9e2b 8b3c
00000180: 802c 913c 63a6 603c f731 483b e247 e737
00000190: 4a81 933c 05eb 59bc ac9e f93b 564f 753c
000001a0: 51a8 6dbc d63b 983c 9b2a 6c3c 432c 1bbc
000001b0: bd1d 81bc be88 8f3c a83f c538 7586 4c3c
000001c0: d0df 153c 833e a7bb e549 763c 0a50 72bc
000001d0: fe1e 133b efc7 57bb 9cb6 143c afd6 7cbc
000001e0: 7657 9abc a962 f3bb eea1 093c 3d5a 9dbc
000001f0: b49b 6cbc 19cc d63b 6b29 b1ba 4910 173c
0.0139405355 0.015276029 0.014470307 -0.0147565985 0.015329732 -0.018380579 0.017021956 -0.0077052177
-0.0055873934 0.0024103317 0.009829695 -0.006224119 -0.018606199 -0.0072225956 0.016021648 -0.004332875
0.011843467 -0.0075666727 -0.020705618 -0.009791584 0.0176396 0.015969941 -0.015770877 -0.012544423
0.015823817 -0.0062575587 -0.0013136084 3.2404398e-05 0.013899941 -0.015350857 0.01593453 0.018647397
-0.010428468 -0.010068646 -0.014773564 -0.0083895745 -0.011142439 0.012120144 0.014090519 -0.009774875
-0.01661131 0.013357694 0.014884588 -0.00834399 -0.019950366 -0.0049932585 -0.014485409 -0.0038055615
0.019223034 -0.021726267 -0.018836243 -0.017410018 -0.004275812 -0.014388704 0.0115842 0.006634831
-0.01257689 -0.012501509 0.009974561 0.0033732743 0.0008120071 0.012970765 -0.013289377 0.003169075
-0.012508208 -0.01888181 -0.0146592865 0.0069167535 -0.0114114825 -0.004591024 -0.014539865 -0.007467735
0.018562362 0.007057989 -0.021392122 0.0035812182 0.010717786 -0.016302133 -0.0041588657 0.014188287
0.012582831 0.01440709 -0.016849179 0.014099918 0.016126294 0.013589594 0.013798041 -0.017999014
-0.006689522 -0.015976517 0.016944934 -0.013203164 0.0040400354 -0.0041047926 0.0063556647 0.016988572
0.017721415 0.013711545 0.003054736 2.7570819e-05 0.018005986 -0.013300662 0.007617792 0.014972528
-0.014505462 0.01858322 0.014414455 -0.009471002 -0.01576125 0.017521258 9.405549e-05 0.012483229
0.009147599 -0.0051038875 0.015032266 -0.014789591 0.0022448893 -0.0032925566 0.009076741 -0.015432044
-0.018840533 -0.0074275327 0.008400423 -0.019208068 -0.014441419 0.006555092 -0.0013516372 0.009220191

conv_layers.0.params.6 f4 [128]
00000000: ee46 7c3f 0212 803f 2042 813f 8531 7e3f
00000010: 0ffd 803f 0e85 7e3f 2556 7d3f 309b 7c3f
00000020: debf 803f d7c0 803f 541c 813f 7615 813f
00000030: f65c 803f 1784 803f 966b 7f3f 3973 7a3f
00000040: 0244 803f 062a 7d3f da3e 833f 1796 7e3f
00000050: d331 813f 1091 7c3f 82d5 803f dd78 813f
00000060: 104e 7d3f 5b28 823f 00b7 803f e465 823f
00000070: 9fee 813f 382a 7e3f 869f 7d3f 27a2 7f3f
00000080: a58f 7d3f b295 7e3f eab6 803f e81f 813f
00000090: 1954 7d3f bb35 7d3f c9ce 7f3f 5337 823f
000000a0: 6621 7c3f c150 7f3f f28d 803f 13f5 7f3f
000000b0: 3647 823f 7d4e 813f 6974 803f 3f1b 823f
000000c0: c34b 7d3f a0bd 7f3f 270e 7f3f 8030 7c3f
000000d0: 3c3f 803f e411 803f 8845 803f 06b1 7c3f
000000e0: b7b4 7e3f 2bc2 7b3f ba18 813f a57c 823f
000000f0: 8194 7e3f bad5 823f 6a63 803f 750f 7f3f
00000100: 6ba8 813f 1206 7c3f e259 803f e903 803f
00000110: 404d 803f 1ee2 803f 7679 823f 3610 7e3f
00000120: 30c8 7e3f f1d8 7c3f ac8f 7f3f 897c 7e3f
00000130: 1716 7d3f b80f 803f b3b5 803f 7f57 793f
00000140: 76bb 7b3f 0305 823f f1a7 803f edd3 803f
00000150: 4194 7f3f 0b42 803f 8b71 803f ca3d 7f3f
00000160: 50dc 7b3f 3c6a 803f 5a05 813f 42ad 7d3f
00000170: 9d06 803f a129 7e3f 1e28 803f e1f0 813f
00000180: 2da5 803f 91a2 7c3f 3024 813f c2fb 803f
00000190: 8888 833f 7f68 7d3f 1fe7 7b3f 9201 7f3f
000001a0: 6425 823f d060 7c3f f51c 803f f6cd 7c3f
000001b0: 4741 7b3f b060 803f e92a 813f a13d 823f
000001c0: 6d28 833f e9f9 7d3f 2f80 813f c1d0 7d3f
000001d0: b5be 7e3f aad2 803f 1033 7e3f 3014 803f
000001e0: c855 803f 9694 803f 58bd 7d3f d87a 7f3f
000001f0: 5511 7e3f 561f 7e3f 07cd 813f 349d 7b3f
0.9854573 1.0005496 1.0098305 0.9929431 1.0077227 0.99421775 0.9895957 0.986743
1.0058553 1.005885 1.008677 1.0084674 1.002837 1.0040311 0.9977354 0.97832066
1.0020754 0.9889225 1.0253556 0.9944777 1.009333 0.9865885 1.0065157 1.011501
0.9894724 1.0168566 1.0055847 1.0187345 1.0150946 0.9928317 0.9907154 0.998568
0.9904731 0.99447167 1.0055821 1.0087862 0.9895645 0.9891011 0.99924904 1.0173134
0.9848846 0.99732596 1.0043318 0.9998333 1.0177982 1.0102078 1.0035526 1.0164565
0.9894373 0.9989872 0.9963097 0.98511505 1.0019298 1.000546 1.0021219 0.98707616
0.994945 0.9834315 1.0085671 1.0194288 0.9944535 1.0221474 1.0030339 0.9963296
1.0129522 0.9844676 1.002743 1.0001193 1.0023575 1.0069005 1.0193317 0.99243486
0.9952421 0.98768526 0.998286 0.99408776 0.9886183 1.0004797 1.005545 0.97399133
0.9833292 1.015778 1.0051252 1.0064675 0.9983559 1.0020155 1.003465 0.9970366
0.98383045 1.003242 1.0079758 0.99092495 1.0002018 0.9928227 1.0012243 1.0151635
1.0050408 0.98685557 1.0089169 1.007683 1.0276041 0.98987573 0.9839954 0.9961177
1.0167661 0.98585224 1.0008837 0.9875177 0.9814648 1.0029507 1.009122 1.0175058
1.0246712 0.9920946 1.0117244 0.9914666 0.99509746 1.006429 0.99296665 1.0006161
1.0026178 1.0045345 0.9911704 0.9979682 0.99245197 0.99266565 1.0140694 0.9828675

conv_layers.0.params.7 f4 [128]
00000000: 936e 7f3f c21b 813f d15a 7d3f f157 7d3f
00000010: 1ee5 803f e364 7e3f db6b 7e3f bbf4 813f
00000020: 1807 7e3f d610 7f3f 40f9 7f3f 3f69 7e3f
00000030: 73ea 7f3f 8f2f 803f 974c 7e3f d00e 803f
00000040: 3b0a 803f ad0e 7e3f ffef 7c3f d28c 803f
00000050: f5ce 7b3f 8b5a 7e3f 4dd4 7e3f d038 7f3f
00000060: aa69 803f 8b76 793f a1dc 813f c71d 7c3f
00000070: 5061 7a3f a16f 7d3f 8234 7c3f 5e7b 813f
00000080: 2347 7e3f 80b4 7e3f 120a 803f e962 7f3f
00000090: 5795 813f 6aba 803f daea 813f 066c 803f
000000a0: e860 813f 2eac 7d3f 6fa1 7f3f d5c0 7e3f
000000b0: 7d0f 823f 9fc1 7c3f 99fb 7f3f 637a 803f
000000c0: aeb4 7e3f 8865 7e3f a5cc 803f e03a 7c3f
000000d0: 1ecd 7a3f d919 7c3f 2715 803f 4273 813f
000000e0: 3966 813f c712 7d3f 1d06 813f 081b 813f
000000f0: b0a6 7a3f 7de2 7e3f 9779 803f 7596 7e3f
00000100: 58a6 813f 148c 803f 59cf 7c3f 2bb3 7f3f
00000110: e67c 7c3f 40a9 803f e947 7c3f 1f0e 803f
00000120: 8f08 823f 411f 7d3f b2d0 803f a23a 7f3f
00000130: 9420 813f e239 7d3f 1d05 7c3f 4096 7d3f
00000140: 8096 813f b99a 7f3f e326 7b3f e8a9 803f
00000150: c596 7f3f 07b7 7e3f ba3e 803f d801 813f
00000160: eede 7c3f 2259 7e3f 8094 7e3f 7dc6 803f
00000170: bce5 803f 2518 803f 2285 7c3f 40c9 7d3f
00000180: 71d5 7f3f 398d 813f a88a 823f bb9a 813f
00000190: 4367 7d3f 6a6a 7e3f 8be3 7c3f f626 7d3f
000001a0: 77bc 7b3f 3128 7d3f e508 813f 2c17 823f
000001b0: 4991 803f b178 803f 8ed4 813f dda1 803f
000001c0: 8d87 803f 51fc 7b3f 3aa0 7c3f d34f 803f
000001d0: a0dc 7c3f 0708 803f ac8e 803f b523 803f
000001e0: 2e8b 813f 90ab 813f df9c 803f d106 7f3f
000001f0: 1dda 813f 374d 813f 8881 7c3f 8064 7d3f
0.997781 1.0086596 0.989667 0.9896231 1.0069921 0.9937269 0.99383324 1.0152811
0.99229574 0.99635065 0.999897 0.9937934 0.99967116 1.0014514 0.99335617 1.000452
1.0003122 0.99241143 0.98803705 1.0042975 0.98362666 0.9935691 0.99542695 0.99696064
1.0032246 0.9744651 1.0145456 0.98482937 0.9780474 0.9899846 0.9851762 1.0115774
0.99327296 0.9949417 1.0003073 0.997603 1.01237 1.0056889 1.0149796 1.0032966
1.0107698 0.9909085 0.99855703 0.9951299 1.0160977 0.9873294 0.9999328 1.003735
0.99494445 0.99373674 1.0062453 0.98527336 0.97969234 0.9847694 1.0006455 1.0113299
1.0109321 0.98856777 1.0079991 1.0086374 0.97910595 0.99564344 1.0037106 0.9944833
1.0128889 1.0042748 0.9875389 0.99882764 0.9862808 1.0051651 0.98547226 1.000431
1.0158862 0.98875815 1.0063689 0.9969884 1.0088067 0.9891645 0.984453 0.9905739
1.0124054 0.99845463 0.9810621 1.0051851 0.9983943 0.9949803 1.0019143 1.0078688
0.98777664 0.99354756 0.99445343 1.0060574 1.0070109 1.0007368 0.98640645 0.9913521
0.9993506 1.0121223 1.0198565 1.0125345 0.9898569 0.99381125 0.98784703 0.98887575
0.9833445 0.9888945 1.0080839 1.0163321 1.0044338 1.0036832 1.0142992 1.0049397
1.0041367 0.9843188 0.98681986 1.002436 0.9877415 1.000245 1.004354 1.0010897
1.0120599 1.0130482 1.0047873 0.99619776 1.0144688 1.0101689 0.9863515 0.98981476

conv_layers.0.params.8 f4 [128]
00000000: 9e67 7d3f b785 7d3f a2db 7d3f 25d9 7d3f
00000010: 594e 7e3f 35b4 803f cc0d 7e3f 1d46 813f
00000020: 4af3 813f bfde 7d3f 5b0a 7d3f b1f6 803f
00000030: 5845 823f cd39 803f 3d14 7f3f 8918 7d3f
00000040: dacd 803f fd9a 813f 7f09 823f 520a 7c3f
00000050: 9e01 7d3f 0cec 7e3f 63ca 813f ca7a 7e3f
00000060: ebf7 7c3f 1f4f 813f 9b7d 7c3f e3e0 7e3f
00000070: d2e7 803f 06ee 813f 6619 7e3f 16c3 7e3f
00000080: 1fe8 813f 72ae 813f 42a7 813f 1d0f 803f
00000090: f699 803f dd75 7f3f e037 7b3f 39e8 7d3f
000000a0: 7135 803f 8e9c 7c3f 1d7c 7f3f 3032 803f
000000b0: 651e 823f 2a6e 7d3f 81ef 813f 1d1b 803f
000000c0: f1a9 7d3f f829 803f 38f8 7f3f 060c 803f
000000d0: 4ab6 803f 2e28 813f 53a8 7c3f d304 7d3f
000000e0: c98c 7f3f 86f7 7f3f df18 7e3f 81eb 7d3f
000000f0: a901 803f c267 813f d153 823f ab11 7c3f
00000100: 3f67 7e3f 24a4 7f3f 971c 823f c9f0 7f3f
00000110: 8a1a 823f fa11 813f ed90 813f 755f 813f
00000120: 1f90 803f 94c9 7b3f 3e42 803f dbf0 7c3f
00000130: 46b0 7d3f 62b8 803f 8d43 7d3f 6a15 803f
00000140: bcbb 7b3f e9df 7d3f f930 7f3f 303b 7e3f
00000150: 5c34 7c3f c642 7e3f 6839 803f 11e7 803f
00000160: f8cb 7e3f a71b 813f 7e4c 7e3f 2981 803f
00000170: fff4 7f3f 3f91 7c3f 506c 7b3f 7368 7d3f
00000180: 3ce9 7b3f 3f87 7f3f de7b 7b3f 47ac 803f
00000190: 33ee 7b3f 3370 7f3f 5c37 7e3f 20fd 7f3f
000001a0: 4d80 7f3f 525a 7e3f aa18 7f3f 6ccc 7c3f
000001b0: 2a40 7f3f 4f12 803f 6571 7d3f fe8e 7c3f
000001c0: 7535 7d3f 3c60 7c3f 1bc4 7d3f 57c0 813f
000001d0: 9a43 803f d4fa 7e3f 1dde 7c3f 074c 823f
000001e0: cc02 813f ddb4 7c3f bc29 7e3f 9e07 823f
000001f0: c3f7 7d3f b01f 7d3f 4993 7f3f 989e 7f3f
0.9898623 0.9903216 0.9916326 0.9915946 0.993383 1.0054995 0.992398 1.0099522
1.0152371 0.9916801 0.98843926 1.0075284 1.0177412 1.0017639 0.99640256 0.9886556
1.0062821 1.0125424 1.0159148 0.9845325 0.9883059 0.9957893 1.0139889 0.9940611
0.9881579 1.0102271 0.9862916 0.995619 1.0070746 1.0150764 0.99257505 0.9951643
1.0148963 1.0131361 1.0129168 1.0004612 1.0046985 0.9978922 0.98132133 0.9918247
1.0016309 0.98676383 0.99798757 1.0015316 1.0165526 0.9899622 1.0151216 1.0008274
0.99087435 1.0012808 0.99988127 1.0003669 1.005563 1.0090387 0.9869434 0.98835486
0.99824196 0.99987066 0.992567 0.99187475 1.0000507 1.0109789 1.0181829 0.9846446
0.9937629 0.99859834 1.0164975 0.99976784 1.0164349 1.0083611 1.0122353 1.0107256
1.0043982 0.9835446 1.0020216 0.98805016 0.99097097 1.0056269 0.989312 1.0006535
0.98333335 0.99169785 0.996841 0.9930906 0.98517394 0.9932064 1.0017519 1.0070516
0.9952998 1.0086564 0.9933547 1.0039417 0.9998321 0.9865913 0.98212147 0.989875
0.9840276 0.99815744 0.9823588 1.0052575 0.9841034 0.9978058 0.9930322 0.99995613
0.99805146 0.9935657 0.9964701 0.98749423 0.9970728 1.0005587 0.9900115 0.9865569
0.98909694 0.9858434 0.9912736 1.0136822 1.002063 0.99601483 0.9877642 1.0179452
1.0078979 0.98713475 0.9928243 1.0158575 0.9920618 0.98876476 0.99834114 0.9985137
