trained_model/2025-06-19_18-34-43/saved_model_2025-06-19_18-34-43.pkl (torch, 820950 bytes, 54 tensors)

conv_layers.0.f_lin.0.weight f4 [128, 5]
-0.019895462 0.031941053 0.037116095 0.15877475 0.07425102 0.022223232 0.08346103 -0.075449854
0.062298298 -0.12653056 -0.15895833 -0.109900065 -0.17374156 -0.04967926 -0.01847097 -0.103396036
-0.0060227397 -0.019450556 -0.12271065 -0.07654558 0.03487145 -0.059005212 -0.005516713 -0.1770075
0.06572321 -0.12651649 -0.08498923 0.1545747 -0.1140344 0.0075830207 -0.19326387 0.20365222
-0.13038439 -0.06480626 -0.029911118 0.013745426 -0.06928922 0.14678162 0.07880187 0.16683988
-0.06912489 -0.120266646 -0.055699877 -0.07771951 -0.16131932 0.18682553 0.16608964 0.045511942
0.058415994 0.058992013 0.036624376 0.16184202 0.12700756 -0.163551 -0.20005547 -0.15827711
0.18062413 -0.02352823 -0.078474924 -0.007766278 0.11013527 -0.11229544 0.12711523 0.045247205
0.17849219 0.057257943 0.18209678 0.018626839 -0.042882822 0.010098147 -0.09877793 0.13066947
-0.117387004 0.17549229 -0.19562183 -0.026594585 -0.19465838 -0.16398926 0.03842556 0.038227417
-0.21743803 -0.03491595 -0.0072195577 0.066824876 -0.114165045 -0.15012172 0.1983271 -0.11517998
0.059946034 -0.14954525 -0.17431004 0.20597835 0.13185193 -0.13670513 0.03554992 -0.07379015
0.08882097 -0.126804 0.05806456 0.22788155 -0.018748114 0.06655985 -0.039993275 -0.09512744
-0.184684 -0.14409858 0.1957703 0.06101705 0.11503882 -0.21768768 0.02518442 -0.0649531
-0.024487562 0.12526065 -0.041722596 0.18520045 0.025021587 -0.15382373 0.11161648 0.020352453
-0.110546686 -0.009447316 -0.19113891 -0.051840395 0.006929785 -0.20036308 0.15408014 -0.0045233024
0.15794161 -0.14882667 -0.19312102 -0.14816058 -0.06930635 0.08814787 -0.054734014 -0.14370176
-0.0226947 0.03714813 -0.05303099 -0.03588887 0.07298504 -0.19845933 0.18189155 0.16305587
-0.09352403 -0.13756298 -0.010261777 -0.11117769 0.18323386 -0.15570381 0.14394644 0.0690142
-0.029176703 -0.18564713 0.09021219 0.08371463 0.13746224 -0.06739992 0.11266292 -0.00937955
-0.18971422 -0.19634818 -0.097784795 -0.059007257 -0.084113285 0.14996223 0.10873652 0.1762122
-0.021230787 0.061429296 -0.13893428 0.0023008336 0.17981662 0.12165346 0.0021745337 -0.08096556
0.19673085 -0.16187413 0.08443735 -0.109918185 -0.087380484 0.1337596 0.10218888 0.21054995
-0.13914469 -0.067327715 0.02937302 0.018034434 -0.2133436 0.18133955 0.03148867 0.022481786
-0.1569952 -0.06838595 0.2105662 -0.1910444 0.0772252 -0.130721 0.14302188 0.065889135
-0.22548385 0.085186265 -0.017628068 0.099162504 -0.050359786 0.004124226 0.09185856 0.0060914285
0.06600355 0.10524632 -0.1273828 9.5455565e-05 -0.07904235 -0.046733227 -0.17537771 -0.05122358
0.10453083 -0.013521839 0.04559061 0.19224419 0.08178845 -0.08490121 -0.031144664 0.058428876
0.19291078 -0.17913324 0.1976838 0.11690366 0.08518832 0.17228945 -0.10044384 -0.15629879
-0.18608254 -0.12805603 -0.10642133 0.09183131 -0.045783527 0.07689956 0.12438304 -0.11237951
-0.19079353 0.16443066 -0.037149172 0.16304551 -0.10024409 -0.09635446 0.0282393 -0.14843464
-0.053083114 -0.053341106 0.16377011 0.06780771 -0.076134734 -0.1812406 -0.0058240322 -0.060756687
00000000: cffb a2bc 9fd4 023d 0c07 183d d995 223e
00000010: eb10 983d 7f0d b63c 9eed aa3d 7485 9abd
00000020: 802c 7f3d 3a91 01be f9c5 22be 4913 e1bd
00000030: 4fe9 31be 7b7c 4bbd 6f50 97bc 4dc1 d3bd
00000040: 675a c5bb c656 9fbc b94f fbbd eec3 9cbd
00000050: 5ed5 0e3d 73af 71bd 8bc5 b4bb 7441 35be
00000060: e499 863d 8a8d 01be d50e aebd d548 1e3e
00000070: de8a e9bd fd7a f83b f7e6 45be 358a 503e
00000080: 7c83 05be 25b9 84bd 2908 f5bc 7f34 613c
00000090: 82e7 8dbd ec4d 163e e062 a13d 13d8 2a3e
000000a0: 5a91 8dbd 5c4e f6bd 8e25 64bd 682b 9fbd
000000b0: e430 25be 314f 3f3e 6713 2a3e bb6a 3a3d
000000c0: 9c45 6f3d 9ca1 713d 7103 163d eab9 253e
000000d0: 450e 023e ea79 27be 57db 4cbe 6513 22be
000000e0: 88f5 383e 46be c0bc 76b7 a0bd 437c febb
000000f0: 9a8e e13d 27fb e5bd 7f2a 023e 2255 393d
00000100: a8c6 363e 4e87 6a3d 9477 3a3e 5097 983c
00000110: e6a5 2fbd b372 253c 154c cabd 38ce 053e
00000120: 9968 f0bd 40b4 333e 1751 48be e3dc d9bc
00000130: 8754 47be cdec 27be 1f64 1d3d 5a94 1c3d
00000140: 13a8 5ebe 0704 0fbd 0a92 ecbb 7bdb 883d
00000150: 5dcf e9bd 82b9 19be 4216 4b3e 7be3 ebbd
00000160: f989 753d 6422 19be 557e 32be fdeb 523e
00000170: 3104 073e 6efc 0bbe cb9c 113d 4a1f 97bd
00000180: c5e7 b53d e8d8 01be 1bd5 6d3d c859 693e
00000190: a595 99bc 8850 883d fdcf 23bd 2dd2 c2bd
000001a0: cd1d 3dbe 948e 13be 0278 483e 04ed 793d
000001b0: 7999 eb3d 85e9 5ebe 8f4f ce3c 2206 85bd
000001c0: 249a c8bc 5444 003e 50e5 2abd 30a5 3d3e
000001d0: 12fa cc3c f883 1dbe 2e97 e43d 30ba a63c
000001e0: 4d66 e2bd eac8 1abc ebb9 43be 9856 54bd
000001f0: 4013 e33b fb2b 4dbe 2fc7 1d3e 3638 94bb
00000200: 72bb 213e 0566 18be 84c1 45be 68b7 17be
00000210: 7df0 8dbd df86 b43d c630 60bd 8e26 13be
00000220: 3cea b9bc a328 183d 0637 59bd 3500 13bd
00000230: 2e79 953d ec38 4bbe c741 3a3e 1ef8 263e
00000240: 8789 bfbd 4fdd 0cbe 0321 28bc 21b1 e3bd
00000250: a8a1 3b3e d270 1fbe b266 133e 5157 8d3d
00000260: fb03 efbc 481a 3ebe 2bc1 b83d 9372 ab3d
00000270: e7c2 0c3e f808 8abd d1bb e63d afac 19bc
00000280: 7244 42be 7f0f 49be 6543 c8bd 98b1 71bd
00000290: 9643 acbd b38f 193e 41b1 de3d f970 343e
000002a0: 30ec adbc 499d 7b3d ca44 0ebe 95c9 163b
000002b0: d921 383e 7325 f93d 9f82 0e3b 46d1 a5bd
000002c0: d073 493e 55c2 25be 7ded ac3d c91c e1bd
000002d0: 8af4 b2bd 47f8 083e 6748 d13d 689a 573e
000002e0: f27b 0ebe 1de3 89bd b09f f03c f3bc 933c
000002f0: bf76 5abe 13b1 393e 43fa 003d b92b b83c
00000300: 5ac3 20be ef0d 8cbd aa9e 573e 25a1 43be
00000310: 3f28 9e3d badb 05be 5474 123e e2f0 863d
00000320: 3de5 66be 2376 ae3d bd68 90bc b615 cb3d
00000330: 1046 4ebd 8424 873b 5720 bc3d 9b9a c73b
00000340: df2c 873d 628b d73d a370 02be 512f c838
00000350: f5e0 a1bd 576b 3fbd 3796 33be d1cf 51bd
00000360: 4314 d63d b48a 5dbc 38bd 3a3d a9db 443e
00000370: b480 a73d b0e0 adbd 1823 ffbc 1e53 6f3d
00000380: 678a 453e b46e 37be 9f6d 4a3e 306b ef3d
00000390: 3777 ae3d a56c 303e 80b5 cdbd ca0c 20be
000003a0: 6c8c 3ebe 1f21 03be 6df3 d9bd 0e12 bc3d
000003b0: 8287 3bbd 847d 9d3d 89bc fe3d 3b27 e6bd
000003c0: 615f 43be 8360 283e bb29 18bd 67f5 263e
000003d0: c64c cdbd 7d55 c5bd 1b56 e73c 40ff 17be
000003e0: ae6d 59bd 347c 5abd 5ab3 273e c5de 8a3d
000003f0: 87ec 9bbd 2397 39be 86d7 bebb 01dc 78bd

conv_layers.0.f_lin.1.weight f4 [128, 5]
-0.19378953 0.13818 -0.16020705 0.040517338 -0.14907682 -0.19977272 0.18947197 0.17350636
0.084551625 0.13909696 -0.130359 0.12286896 0.04589889 -0.15073062 0.15235749 0.018826278
-0.100868754 0.1156607 0.088919014 0.21905425 -0.054203156 0.0077706655 0.066210575 0.12717408
-0.22340131 0.011054504 -0.022496851 -0.081746854 -0.095084 0.18790857 -0.16686775 -0.038919564
-0.021018647 0.21998689 0.16655883 -0.1655687 -0.11600054 -0.009626615 0.0038853697 0.05942882
-0.13891526 0.13377361 -0.16904767 0.16652451 -0.21276021 0.05931537 -0.03549504 0.16125037
0.064089835 -0.09411361 0.16369842 0.19564159 -0.03366619 -0.18439387 -0.07630769 0.11463719
-0.017468242 -0.009259998 0.0661774 0.011194171 0.14067514 -0.05713466 -0.20338818 0.1705734
0.08482071 0.18739305 0.12710209 0.070880435 -0.16414574 -0.0019710115 -0.18519835 -0.077600084
-0.026637655 -0.12760432 -0.10876402 0.058168046 -0.19324535 0.07686694 -0.1692628 -0.13549268
-0.01868053 -0.101670966 0.110380486 0.0355382 0.19923282 0.019074446 -0.026207617 -0.20058072
0.17604107 0.07290763 0.096665196 -0.031027667 -0.13925157 0.076147154 -0.060423873 -0.02032969
-0.042727556 0.1911328 -0.20227957 -0.13886072 -0.013572952 -0.07002653 0.13004789 -0.096725754
-0.047504503 -0.12642546 -0.019592622 -0.053477302 0.048685603 -0.06906689 -0.1634108 -0.14496574
-0.085119806 -0.01715138 0.11812104 -0.02438638 0.15595631 -0.055796877 -0.07852648 -0.115458116
0.1930431 0.13066682 0.121952355 0.14507635 -0.03767295 0.029430727 0.07825941 0.08312414
0.10783467 0.02410894 -0.055708308 0.21012834 -0.016205234 -0.15935121 0.12882216 0.13509743
-0.14900692 -0.04259682 -0.079730816 -0.07655914 -0.16149205 -0.0171463 -0.12294104 -0.022771593
-0.08661581 -0.060360875 0.10271799 -0.14453018 0.015998231 0.20016149 -0.032174915 0.086408705
0.0735585 -0.15228476 -0.06881028 0.14664003 0.00041638376 -0.15216878 -0.12950414 0.06529909
-0.16388033 0.1594432 -0.010504215 -0.2224383 -0.05747625 0.02331847 -0.17929429 -0.10582363
0.11622435 0.15786597 -0.2150933 -0.053476408 0.17969413 0.1776496 0.19269848 0.13123462
-0.06576863 0.024529265 -0.13693944 -0.0020863418 -0.17273508 0.03364877 0.1180912 -0.015991053
-0.11256816 0.16037847 -0.09129545 -0.09485459 0.09249362 -0.20323458 0.1222242 0.065367796
-0.019643348 0.17917402 0.038097315 -0.049413145 0.029766362 0.050497316 -0.20809092 0.06656889
-0.10031322 0.061008032 -0.15507197 0.15667391 0.15004875 0.03945261 0.00044484317 -0.047679264
0.11685538 0.00774063 -0.10778168 -0.005864744 0.118625894 -0.06770218 -0.19616303 0.2036522
0.100612774 -0.07461191 0.20177315 -0.21655726 0.18739152 0.08626517 0.047663335 0.192046
-0.021037053 -0.1174514 -0.17691438 0.028753817 0.08786869 -0.19862862 -0.041176017 -0.0773501
0.12405701 -0.08130038 0.1363636 -0.08598191 -0.09201415 -0.16614723 0.058194198 -0.049092725
-0.10646161 -0.14874806 0.18532088 -0.18190932 0.17764404 0.19203171 0.059521787 -0.056894172
0.058264874 -0.10208502 0.17523617 0.20694761 -0.21054117 0.15574113 0.026781563 0.214309
00000000: c370 46be 0f7f 0d3e 510d 24be 82f5 253d
00000010: 98a7 18be 3891 4cbe f104 423e a7ab 313e
00000020: 6729 ad3d 6f6f 0e3e d47c 05be b9a2 fb3d
00000030: 7900 3c3d 2159 1abe 9a03 1c3e 9139 9a3c
00000040: 4794 cebd 84df ec3d 2c1b b63d c24f 603e
00000050: 2104 5ebd 11a1 fe3b 6999 873d ec39 023e
00000060: 50c3 64be f31d 353c 514b b8bc e56a a7bd
00000070: 66bb c2bd 1b6b 403e 61df 2abe 1f6a 1fbd
00000080: 4c2f acbc 3e44 613e 668e 2a3e d78a 29be
00000090: b191 edbd f3b8 1dbc b0a1 7e3b a26b 733d
000000a0: cd3f 0ebe f3fb 083e d51a 2dbe 6785 2a3e
000000b0: d0dd 59be acf4 723d 3f63 11bd d11e 253e
000000c0: 8841 833d a3be c0bd 8fa0 273e 4556 483e
000000d0: 8fe5 09bd bfd1 3cbe 3547 9cbd e7c6 ea3d
000000e0: 8f19 8fbc 3fb7 17bc 0488 873d c267 373c
000000f0: 250d 103e 0906 6abd fe44 50be cbaa 2e3e
00000100: 7bb6 ad3d f7e3 3f3e 0d27 023e c329 913d
00000110: d215 28be 162c 01bb a3a4 3dbe cbec 9ebd
00000120: 3637 dabc b5aa 02be acbf debd 9e41 6e3d
00000130: 1ce2 45be 6a6c 9d3d 3a53 2dbe 98be 0abe
00000140: e907 99bc de38 d0bd 2a0f e23d 8190 113d
00000150: b003 4c3e 0342 9c3c 5bb1 d6bc 0865 4dbe
00000160: 1c44 343e 9850 953d 67f8 c53d bc2d febc
00000170: f797 0ebe 0af3 9b3d 067f 77bd 738a a6bc
00000180: 1703 2fbd 51b8 433e 6022 4fbe 8131 0ebe
00000190: 1661 5ebc 126a 8fbd 462b 053e 2718 c6bd
000001a0: 1594 42bd ad75 01be b580 a0bc 040b 5bbd
000001b0: 8e6a 473d f172 8dbd 2955 27be e671 14be
000001c0: 4b53 aebd 0d81 8cbc 72e9 f13d f2c5 c7bc
000001d0: 03b3 1f3e 448b 64bd 7ed2 a0bd 4e75 ecbd
000001e0: 17ad 453e 86cd 053e 28c2 f93d e58e 143e
000001f0: f44e 1abd b518 f13c 7846 a03d fd3c aa3d
00000200: 6cd8 dc3d 1d80 c53c 652e 64bd e22b 573e
00000210: d7c0 84bc f72c 23be f5e9 033e fb56 0a3e
00000220: 4595 18be 017a 2ebd e949 a3bd 0acb 9cbd
00000230: 2c5e 25be 6676 8cbc 83c8 fbbd 7e8b babc
00000240: a163 b1bd f73c 77bd cf5d d23d b8ff 13be
00000250: b90e 833c 22f7 4c3e d8c9 03bd 0cf7 b03d
00000260: d7a5 963d 89f0 1bbe 67ec 8cbd ce28 163e
00000270: 154e da39 22d2 1bbe bc9c 04be 88bb 853d
00000280: 3fd0 27be 1445 233e df19 2cbc dec6 63be
00000290: 376c 6bbd 6006 bf3c ec98 37be 0fba d8bd
000002a0: 0807 ee3d 9ea7 213e 6b41 5cbe 140a 5bbd
000002b0: bd01 383e c7e9 353e c052 453e 5e62 063e
000002c0: b4b1 86bd 99f1 c83c da39 0cbe 02bb 08bb
000002d0: 77e1 30be 4bd3 093d cdd9 f13d abff 82bc
000002e0: 238a e6bd 413a 243e 1cf9 babd 2043 c2bd
000002f0: 4c6d bd3d ba1c 50be ae50 fa3d 8ddf 853d
00000300: 16eb a0bc 6579 373e ee0b 1c3d 7065 4abd
00000310: 96d8 f33c 46d6 4e3d c915 55be 4555 883d
00000320: 0471 cdbd 8fe3 793d 30cb 1ebe 206f 203e
00000330: 61a6 193e 0f99 213d d739 e939 554b 43bd
00000340: e051 ef3d 1ca5 fd3b a4bc dcbd 0a2d c0bb
00000350: 22f2 f23d 71a7 8abd f6de 48be 348a 503e
00000360: 120e ce3d 21ce 98bd 9f9d 4e3e 30c1 5dbe
00000370: 90e3 3f3e cbab b03d a13a 433d b5a7 443e
00000380: e655 acbc 5c8a f0bd 0b29 35be 208d eb3c
00000390: 80f4 b33d 4d65 4bbe 2fa8 28bd bb69 9ebd
000003a0: 9a11 fe3d d080 a6bd e6a2 0b3e 4917 b0bd
000003b0: ea71 bcbd 8022 2abe 0a5d 6e3d 7415 49bd
000003c0: 8b08 dabd 6951 18be c2c4 3d3e 7046 3abe
000003d0: 52e8 353e f6a3 443e 1ecd 733d dd09 69bd
000003e0: 26a7 6e3d f311 d1bd 1c71 333e 13ea 533e
000003f0: 1b98 57be 9a7a 1f3e 0265 db3c d273 5b3e

conv_layers.0.f_lin.2.weight f4 [128, 5]
-0.09052683 -0.023873335 0.15275396 0.08886168 -0.2264744 0.1565052 -0.18346336 0.081781685
-0.06865967 -0.044940088 -0.20748141 0.19908944 -0.053178918 0.17413287 -0.036333162 0.11828588
-0.15515342 -0.13539867 0.01887054 -0.14334875 0.0018109852 -0.07951368 -0.09268755 -0.11448797
-0.10215197 -0.027119834 0.013771706 -0.0085071055 -0.050348878 0.18308815 0.06404718 -0.043373488
0.18485658 -0.0087752035 0.05188944 -0.09080014 0.14336544 0.11019691 0.015889766 -0.05403384
-0.0745233 -0.039348226 0.10414435 0.04690204 -0.21793278 -0.112944245 0.10589144 -0.059696715
-0.13331407 0.22212 0.00074104406 0.04465376 -0.12031919 0.12889566 -0.07596094 0.1965767
0.047277723 0.18256104 0.0128554795 0.19956292 0.15381111 0.05578983 0.08067395 0.19166747
-0.14324939 0.16375989 -0.004315731 -0.15124331 -0.17488092 -0.107155 0.14229336 -0.20057501
-0.011037763 -0.03628487 -0.13726279 0.1821621 -0.11536686 0.16365983 0.08680083 -0.067204975
0.033226892 0.12114235 -0.17399482 0.12413029 -0.05164048 -0.042101473 -0.17255627 0.17174621
-0.15019953 -0.22574113 -0.13951083 0.00983843 0.20585652 -0.12534557 -0.18525618 -0.10712509
-0.088208966 -0.022214377 -0.18480146 0.028679611 0.1386762 -0.08695475 0.20071425 0.02284083
0.042400986 -0.10649192 -0.0067932964 -0.15712842 0.113823846 -0.14910698 0.11584785 0.20344485
-0.030671686 -0.1566977 -0.10851747 -0.16950427 0.025096128 0.11763337 -0.08723014 0.15554963
-0.17766805 0.008347779 0.08813024 -0.07865383 0.15378533 -0.1268541 -0.07176574 0.009588132
0.007068152 -0.01902091 0.014843454 -0.13727829 -0.21944165 -0.16239084 -0.061278723 -0.0574605
0.08595462 0.07512495 -0.115213595 0.21556813 0.030587876 0.10412528 -0.073701374 -0.017821869
-0.029715087 -0.10720517 0.0943242 0.05631603 -0.14543447 -0.022608874 -0.034054905 -0.015182094
0.12720118 0.13897873 -0.1585119 0.04732793 0.20563081 -0.05925308 0.15782036 -0.042799946
-0.084602155 0.030816348 0.10879087 -0.16607878 -0.030737726 0.049431566 -0.18399638 0.0031091792
-0.20576984 -0.10933354 0.0004321648 -0.045749042 0.033565264 0.081651606 0.17184107 -0.050753664
0.08053403 -0.18716988 0.032092154 0.060255162 -0.06460638 0.15475881 0.1169327 -0.15242516
-0.070522554 0.056645162 -0.033231474 -0.1470568 -0.12373875 0.14203107 0.16407304 0.1452442
0.15499096 -0.11405708 0.13477264 -0.086547084 -0.14011818 0.19486323 -0.07988883 -0.21117026
-0.16547476 0.15921322 0.08582399 0.2115886 0.076533616 0.046504002 -0.12073594 -0.03379155
-0.0935284 0.012904398 -0.17556852 0.16820663 -0.011039837 0.040126607 0.09123062 0.014131791
0.17924087 0.19168101 0.110192545 -0.0045076064 -0.06076283 0.15730147 -0.15929538 0.07617009
0.11078286 -0.03728897 0.10985548 0.018641025 0.07868695 0.11108386 -0.16940734 -0.10450607
-0.015290314 0.2181439 0.17258283 -0.16109546 0.19242631 -0.11587659 -0.19062804 0.15150593
-0.14533131 -0.16277209 0.0285371 -0.21915026 0.028469224 -0.17355953 -0.21176764 -0.13699667
0.052920107 0.047754414 0.09821019 0.17028077 -0.15191443 -0.13017291 0.028028242 -0.08802706
00000000: 2166 b9bd 0392 c3bc 896b 1c3e 1dfd b53d
00000010: e8e8 67be e642 203e d2dd 3bbe 287d a73d
00000020: 719d 8cbd 1913 38bd 0276 54be 1ade 4b3e
00000030: 23d2 59bd e34f 323e 15d2 14bd de3f f23d
00000040: 8ae0 1ebe f3a5 0abe 6496 9a3c 04ca 12be
00000050: 945e ed3a 11d8 a2bd f8d2 bdbd ab78 eabd
00000060: 0d35 d1bd 6a2a debc b9a2 613c 6361 0bbc
00000070: a03a 4ebd 767b 3b3e 2b2b 833d 66a8 31bd
00000080: 0b4b 3d3e dfc5 0fbc 058a 543d 6cf5 b9bd
00000090: 64ce 123e ebae e13d 412b 823c 9652 5dbd
000000a0: ac9f 98bd 9b2b 21bd a249 d53d 5a1c 403d
000000b0: c529 5fbe 504f e7bd 9cdd d83d 8b84 74bd
000000c0: 7c83 08be 6d73 633e a042 423a dce6 363d
000000d0: e869 f6bd 39fd 033e 6991 9bbd 674b 493e
000000e0: 49a6 413d 48f1 3a3e ca9f 523c 395a 4c3e
000000f0: a980 1d3e e083 643d 6238 a53d 7a44 443e
00000100: f8af 12be acb0 273e fa6a 8dbb 87df 1abe
00000110: fc13 33be 1574 dbbd 5ab5 113e 8963 4dbe
00000120: bcd7 34bc 729f 14bd 9e8e 0cbe b488 3a3e
00000130: 7645 ecbd 7196 273e a2c4 b13d c3a2 89bd
00000140: ec18 083d 7b19 f83d b32b 32be 0538 fe3d
00000150: f884 53bd 9872 2cbd 97b2 30be 3dde 2f3e
00000160: e8cd 19be af28 67be eddb 0ebe 5e31 213c
00000170: 0dcc 523e 975a 00be ccb3 3dbe 6664 dbbd
00000180: e7a6 b4bd edfa b5bc 983c 3dbe 81f1 ea3c
00000190: 2201 0e3e 5515 b2bd 0988 4d3e b11c bb3c
000001a0: a8ac 2d3d 7018 dabd 4d9a debb 46e6 20be
000001b0: 7a1c e93d 80af 18be a341 ed3d d953 503e
000001c0: 3043 fbbc 5d75 20be 683e debd 8792 2dbe
000001d0: 6596 cd3c c4e9 f03d b7a5 b2bd 6748 1f3e
000001e0: 9dee 35be 1fc5 083c a17d b43d 4215 a1bd
000001f0: e779 1d3e 0be6 01be ebf9 92bd 8a17 1d3c
00000200: f59b e73b bdd1 9bbc f531 733c ae92 0cbe
00000210: 50b5 60be c949 26be 66ff 7abd b45b 6bbd
00000220: fa08 b03d 1cdb 993d 1bf5 ebbd e4bd 5c3e
00000230: 6d93 fa3c a33f d53d bff0 96bd 2bff 91bc
00000240: 0e6d f3bc 628e dbbd 0c2d c13d a3ab 663d
00000250: c6ec 14be 3f36 b9bc 287d 0bbd 51be 78bc
00000260: 0741 023e 7150 0e3e f250 22be eeda 413d
00000270: e290 523e 5cb3 72bd a99b 213e ff4e 2fbd
00000280: e543 adbd 9172 fc3c bfcd de3d 8e10 2abe
00000290: afcd fbbc c178 4a3d 8c69 3cbe 5fc3 4b3b
000002a0: 54b5 52be 43ea dfbd 2d94 e239 5963 3bbd
000002b0: bb7b 093d f538 a73d 1bf7 2f3e 13e3 4fbd
000002c0: 07ef a43d 76a9 3fbe 1073 033d 1ece 763d
000002d0: 5a50 84bd 1879 1e3e 697a ef3d 5715 1cbe
000002e0: 216e 90bd c204 683d ba1d 08bd 0f96 16be
000002f0: be6a fdbd 9870 113e c302 283e e5ba 143e
00000300: f3b5 1e3e c296 e9bd d701 0a3e 993f b1bd
00000310: 247b 0fbe 3a8a 473e c19c a3bd 043d 58be
00000320: 3772 29be ca08 233e 7dc4 af3d afaa 583e
00000330: a8bd 9c3d fb7a 3e3d 6844 f7bd 0269 0abd
00000340: d18b bfbd f86c 533c 3cc8 33be 5c3e 2c3e
00000350: 6fe0 34bc cc5b 243d 1fd7 ba3d 0789 673c
00000360: eb8a 373e 0748 443e a1ac e13d 8bb4 93bb
00000370: 72e2 78bd a313 213e 541e 23be 10ff 9b3d
00000380: 20e2 e23d 52bc 18bd e9fb e03d 10b5 983c
00000390: a026 a13d ef7f e33d 1e79 2dbe 4707 d6bd
000003a0: 3a84 7abc 1d61 5f3e 8eb9 303e 35f6 24be
000003b0: 670b 453e b550 edbd ff33 43be 5f24 1b3e
000003c0: bbd1 14be baad 26be a3c6 e93c ed68 60be
000003d0: 4a38 e93c 97b9 31be 9ed9 58be db48 0cbe
000003e0: c1c2 583d 229a 433d 6d22 c93d 155e 2e3e
000003f0: 758f 1bbe 0c4c 05be 7c9b e53c 8847 b4bd

conv_layers.0.params.0 f4 [128]
0.015567064 0.010760844 -0.010004257 -0.0026102231 5.589448e-05 -0.010983235 0.002625109 -0.0060069826
0.0001888973 -0.016358702 -0.013405446 -0.012525664 -0.015153999 -0.006599726 -0.0028567356 -0.009062444
0.0063510495 -0.0004823298 0.0066989195 0.003907744 -0.0045056897 0.008900601 -0.014540662 0.009037933
0.0018543887 0.012972125 -0.005722359 0.011250937 -0.005969347 -0.0017581163 -0.0024975634 -0.0049739876
0.004498283 -0.0021345774 0.004519621 0.0048213694 0.015947657 0.0030815804 0.007406414 0.00015917065
0.016299086 -0.007986221 0.0001286014 -0.006347271 -0.004977718 -8.215816e-05 0.0027807176 -0.01493314
0.013532625 -0.0033959262 0.01509736 0.009639692 0.001842975 -0.0015678239 -0.00043308715 0.0040228185
-0.0029407197 0.0043712594 0.0031894662 -0.0035137124 -0.0027311172 -0.016677117 -0.005128448 -0.013835662
-0.0055053304 -0.011114659 -0.010930013 0.010830646 -0.013579755 0.004715238 0.006749837 0.003963501
0.0064533567 0.00626845 0.00093165954 0.014391916 0.0033825461 0.0060277935 0.008055135 -0.0033905788
0.017033227 -0.00033619854 -0.012232441 -0.002175994 -0.010928767 0.0075711533 -0.015024452 0.016137516
-0.004976741 0.0028259847 0.01815536 -0.0015435946 -0.0059075933 -0.009182263 -0.015375264 0.007543992
-0.013719005 0.013041383 -0.015252521 0.012531828 -0.016850432 0.013327785 -0.005149335 0.012882717
0.003293245 -0.012687596 0.0045972485 0.012409996 0.0044210483 -0.0034863274 0.00037348855 0.00887266
0.0018217022 -0.01644584 0.003203263 0.0020248245 -0.006650825 0.016815528 -0.01886318 -0.013589862
-0.0010674444 -0.017820975 -0.01174482 -0.010696792 -0.001729495 -0.0058630295 -0.005588528 0.011313946
00000000: 000d 7f3c 404e 303c e5e8 23bc 4710 2bbb
00000010: 3e70 6a38 07f3 33bc 050a 2c3b 39d6 c4bb
00000020: bc12 4639 af02 86bc 84a2 5bbc 7138 4dbc
00000030: 7b48 78bc 8442 d8bb 1238 3bbb a57a 14bc
00000040: 771c d03b 36e1 fcb9 9c82 db3b 880c 803b
00000050: 77a4 93bb d4d3 113c f53b 6ebc d713 143c
00000060: f60e f33a 0989 543c a082 bbbb da55 383c
00000070: 839a c3bb 9870 e6ba 29ae 23bb d5fc a2bb
00000080: 5566 933b 44e4 0bbb 5419 943b 94fc 9d3b
00000090: a9a4 823c 57f4 493b 81b1 f23b 0ce7 2639
000000a0: a985 853c a4d8 02bc 2dd9 0639 c5fc cfbb
000000b0: 201c a3bb 544c acb8 b33c 363b 21aa 74bc
000000c0: f1b7 5d3c 308e 5ebb eb5a 773c ccef 1d3c
000000d0: fb8f f13a 717f cdba f90f e3b9 d9d1 833b
000000e0: 17b9 40bb c83c 8f3b 5d06 513b 5046 66bb
000000f0: 8bfc 32bb 739e 88bc 8a0c a8bb f9ae 62bc
00000100: 0f66 b4bb 421a 36bc cc13 33bc 0673 313c
00000110: 9f7d 5ebc 4982 9a3b bd2d dd3b 42e0 813b
00000120: ae76 d33b 9267 cd3b 9d3a 743a 12cc 6b3c
00000130: b5ad 5d3b cc84 c53b aff9 033c 7934 5ebb
00000140: 4489 8b3c ce43 b0b9 946a 48bc 1f9b 0ebb
00000150: 920e 33bc 7017 f83b 1e29 76bc d332 843c
00000160: ee13 a3bb 2834 393b 8dba 943c 7152 caba
00000170: 7c94 c1bb 3471 16bc 88e8 7bbc 9733 f73b
00000180: adc5 60bc 86ab 553c b6e5 79bc 4c52 4d3c
00000190: eb09 8abc c85c 5a3c c1bb a8bb 0812 533c
000001a0: 7cd3 573b a2df 4fbc 84a4 963b 4c53 4b3c
000001b0: 71de 903b de7a 64bb c9d0 c339 a25e 113c
000001c0: 2fc6 ee3a 6db9 86bc d6ed 513b ebb2 043b
000001d0: 2aef d9bb b8c0 893c f586 9abc 03a8 5ebc
000001e0: 7ee9 8bba 4bfd 91bc 586d 40bc 9941 2fbc
000001f0: 39b0 e2ba a81e c0bb f81f b7bb 215e 393c

conv_layers.0.params.1 f4 [128]
0.0010052962 0.00080701185 -0.004226682 -0.0020701685 0.00023137292 -0.008297992 -4.4519067e-05 -0.01051975
0.00026657697 -0.007672484 -3.6959343e-06 0.00041661007 0.0007518087 0.00036144888 -0.013318303 -7.989635e-06
0.00016751183 -0.0028704088 -0.01748504 0.000891804 -0.00063150126 0.00045805733 -0.006775581 -0.0064102197
-0.0080841165 -0.004975105 -1.1999015e-05 1.6287464e-05 0.00014122952 1.8175715e-05 8.592293e-05 -0.0011630107
3.179333e-05 -0.010713434 0.00054885674 -0.0008290254 -0.009720006 -0.0007077895 -0.010318372 0.00054143794
-0.0056057996 0.00071606477 0.00048736794 -0.0004953025 -0.0030771517 -9.24252e-05 -4.186648e-06 -0.0003762075
0.00059167115 -0.011446206 -1.1907733e-05 7.62807e-05 -3.5748362e-06 -0.00058371096 -0.0027206002 0.00017774712
-0.010051153 0.0012179676 0.00021934565 -0.0055139028 0.00031959222 0.0005055082 8.966256e-05 -0.013520851
0.00062262244 0.0004324385 -0.01124262 -0.0047542513 -0.006422518 -0.0099000605 -0.008775225 -7.0459544e-07
-0.0065577542 -0.007707461 -0.00625245 0.00067018863 0.00011652832 -0.005602154 -0.006720797 -0.00014913907
-5.1807215e-06 -0.010175697 -0.003329477 -1.0156377e-06 -0.008859976 -0.012701855 -0.005796401 -0.013043577
0.00042134826 -0.0025886535 -0.009766314 -0.0014789137 -0.000173274 5.0805178e-05 -0.0073435414 0.0003244183
0.0009906031 -0.006140018 -0.00022081236 0.00012422277 0.00051597704 0.00081570545 -0.0028520161 -1.1818628e-05
0.0001230835 0.00084294943 0.0015369366 0.00011862445 0.00038312963 -0.0054419795 -1.9032947e-05 -0.0005791847
0.00014783152 -0.0058191507 -0.0012791886 -2.2545035e-05 -3.4643094e-06 -0.0016128361 -0.0040842085 -0.0010787125
-0.00409943 0.00044215 -0.00077853835 -0.0041043647 0.00091054756 -0.0036691409 -0.016784893 -0.011297213
00000000: 25c4 833a a68d 533a fa7f 8abb aaab 07bb
00000010: b29c 7239 4df4 07bc fcb9 3ab8 085b 2cbc
00000020: 5bc3 8b39 7669 fbbb ab07 78b6 756c da39
00000030: 0715 453a d980 bd39 0335 5abc 390b 06b7
00000040: 1da6 2f39 781d 3cbb c93c 8fbc f4c7 693a
00000050: 558b 25ba 6a27 f039 b105 debb d20c d2bb
00000060: 3e73 04bc 3506 a3bb 614f 49b7 10a1 8837
00000070: 0317 1439 0d78 9837 8631 b438 2a70 98ba
00000080: d459 0538 6687 2fbc 27e1 0f3a f452 59ba
00000090: a940 1fbc f38a 39ba 640e 29bc 49ef 0d3a
000000a0: dbb0 b7bb 4bb6 3b3a 6b85 ff39 30d7 01ba
000000b0: 0aaa 49bb 67d4 c1b8 087b 8cb6 b73d c5b9
000000c0: 611a 1b3a de88 3bbc 53c7 47b7 e4f8 9f38
000000d0: 38e7 6fb6 2e04 19ba 194c 32bb a161 3a39
000000e0: 97ad 24bc 36a4 9f3a 2600 6639 f8ad b4bb
000000f0: f18e a739 1584 043a 3809 bc38 8f86 5dbc
00000100: 7c37 233a eab8 e239 f732 38bc 8dc9 9bbb
00000110: fc73 d2bb dd33 22bc f6c5 0fbc 6e23 3db5
00000120: 6ee2 d6bb de8e fcbb 5ae1 ccbb 99af 2f3a
00000130: aa60 f438 4692 b7bb 223a dcbb 3762 1cb9
00000140: 0fd6 adb6 f7b7 26bc 5b33 5abb 0c51 88b5
00000150: 6f29 11bc 711b 50bc bcef bdbb bab4 55bc
00000160: 68e8 dc39 66a6 29bb e402 20bc 1cd8 c1ba
00000170: e3b0 35b9 a517 5538 17a2 f0bb b016 aa39
00000180: 20d7 813a 3432 c9bb de89 67b9 cc41 0239
00000190: a242 073a 11d5 553a e4e8 3abb 9f48 46b7
000001a0: fa0f 0139 61f9 5c3a 0973 c93a 04c6 f838
000001b0: cade c839 a252 b2bb f1a8 9fb7 6dd4 17ba
000001c0: 3903 1b39 93ae bebb 72aa a7ba 181f bdb7
000001d0: 627c 68b6 cd65 d3ba d3d4 85bb 9663 8dba
000001e0: 8354 86bb 5ed0 e739 d316 4cba e87d 86bb
000001f0: d0b1 6e3a f875 70bb 7980 89bc f217 39bc

conv_layers.0.params.2 f4 [128]
-0.003947108 0.00088440656 0.0006044762 0.00044234793 -0.002986685 0.0001728203 0.0005255737 -0.012135323
0.00016251982 0.0005602344 -2.4892242e-05 -3.1741101e-06 -0.0060117138 0.0005500913 -0.014318401 -0.007841132
-0.016480194 -3.9159182e-05 0.00029499925 -6.4994697e-06 -0.0056780605 -0.0043293247 0.0002218689 0.0001365468
0.00034252022 0.00073557557 0.00070553477 -1.6752529e-06 -0.01506424 -0.002526676 0.0009219273 -0.010192945
0.00027150582 0.0011104884 0.00012788136 -0.00014819014 -0.0023120672 -0.00026897894 -0.0081437435 -0.0013829209
-0.00455908 -1.5188496e-05 -0.0087838005 0.0007625677 0.0007591433 -0.010452393 0.000272635 0.00017559742
0.0005112343 -0.0030572864 -0.01058219 -0.0001504261 0.0005862587 -0.0011407778 -2.7398412e-06 -0.007991546
-0.007838633 -0.0048348657 -0.003461813 -1.0364896e-05 -0.013241432 3.6359244e-05 -0.0030885327 -0.0045489687
-2.1325533e-05 0.0005596293 -0.005673741 4.277517e-05 -0.011313741 0.00033043866 -0.008345302 -0.0011805635
-0.005095556 -1.6569009e-05 0.00092749484 0.0002190146 0.0002536092 3.9070954e-05 3.97827e-05 -0.0037591772
-0.004097959 -0.0004132261 -0.002224399 -0.0051265596 0.00013761986 0.0007726054 0.00020906393 0.00067325594
-0.00025026896 0.0003534357 -0.013393168 -1.6029648e-05 0.00068053696 -0.0061206813 0.0012514857 -0.01577744
-0.008979197 0.00031795242 0.00044994554 -0.0043245163 0.0010895358 0.0010522776 0.0010001265 -0.0019798623
-0.006415625 0.00044507883 -2.290071e-06 -0.0153807765 -0.012353876 -0.0129502965 -0.011116412 -0.003269534
0.0007343327 -0.0072280415 -1.6018499e-05 -0.0042276075 0.0003027431 -0.013925355 -0.0135143725 -3.121817e-06
-0.0072813733 0.0014286089 -0.0012480407 -1.6638656e-05 -0.0016105233 -0.0036759465 0.00093555 0.00051371136
00000000: be56 81bb 85d7 673a b675 1e3a efea e739
00000010: 42bc 43bb 1937 3539 a7c6 093a 3cd3 46bc
00000020: 156a 2a39 b2dc 123a afcf d0b7 cc02 55b6
00000030: e9fd c4bb 0134 103a ba97 6abc 1778 00bc
00000040: 7901 87bc da3e 24b8 21aa 9a39 0516 dab6
00000050: 060f babb 02dd 8dbb 7ba5 6839 012e 0f39
00000060: 4994 b339 a4d3 403a a3f3 383a 40d9 e0b5
00000070: 01d0 76bc 9796 25bb 7ead 713a 4f00 27bc
00000080: e558 8e39 cf8d 913a e417 0639 7d63 1bb9
00000090: 0d86 17bb be05 8db9 566d 05bc 2043 b5ba
000000a0: 5664 95bb 18d2 7eb7 eee9 0fbc 0de7 473a
000000b0: 3f01 473a 8440 2bbc 73f0 8e39 9320 3839
000000c0: 5a04 063a c15c 48bb ec60 2dbc b3bb 1db9
000000d0: 28af 193a 2786 95ba 1dde 37b6 f9ee 02bc
000000e0: 9c6d 00bc cb6d 9ebb 96df 62bb e4e4 2db7
000000f0: 97f2 58bc 7180 1838 fb68 4abb 840f 95bb
00000100: 3ce4 b2b7 16b4 123a caea b9bb 7d69 3338
00000110: 455d 39bc ba3e ad39 bcba 08bc 23bd 9aba
00000120: 9ff8 a6bb adfd 8ab7 2023 733a 49a7 6539
00000130: daf6 8439 1ee0 2338 59dc 2638 875c 76bb
00000140: 2c48 86bb 45a6 d8b9 39c7 11bb b3fc a7bb
00000150: 0d4e 1039 ac88 4a3a 2c38 5b39 717d 303a
00000160: 8836 83b9 564d b939 056f 5bbc 6877 86b7
00000170: 1066 323a ff8f c8bb e408 a43a b13f 81bc
00000180: 7b1d 13bc dab2 a639 abe6 eb39 acb4 8dbb
00000190: c1ce 8e3a 94ec 893a ad16 833a 94c0 01bb
000001a0: 2a3a d2bb 7859 e939 1faf 19b6 a7ff 7bbc
000001b0: e967 4abc 7b2d 54bc 9c21 36bc ae45 56bb
000001c0: 3c80 403a 35d9 ecbb 775f 86b7 be87 8abb
000001d0: 7eb9 9e39 2c27 64bc 636b 5dbc 6880 51b6
000001e0: 9698 eebb 2940 bb3a 4c95 a3ba 3e93 8bb7
000001f0: 3218 d3ba 26e8 70bb b33f 753a 96aa 063a

conv_layers.0.params.3 f4 [128]
-0.0041400753 -0.00069134304 0.0013234987 -0.0102018155 -0.00424948 -0.013261392 0.0043732785 -0.002286496
0.0042533097 -0.006960544 -0.009304716 -0.00907126 -0.010356515 0.005160257 0.0013285789 -0.010674217
0.0006659726 -0.004570548 0.0054442724 -0.005835176 -0.0057227933 0.008271258 -0.005339658 0.009212427
-0.011307909 0.0095343245 -0.0002738351 0.0060256934 -0.005108403 0.00437355 -0.0056507094 -0.005421224
0.010553816 0.003878955 0.004079663 -0.004572068 0.008841352 -0.009170754 -0.005427462 -0.000694015
0.008423931 -0.009988947 -0.008804581 -0.008752369 -0.0066271797 0.00503648 0.0065988638 -0.011726128
0.009766002 7.383722e-05 0.007685651 -0.0053807236 -0.00493619 0.0074533275 0.0006474106 0.006681654
0.0029485605 -0.006292075 0.0076354835 -0.0021742554 -0.008748582 -0.008892726 -0.010837765 -0.0077110324
-0.0019306134 -0.008975591 -0.011188678 0.009059213 -0.010811043 0.0035369906 0.0056669493 -0.011662574
-0.0048204404 0.008755732 -0.010579986 0.011067243 -0.001554015 -0.0059412727 0.00940023 -0.008805947
0.0029060475 0.0038523634 -0.008051829 0.0065447637 -0.012048466 0.0062069045 -0.009091371 0.009380983
-0.0025402764 -0.0021828045 0.010800496 -0.0049539283 -0.00860499 -0.0062265135 -0.012946806 0.007855514
-0.0036234995 0.0067216908 -0.010413426 0.0057638916 -0.011718124 -0.00047342316 0.00017377622 0.010258893
-0.007923507 -0.008259363 0.005289115 0.006700415 0.0022892037 -0.00016240276 0.009289215 0.012595892
-0.006213468 -0.01134978 -0.0078817 -0.0031023214 -0.009702603 0.0057614646 -0.009036637 -0.006213474
0.006727361 -0.0011567615 -0.009963567 -0.010450612 -0.0011784111 -0.00089280243 -0.0018345161 0.002341475
00000000: 78a9 87bb 3f3b 35ba 3f79 ad3a 8425 27bc
00000010: 393f 8bbb 4f46 59bc b84d 8f3b 0ad9 15bb
00000020: 595f 8b3b 4615 e4bb cf72 18bc 9f9f 14bc
00000030: 5fae 29bc 6017 a93b b623 ae3a e9e2 2ebc
00000040: aa94 2e3a 89c4 95bb de65 b23b 0135 bfbb
00000050: 4586 bbbb 2c84 073c 4cf8 aebb b8ef 163c
00000060: cf44 39bc db35 1c3c 8691 8fb9 2e73 c53b
00000070: 6464 a7bb ff4f 8f3b 9629 b9bb 86a4 b1bb
00000080: eae9 2c3c 1136 7e3b b2ae 853b 49d1 95bb
00000090: 51db 103c ee40 16bc dad8 b1bb 8fee 35ba
000000a0: 8704 0a3c aea8 23bc 1741 10bc 1966 0fbc
000000b0: d028 d9bb 0e09 a53b 483b d83b f21e 40bc
000000c0: 9501 203c 0ed9 9a38 ead7 fb3b c850 b0bb
000000d0: c3bf a1bb 0b3b f43b fdb6 293a c7f1 da3b
000000e0: a33c 413b c02d cebb 1433 fa3b f47d 0ebb
000000f0: 3656 0fbc ccb2 11bc e290 31bc d4ac fcbb
00000100: a30c fdba 5b0e 13bc b850 37bc 186d 143c
00000110: cd20 31bc dbcc 673b d1b1 b93b 6114 3fbc
00000120: c9f4 9dbb 3474 0f3c ad57 2dbc 6253 353c
00000130: 17b0 cbba 02af c2bb 6c03 1a3c d246 10bc
00000140: 6373 3e3b ef77 7c3b d2eb 03bc 7575 d63b
00000150: ee66 45bc 4a63 cb3b f9f3 14bc b2b2 193c
00000160: c47a 26bb 620d 0fbb 90f4 303c 9054 a2bb
00000170: f2fb 0cbc c807 ccbb d71e 54bc 6ab4 003c
00000180: 3c78 6dbb a141 dc3b 139d 2abc 07df bc3b
00000190: 60fd 3fbc c835 f8b9 b337 3639 ea14 283c
000001a0: 99d1 01bc 4752 07bc 5050 ad3b 288f db3b
000001b0: 7706 163b a94a 2ab9 cb31 183c 005f 4e3c
000001c0: 599a cbbb 6df4 39bc 3f22 01bc 5150 4bbb
000001d0: abf7 1ebc abca bc3b 670e 14bc 669a cbbb
000001e0: 3271 dc3b 7a9e 97ba 3b3e 23bc 0b39 2bbc
000001f0: ea74 9aba f50a 6aba 2574 f0ba 6f73 193b

conv_layers.0.params.4 f4 [128]
0.010645195 -0.0033744217 -0.00064537895 -0.010918655 0.004777283 -0.009925788 0.009803062 -0.008124163
-0.00054764806 -0.0072339866 0.00074312807 -0.009927769 0.008219938 -0.0009190213 -0.0092651965 -0.010102321
0.0084401 0.007351896 -0.012592717 -0.0043750694 -0.007772844 -0.0005273699 -0.010292853 -0.008233746
-0.008252191 -0.008000209 -0.0055657607 0.0008985488 0.010450952 -0.009799087 -0.010508275 -0.00752179
-0.006791573 -0.008925152 0.009744107 -0.006089654 -0.006005064 0.0002513364 -0.009575128 -0.013200302
-0.0022573308 0.0046435213 0.0069142915 -0.006428271 -0.010223969 0.008587747 -0.010426682 0.009305509
-0.0046640756 -0.006462542 0.0021167921 0.008763724 0.0014659334 0.010920583 -0.008497795 -7.742227e-05
-0.008367376 0.0051911417 0.008771476 -0.009377295 -0.002586899 -0.0070305853 -0.005728906 -0.009989065
-0.0063255327 0.0095454445 -0.011385864 -0.005069581 -0.006411884 -0.006196731 -4.88941e-05 0.005012261
0.007398896 -0.010789881 -0.008728751 0.009460715 0.006920663 -0.0077768075 -0.009933941 -0.0071674245
-0.008626389 -0.009425649 -0.00978973 -0.009089904 -0.008825447 -0.007765304 -0.008590811 -0.008967938
0.009437232 -0.0048358706 -0.008266551 -0.0004159496 0.003885825 -0.0043814057 -0.0061077382 -0.01040582
0.0036698848 -0.007603183 -0.00933918 0.0047506737 0.008979692 -0.0012507432 -0.011572516 0.011484965
0.013356682 0.004991971 0.0029409633 0.009688311 0.0074102306 -0.008111102 0.0022338617 0.009884716
0.006567466 -0.0034865953 -0.009698737 -0.0076877144 0.009333066 0.004607495 -0.0072333105 -0.003044771
-0.008292918 -0.00011627387 0.0087804925 -0.0065763067 -0.007416776 -0.004530386 -0.008716894 -0.0057457527
00000000: 2f69 2e3c 6725 5dbb a62e 29ba 29e4 32bc
00000010: c18a 9c3b c69f 22bc 069d 203c 361b 05bc
00000020: 0a90 0fba 140b edbb 7bce 423a 15a8 22bc
00000030: ebac 063c 7aea 70ba 0dcd 17bc 3584 25bc
00000040: 5848 0a3c 2ce8 f03b af51 4ebc be5c 8fbb
00000050: 57b3 febb 323f 0aba 5ba3 28bc d5e6 06bc
00000060: 3334 07bc 4f13 03bc fc60 b6bb 978c 6b3a
00000070: 783a 2b3c 5a8c 20bc e62a 2cbc 5979 f6bb
00000080: d88b debb cd3a 12bc bfa5 1f3c b88b c7bb
00000090: 21c6 c4bb cdc5 8339 ffe0 1cbc 1446 58bc
000000a0: baef 13bb ae28 983b 4891 e23b 3fa4 d2bb
000000b0: 6f82 27bc 9fb3 0c3c add4 2abc 2276 183c
000000c0: 1ad5 98bb bbc3 d3bb e1b9 0a3b b995 0f3c
000000d0: 9024 c03a 3fec 323c 563a 0bbc c45d a2b8
000000e0: 5217 09bc 741a aa3b 3db6 0f3c 3aa3 19bc
000000f0: f788 29bb d360 e6bb 8cb9 bbbb 2da9 23bc
00000100: 6a46 cfbb 7f64 1c3c c68b 3abc ba1e a6bb
00000110: c81a d2bb f20d cbbb a413 4db8 e53d a43b
00000120: 7072 f23b 0bc8 30bc 0903 0fbc 1d01 1b3c
00000130: bbc6 e23b 97d4 febb f8c1 22bc b7dc eabb
00000140: b355 0dbc 0a6e 1abc 1b65 20bc d2ed 14bc
00000150: 9c98 10bc 1774 febb 79c0 0cbc 42ee 12bc
00000160: 9f9e 1a3c 3976 9ebb 6e70 07bc cf13 dab9
00000170: 53a9 7e3b e591 8fbb 6c23 c8bb 2c7d 2abc
00000180: 7382 703b 1f24 f9bb 5c03 19bc 8aab 9b3b
00000190: 8f1f 133c faef a3ba a69a 3dbc 6f2b 3c3c
000001a0: fcd5 5a3c b093 a33b 2dbd 403b b9bb 1e3c
000001b0: 85d1 f23b 6de4 04bc fb65 123b 81f3 213c
000001c0: e633 d73b 5d7f 64bb 74e7 1ebc 39e9 fbbb
000001d0: b7e9 183c 78fa 963b 6805 edbb c88a 47bb
000001e0: 05df 07bc 0fd8 f3b8 0edc 0f3c 0f7e d7bb
000001f0: 6d08 f3bb a273 94bb 4ed1 0ebc de46 bcbb

conv_layers.0.params.5 f4 [128]
0.007892267 -0.0071814554 0.010178363 0.00453939 -0.008864602 0.0052394234 -0.00034586625 -0.006820467
0.004212935 -0.008715225 -0.0083666295 0.0012710218 -0.010584374 0.007236387 -0.011699039 -0.008093483
0.0025681301 0.0050499686 0.0093087945 0.009166502 -0.008190751 0.003896242 0.0072427075 -0.0023690634
0.00844692 0.009535945 -0.005410776 -0.008346873 -0.009946573 -0.009310868 0.0057671326 -0.009269756
0.009299846 0.0020227719 -0.007443826 -0.0066864025 -0.0048701726 0.00019808489 -0.011403668 0.0010586678
0.008034409 -0.008034462 -0.001906873 0.006985648 0.0060679405 -0.0086914385 0.010030813 0.0042804326
0.007943298 -0.005555542 0.0013184927 0.012001077 0.00585433 -0.005097324 -0.0049670506 -0.00907042
0.005162312 -0.008264043 -0.009487422 0.0071923053 -0.009378543 -0.0029447821 -0.009363593 -0.0020626031
-0.008876403 0.0053958707 -0.0077231643 0.00533599 -0.0098010395 0.010407503 -0.004506789 0.005840724
-0.010726702 0.0071145343 0.0114135165 0.008516953 0.007342278 0.009703854 -0.010508611 -0.0100892065
-0.009159798 -0.00053868955 0.00051115174 -0.006119381 0.004089603 0.005698528 0.008684345 0.0018266921
0.006426656 0.0077203885 -0.0075551304 -0.0019491366 0.00899694 -0.006534728 0.004067355 -0.00012226334
-0.0008908365 0.0044576162 0.001813538 0.0030227217 0.008825795 0.004058166 0.0025291056 -0.004372445
-0.010152081 0.010184777 0.0063047325 -0.007164946 -0.009389652 -0.0027575204 -0.009036162 0.00042711632
0.0035713774 -0.008899706 -0.0061742924 -0.009096001 0.008759216 -0.013081583 -0.010168853 -0.004083385
-0.013081168 0.0023309141 -0.0030607476 -0.0050486554 -0.0085657425 -0.010292946 0.0016290841 0.0038582624
00000000: 914e 013c 6a52 ebbb 26c3 263c 2abf 943b
00000010: d63c 11bc 78af ab3b 6255 b5b9 397e dfbb
00000020: a90c 8a3b 4eca 0ebc 3014 09bc 6a98 a63a
00000030: 156a 2dbc 371f ed3b 53ad 3fbc 879a 04bc
00000040: 134e 283b 357a a53b ea83 183c 192f 163c
00000050: 8032 06bc 1858 7f3b 3c54 ed3b 4a42 1bbb
00000060: f364 0a3c a73c 1c3c e14c b1bb 53c1 08bc
00000070: f3f6 22bc 9c8c 18bc 37fa bc3b 2de0 17bc
00000080: 625e 183c 7b90 043b 57eb f3bb 9c19 dbbb
00000090: f895 9fbb 02b5 4f39 73d6 3abc ffc2 8a3a
000000a0: c1a2 033c faa2 03bc 0af0 f9ba dde7 e43b
000000b0: 93d5 c63b 8966 0ebc 4758 243c df42 8c3b
000000c0: 9b24 023c 440b b6bb 46d1 ac3a 2aa0 443c
000000d0: aed5 bf3b 7407 a7bb a4c2 a2bb 199c 14bc
000000e0: 9d28 a93b e965 07bc 2271 1bbc 6ead eb3b
000000f0: 76a8 19bc 3ffd 40bb c169 19bc bd2c 07bb
00000100: 556e 11bc d8cf b03b 9912 fdbb 87d9 ae3b
00000110: 8a94 20bc 3b84 2a3c b0ad 93bb 8b63 bf3b
00000120: 0dbf 2fbc 0a21 e93b c2ff 3a3c b18a 0b3c
00000130: 7e97 f03b eafc 1e3c 4f2c 2cbc 334d 25bc
00000140: fa12 16bc d836 0dba d0fe 053a 1785 c8bb
00000150: 1402 863b b8ba ba3b c848 0e3c 9e6d ef3a
00000160: b396 d23b 50fb fc3b 0791 f7bb 2c7a ffba
00000170: e767 133c 4621 d6bb 7247 853b d133 00b9
00000180: 0787 69ba 3211 923b 3db4 ed3a db18 463b
00000190: 119a 103c 5dfa 843b 5abf 253b ba46 8fbb
000001a0: ea54 26bc 0dde 263c ee97 ce3b ecc7 eabb
000001b0: 0ed7 19bc 84b7 34bb 690c 14bc 95ee df39
000001c0: c50d 6a3b 13d0 11bc b851 cabb 6507 15bc
000001d0: d182 0f3c 2354 56bc 439b 26bc ebcd 85bb
000001e0: 6552 56bc 40c2 183b d396 48bb 316f a5bb
000001f0: 5457 0cbc bfa3 28bc fe86 d53a e7da 7c3b

conv_layers.0.params.6 f4 [128]
1.0011535 1.0039887 0.98402786 0.9860737 0.99449927 0.9889864 0.9889373 0.9982846
0.9947937 1.0020767 1.0104247 1.0026487 1.0119492 0.98987395 0.99018407 1.0092633
1.0050986 0.99088496 0.9922894 1.0010272 0.9949113 0.9962813 0.99111414 0.9966475
0.999031 1.0145452 0.9880369 0.99781555 0.9985329 0.9885908 0.98702997 0.9956616
1.0061531 0.9991214 0.9889306 0.98743314 0.9926584 0.9950333 1.011281 0.9934556
1.0146396 1.0111876 0.99976 1.0090046 1.0043519 0.9918398 0.9899001 1.0094745
1.0100476 0.99276954 1.0083494 0.98901856 1.003781 1.0010195 0.99538755 1.0013542
0.99586076 1.0023062 1.0009654 0.9860624 0.98726064 1.0092348 1.0093511 1.0179927
0.9989012 1.0074126 1.018589 1.0207955 1.0081149 0.9946674 0.99352676 1.0081483
0.9913635 1.0102592 1.0029099 1.0113667 0.9954867 1.0055737 0.9955452 1.0097078
0.9886879 0.9917976 1.0071696 0.9968006 0.9959357 1.0113119 0.9909831 1.0015558
0.99985844 0.9870573 0.99302393 0.9923228 1.0050732 1.0097657 0.9965631 0.9940782
1.001465 1.0142734 1.0028304 1.0053887 1.0110226 1.0002179 0.99070555 0.9964645
1.0019745 1.0119468 1.0048231 0.9950299 0.99509895 0.99225813 0.99385875 0.9954826
1.0081668 0.996822 0.99386245 0.99765337 0.99138963 0.98938394 1.0055217 1.0013331
0.9965205 0.99348015 1.0117058 0.9952006 0.9917018 1.0103701 0.9951385 1.0028766
00000000: cc25 803f b482 803f 40e9 7b3f 536f 7c3f
00000010: 8197 7e3f 362e 7d3f ff2a 7d3f 948f 7f3f
00000020: cdaa 7e3f 0d44 803f 9955 813f cb56 803f
00000030: 8d87 813f 6168 7d3f b47c 7d3f 8a2f 813f
00000040: 12a7 803f a3aa 7d3f ae06 7e3f a921 803f
00000050: 82b2 7e3f 4b0c 7f3f a8b9 7d3f 4a24 7f3f
00000060: 7fc0 7f3f 9edc 813f fcef 7c3f d770 7f3f
00000070: da9f 7f3f 4914 7d3f ffad 7c3f aee3 7e3f
00000080: a0c9 803f 6cc6 7f3f 8e2a 7d3f 6bc8 7c3f
00000090: dc1e 7e3f 81ba 7e3f a871 813f 1b53 7e3f
000000a0: b6df 813f 986e 813f 45f0 7f3f 1027 813f
000000b0: 9a8e 803f 37e9 7d3f 186a 7d3f 7636 813f
000000c0: 3d49 813f 2526 7e3f 9811 813f 5230 7d3f
000000d0: e57b 803f 6821 803f b8d1 7e3f 602c 803f
000000e0: bbf0 7e3f 924b 803f a21f 803f 966e 7c3f
000000f0: 1dbd 7c3f 9b2e 813f 6b32 813f 964d 823f
00000100: fdb7 7f3f e5f2 803f 2061 823f 6da9 823f
00000110: e909 813f 86a2 7e3f c557 7e3f 010b 813f
00000120: 00ca 7d3f 2c50 813f 5a5f 803f 7774 813f
00000130: 37d8 7e3f a4b6 803f 0ddc 7e3f 1b3e 813f
00000140: a61a 7d3f 73e6 7d3f efea 803f 532e 7f3f
00000150: a4f5 7e3f ab72 813f 12b1 7d3f fb32 803f
00000160: b9f6 7f3f caaf 7c3f d136 7e3f de08 7e3f
00000170: 3da6 803f 0140 813f c21e 7f3f e97b 7e3f
00000180: 0130 803f b6d3 813f bf5c 803f 94b0 803f
00000190: 3069 813f 2407 803f e19e 7d3f 4c18 7f3f
000001a0: b340 803f 7987 813f 0b9e 803f 48ba 7e3f
000001b0: cebe 7e3f a104 7e3f 876d 7e3f f3d7 7e3f
000001c0: 9c0b 813f ba2f 7f3f c56d 7e3f 3666 7f3f
000001d0: b6cb 7d3f 4448 7d3f efb4 803f af2b 803f
000001e0: f81b 7f3f b754 7e3f 937f 813f 77c5 7e3f
000001f0: 2be0 7d3f cf53 813f 66c1 7e3f 435e 803f

conv_layers.0.params.7 f4 [128]
0.9921858 0.99310714 0.9933193 1.0158707 1.0073287 1.0094645 1.0106686 1.0025693
0.99127305 0.9992848 1.001292 1.006856 0.993363 1.0015931 0.9885285 1.0059681
0.9967008 0.9902663 0.9914923 0.9877478 1.0089831 1.0028541 0.9958593 1.005849
1.0022832 1.0165731 1.0053613 1.0035808 0.99991536 1.0073137 1.0015434 0.9932685
0.9986377 0.99635434 0.9955596 0.99756974 0.99032885 0.99773496 1.0042796 1.0050693
0.9885871 0.9920632 1.0007973 1.0010321 0.99605066 1.0024705 0.9969224 0.9941687
0.98470503 1.0040643 0.9871115 1.00726 0.9936362 0.9865919 1.0034794 0.9883399
0.99206847 0.9841424 1.0042124 1.0088162 0.9978099 0.9975085 0.9961513 1.0074631
1.0030315 1.0093341 1.0043678 0.99240637 0.99632597 0.99822813 0.9967736 1.0034213
0.9861624 1.0074364 1.0117267 0.98865145 0.9953953 1.0023891 0.99709964 0.99258596
1.0134054 0.9984922 1.0126636 1.0145475 1.0090224 0.99036515 1.0116405 1.0050513
0.9907915 1.008128 1.0030354 0.9908789 0.99945986 0.9920674 0.9902658 0.9937917
0.99604887 1.0054336 0.9922928 1.0056217 0.9943528 0.9927479 1.0051409 0.9982464
1.006485 0.9946205 0.9921005 1.0051031 1.0050297 0.99629706 0.99785805 1.0074658
0.99014837 0.9895246 1.0039688 1.0069128 1.001801 0.99803543 0.9969617 1.0031215
1.0140371 0.991227 1.0012068 0.9914816 0.9956389 0.9951895 0.99675894 0.9935865
00000000: e3ff 7d3f 453c 7e3f 2c4a 7e3f 0d08 823f
00000010: 26f0 803f 2236 813f 975d 813f 3154 803f
00000020: 12c4 7d3f 21d1 7f3f 562a 803f a8e0 803f
00000030: 0a4d 7e3f 3434 803f 3410 7d3f 90c3 803f
00000040: c927 7f3f 1882 7d3f 70d2 7d3f 0add 7c3f
00000050: 5c26 813f 865d 803f a3f0 7e3f a9bf 803f
00000060: d14a 803f 111f 823f aeaf 803f 5675 803f
00000070: 74fa 7f3f a8ef 803f 9332 803f d846 7e3f
00000080: b8a6 7f3f 1411 7f3f fedc 7e3f bb60 7f3f
00000090: 3186 7d3f 8f6b 7f3f 3c8c 803f 1ca6 803f
000000a0: 0b14 7d3f dbf7 7d3f 201a 803f d221 803f
000000b0: 2dfd 7e3f f450 803f 4e36 7f3f d781 7e3f
000000c0: a115 7c3f 2e85 803f 57b3 7c3f e5ed 803f
000000d0: f15e 7e3f 4991 7c3f 0372 803f d803 7d3f
000000e0: 33f8 7d3f c2f0 7b3f 088a 803f e420 813f
000000f0: 7870 7f3f b85c 7f3f c603 7f3f 8df4 803f
00000100: 5663 803f dc31 813f 208f 803f 580e 7e3f
00000110: 380f 7f3f e18b 7f3f 8e2c 7f3f 1c70 803f
00000120: 2475 7c3f adf3 803f 4380 813f 4318 7d3f
00000130: 3ad2 7e3f 494e 803f ec41 7f3f 1d1a 7e3f
00000140: 45b7 813f 2f9d 7f3f f69e 813f b1dc 813f
00000150: a527 813f 9288 7d3f 707d 813f 85a5 803f
00000160: 83a4 7d3f 570a 813f 7763 803f 3daa 7d3f
00000170: 9adc 7f3f 21f8 7d3f 0f82 7d3f 2269 7e3f
00000180: 0ffd 7e3f 0cb2 803f e706 7e3f 36b8 803f
00000190: e88d 7e3f ba24 7e3f 75a8 803f 138d 7f3f
000001a0: 80d4 803f 739f 7e3f 4cfa 7d3f 38a7 803f
000001b0: d0a4 803f 530d 7f3f a073 7f3f a4f4 803f
000001c0: 5d7a 7d3f 7c51 7d3f 0d82 803f 85e2 803f
000001d0: 043b 803f 407f 7f3f e238 7f3f 4966 803f
000001e0: f8cb 813f 0dc1 7d3f 8b27 803f bdd1 7d3f
000001f0: 31e2 7e3f bdc4 7e3f 982b 7f3f af5b 7e3f

conv_layers.0.params.8 f4 [128]
0.99773556 0.9991426 1.0098301 0.9972618 1.0067444 0.9945152 1.0005143 0.9958403
0.9906771 1.001363 0.99755716 1.0041285 0.99428874 0.990783 1.0036882 1.0084777
0.98658895 1.0018845 1.0071262 0.99589264 1.0085316 0.98688525 0.9934141 0.99567384
1.0045972 1.0047729 0.9993854 1.0139959 1.0072795 1.0029209 0.9960947 0.9949437
0.99837 0.9875212 1.0080136 1.0038747 1.0058107 0.99877447 0.99639606 0.99943316
0.9984224 1.0086348 0.98845804 0.99290425 0.9983183 1.0065292 1.0054091 0.99763894
1.0077518 0.9951163 0.9914788 1.0075458 0.99940556 0.9980755 0.99728316 1.0031548
0.9888978 1.0008433 1.0082202 1.0022144 0.9972722 1.0059332 1.0111159 0.9982366
1.0108745 0.993683 1.0001853 0.99256116 1.0077398 1.0086194 0.98912513 0.9943223
1.006568 1.0057232 0.9934108 0.9927844 0.98496103 0.99886656 1.0165048 1.012925
1.005737 0.9989483 0.99723256 1.002499 0.9919879 0.9896996 1.0108122 0.9989712
0.989282 0.9861041 0.986995 0.99222976 1.005576 0.9895278 1.0004622 0.9900629
1.0005947 0.9949691 0.99845886 0.9990571 0.9926861 0.9969392 0.99006975 0.9973278
1.0072839 1.004034 1.0029277 1.0015277 1.0084786 0.99878585 1.0035255 0.9984572
0.9932365 1.0103244 1.005011 1.006336 0.9885521 0.9940105 1.0065788 0.99418277
0.99096894 1.0021884 0.99219483 0.9931316 1.0107985 1.0050994 0.99426615 0.9950414
00000000: 996b 7f3f cfc7 7f3f 1d42 813f 8d4c 7f3f
00000010: 00dd 803f 8c98 7e3f da10 803f 64ef 7e3f
00000020: 049d 7d3f aa2c 803f e85f 7f3f 4887 803f
00000030: b589 7e3f f4a3 7d3f db78 803f cc15 813f
00000040: 1891 7c3f c03d 803f 83e9 803f d2f2 7e3f
00000050: 9017 813f 83a4 7c3f 6350 7e3f 7be4 7e3f
00000060: a496 803f 669c 803f b9d7 7f3f 9eca 813f
00000070: 89ee 803f b65f 803f 1000 7f3f a1b4 7e3f
00000080: 2d95 7f3f 30ce 7c3f 9706 813f f77e 803f
00000090: 68be 803f afaf 7f3f d013 7f3f dada 7f3f
000000a0: 9c98 7f3f f21a 813f 960b 7d3f f92e 7e3f
000000b0: ca91 7f3f f3d5 803f 3fb1 803f 4465 7f3f
000000c0: 03fe 803f f1bf 7e3f 8ed1 7d3f 43f7 803f
000000d0: 0bd9 7f3f e081 7f3f f34d 7f3f 6067 803f
000000e0: 6828 7d3f a21b 803f 5c0d 813f 9048 803f
000000f0: 3b4d 7f3f 6bc2 803f 3f6c 813f 6f8c 7f3f
00000100: 5664 813f 0262 7e3f 1206 803f 7d18 7e3f
00000110: 9efd 803f 711a 813f 4e37 7d3f e88b 7e3f
00000120: 38d7 803f 8abb 803f 2c50 7e3f 1e27 7e3f
00000130: 6826 7c3f b8b5 7f3f d41c 823f 87a7 813f
00000140: fdbb 803f 13bb 7f3f a24a 7f3f e351 803f
00000150: ebf2 7d3f f45c 7d3f 4b62 813f 94bc 7f3f
00000160: 9641 7d3f 5171 7c3f b4ab 7c3f c502 7e3f
00000170: b7b6 803f b251 7d3f 250f 803f c374 7d3f
00000180: 7d13 803f 4cb6 7e3f 009b 7f3f 35c2 7f3f
00000190: ad20 7e3f 6837 7f3f 3675 7d3f e050 7f3f
000001a0: aeee 803f 3084 803f ef5f 803f 0f32 803f
000001b0: d415 813f 6eb0 7f3f 8673 803f e49a 7f3f
000001c0: bf44 7e3f 4f52 813f 33a4 803f 9ecf 803f
000001d0: c011 7d3f 7977 7e3f 93d7 803f c382 7e3f
000001e0: 24b0 7d3f b647 803f 7b00 7e3f df3d 7e3f
000001f0: d861 813f 19a7 803f 3a88 7e3f 08bb 7e3f
