trained_model/2025-06-19_14-15-19/saved_model_2025-06-19_14-15-19.pkl (torch, 820950 bytes, 54 tensors)

conv_layers.0.f_lin.0.weight f4 [128, 5]
00000000: b5ed 743d 3ba1 ae3b 52d4 9f3d 515f 033e
00000010: 7fb3 26be a763 573d a8dd 4c3e 4639 543d
00000020: 1309 44be d807 1f3d a194 21be 7b2b 12be
00000030: 89c5 c83d e47a f73c c3a3 54be a06c bbbd
00000040: 0051 c4bd 92ee c73c 03ba 4dbe c509 443e
00000050: 9d1c 0f3e aa1f 283d 5434 b43d be10 333e
00000060: 344a 6f3e 0c07 43be 7cb7 2c3e ba46 31bd
00000070: 8278 8a3c 6bf3 753e 2763 f23c 257a 193d
00000080: 707a b73d 0342 c7bd bdee 3f3e f1a7 213e
00000090: 60ac 27be 2e37 e03d b415 933c a79b 1d3d
000000a0: 9066 553d c75f a83d 4995 b5bd 289e 2b3d
000000b0: c202 18be 1c6e aabd 3f02 6f3c 7b21 053e
000000c0: a977 aa3d 931b 00be 7e9f 47be e0d2 30bd
000000d0: 1365 ed3d 0bc4 29be dfb7 b83d 9731 08be
000000e0: bb07 913d 34be 383e 9daf fa3d b0f5 8a3d
000000f0: 5ddd 62be ebae cfbd 19f2 c23d 42e7 563e
00000100: 46b4 023e d116 e1bc d5ae e73d 2ae1 9bbc
00000110: 7992 a1bd 843c 6c3e f748 0bbe 6445 57be
00000120: d504 9f3a 27f3 2dbd dda8 cfbd 8774 e63c
00000130: 0d0c 103e 4d85 023e 938f c73d a660 ca3d
00000140: 81ab 53bd b6b8 74bd 6502 033e 3547 0f3e
00000150: fea7 153d bbf2 203e f785 1fbc 3451 f83d
00000160: fea8 febc c8e4 583e 9ee2 16be 49b5 ed3d
00000170: 93b3 593d c5fd 1bbe fd2e f3bd 1a3f 433d
00000180: 2c13 58bc 1534 45be c320 dabc 7379 1fbe
00000190: decd 29be c5cb 073c 5365 d03d 4a5b 413e
000001a0: 0ec1 9bbc 425a 34be c449 e33d b6d4 08be
000001b0: 4d5b 3dbe 8f3e 5b3e b96e 3fbd 892a 143e
000001c0: 7d81 3bbe 5886 a0bd b415 febc 198c 92bd
000001d0: 1c87 67be 18f8 85bc 939a 3a3e 59cd f83d
000001e0: 929e 3a3d b102 be3a 71a7 873d 3244 0b3e
000001f0: eb39 0e3e ca7d dfbb 1db2 4e3e 252b d0bb
00000200: 4b6f 83bd 4756 41bd 3cb7 393e 9769 6bbe
00000210: f365 3bbd 4642 523d 1ec3 3cbe 67db 3d3e
00000220: 5537 46be 4f0d 303e 93d0 e1bc 8918 32be
00000230: de82 b03d 7e12 093e e561 2f3d 77fa 4bbe
00000240: 8293 f1bd 9abe 113e ab2c f33d f7c1 593d
00000250: 5f54 43be 6bb6 c5bd b46d e03c 64ca 2fbe
00000260: 87ab e43b ce20 4a3e 9538 3c3e 76b2 81bb
00000270: bf93 433d 1c31 be3d 0e26 3b3e 1e87 9ebc
00000280: f8da abbd 263a 383d 80c2 a73d 935e ec3d
00000290: 4008 2b3e ff86 9d3d 2858 3fbb defa 9a3d
000002a0: 03f4 a43d 2bf7 c5bd 5a38 2cbe 607b c3bd
000002b0: 0227 343e f0fc f23d 5f70 afbc 563b b1bd
000002c0: 919e c1bc 4e6a 9abd eaab 64be 14b6 9fbc
000002d0: c690 2ebc 3c75 483e 52e8 203e e7af 3dbd
000002e0: d742 09be b1bc 323c 5a95 203d cced fbbd
000002f0: 9351 d0bb 0028 373e 271f 0dbe 12aa 22be
00000300: 473f 99bd d78d 26bc cd00 37bd b06a d8bc
00000310: 4a81 2c3e 5550 4fbe 0220 b13d e4cb 71be
00000320: 3c39 1a3c 1e6c 5c3e 4530 42be 1988 ed3d
00000330: 7579 363e 27f9 123d 7597 423e 0a4e ac3c
00000340: 462a 55bd e757 ee3d 7bc1 10bd 3baa c23d
00000350: 3e80 5abe 0d3b 3b3e dd64 76be 49e9 903c
00000360: e2ad 203e c7f2 de3d 77ec 40be 84d9 e4bd
00000370: dd26 23be 10d7 913c aad2 51be 16a9 55be
00000380: 71ac 09be 09bd cdbd fe3d 1fbe 47e8 be3c
00000390: 42ed 1dbc 9dfb 7fbe d3ce c4bd 80de 243e
000003a0: 1a3f 213e 61de 03bd 7778 ab3b 13dc d23a
000003b0: 91dd 90bd f021 fd3d be26 d83d 1724 ac3c
000003c0: fe32 173c 902a 003e 02b6 923d 208e c33d
000003d0: fe7f 8c3d d428 8f3d 36d5 56be aac1 3c3e
000003e0: 3051 303d 3853 f03d ef5f 11be b88b 3cbe
000003f0: 1e1b 3b3e 4982 ccbc dcda f2bd 49b3 373e
0.059797008 0.0053292788 0.07804169 0.12829329 -0.1627941 0.05258527 0.2000643 0.051812433
-0.19144087 0.03882584 -0.15779354 -0.14274399 0.09803302 0.030209966 -0.20765595 -0.09151578
-0.09585762 0.024405751 -0.20090489 0.19144352 0.13975759 0.041045822 0.08799043 0.17486855
0.2336815 -0.19045657 0.16866869 -0.04328034 0.016903166 0.24018638 0.029588295 0.03747
0.089589 -0.097293876 0.18743415 0.15786721 -0.1637435 0.10948025 0.017954685 0.03847852
0.052099764 0.08221393 -0.088663645 0.041898876 -0.14844802 -0.08321783 0.014587938 0.13001053
0.083236046 -0.12510519 -0.19494435 -0.043169856 0.11591544 -0.1657869 0.09019446 -0.13300167
0.070815526 0.18041307 0.12240527 0.067851424 -0.22154756 -0.10140785 0.09518833 0.20986655
0.12764081 -0.0274767 0.113126434 -0.019028265 -0.078892656 0.2306996 -0.13602053 -0.21022564
0.0012132177 -0.042468216 -0.1013963 0.028131736 0.14067097 0.12746163 0.097441815 0.098817155
-0.05167723 -0.059746467 0.12793882 0.13992007 0.036537163 0.15717594 -0.00973653 0.12124863
-0.031086441 0.21181023 -0.14734885 0.11606843 0.05314977 -0.15233524 -0.11874197 0.0476676
-0.013188165 -0.19258149 -0.02662695 -0.15573673 -0.16582438 0.008288329 0.10175576 0.1888248
-0.019012954 -0.17612556 0.11098054 -0.13362393 -0.1849186 0.21410583 -0.046736453 0.14469351
-0.18311115 -0.07838124 -0.031016208 -0.07155628 -0.22610134 -0.016353652 0.18223028 0.12148542
0.04556138 0.0014496652 0.06623734 0.13600233 0.13889281 -0.006820415 0.20185132 -0.0063527995
-0.06417712 -0.04720142 0.18136305 -0.22989498 -0.045751523 0.051332735 -0.18433806 0.18540727
-0.19357045 0.17192577 -0.027565276 -0.17392172 0.08618711 0.1338596 0.04281797 -0.19919764
-0.11795713 0.14232865 0.11873754 0.053163495 -0.19075154 -0.09653934 0.02739606 -0.1716705
0.0069784555 0.19739076 0.1838096 -0.003958042 0.047748324 0.092867106 0.18276235 -0.019351538
-0.08391374 0.04497733 0.08191395 0.11541476 0.16702366 0.07691764 -0.0029196832 0.0756738
0.08054354 -0.09666284 -0.16818371 -0.09545016 0.17593005 0.1186465 -0.021415887 -0.086538956
-0.02363518 -0.07539807 -0.22331205 -0.019496001 -0.010654634 0.19575971 0.15713623 -0.04631033
-0.13404404 0.010909245 0.039204933 -0.123012155 -0.0063573807 0.17886353 -0.13781415 -0.15885189
-0.07482772 -0.010165653 -0.044678498 -0.02641806 0.16846195 -0.20245488 0.08648683 -0.23612934
0.00941306 0.21525618 -0.18963726 0.11598224 0.1781977 0.03588214 0.19003089 0.021033306
-0.05204227 0.1163786 -0.035340767 0.09505125 -0.21337983 0.18284245 -0.24061914 0.017689364
0.15691331 0.1088615 -0.18840204 -0.111743 -0.15932794 0.017802745 -0.20490518 -0.20865282
-0.13444687 -0.10045821 -0.15550992 0.023304118 -0.009639086 -0.24998327 -0.09609761 0.16100502
0.15746728 -0.0321945 0.0052328664 0.0016087316 -0.070735104 0.12359989 0.105542645 0.021013303
0.009228466 0.12516236 0.071636215 0.095485926 0.0686035 0.06990209 -0.20979771 0.18433252
0.043046176 0.11734623 -0.14196752 -0.18412673 0.18272063 -0.024964469 -0.1185815 0.17939486

conv_layers.0.f_lin.1.weight f4 [128, 5]
00000000: 7320 dabd fa0a 0c3e 0f23 3d3e 7a94 933d
00000010: 4607 593e 41d3 8cbd 1fa0 15be 5ae2 9f3c
00000020: ce71 ad3d 1161 1cbe e118 f63d cd51 ff3d
00000030: 9158 b7bd dee0 eebd 1532 0c3e 2718 50bd
00000040: 16a4 e6bc 2884 4fbc 4d5b 443e a679 5ebe
00000050: 92f4 3f3d 49dd 22bb 09c2 cdbd 4c88 8c3d
00000060: 21a6 a2bc 6b04 32be e026 09bc 40d6 863b
00000070: 421f 1c3c 851b 6c3e fea9 1c3e 2dca 71bd
00000080: 9f11 e63c 9f0c 0b3e 0035 81bd abfc 20be
00000090: 714d 92bd 185d 153e e0d4 9ebd 06b9 0a3e
000000a0: a289 8dbd b329 533d ee9e 3ebe 176e 3d3e
000000b0: 824c 0bbe d6d9 293d 2907 6bbd 8a0f 1f3e
000000c0: ef9e 16bd 6afe 563e 4377 3e3e 168e 14be
000000d0: e2e8 e23d 99b6 57be 93d0 283e 57b2 053e
000000e0: 47e7 f7bc 5361 4fbd 615b 62bd aa78 663e
000000f0: 2794 54be a955 f6bd 5098 84bd fd22 00be
00000100: f495 50be e811 52bd 1c88 3e3d f7ab 8bbd
00000110: 33f6 223e 9424 3abe 5009 a6bd 7ce0 f2bd
00000120: 5ac3 1b3d 036c 123e 731a 05bd 43b3 083e
00000130: 08ba e0bd 1524 aebd d74e 553e ba97 edbd
00000140: 9e8b 2bbb ba9f 443e c645 f1bd 3174 d13d
00000150: e011 57be 3d2c 403e 9496 e8bc c0d6 ae3d
00000160: 8528 abbc 3e57 6abe ccb8 c5bc dc18 373c
00000170: f3bf c6bd e544 41be be64 7b3d 7c25 c03b
00000180: da3e 8dbd de3c 1f3e 9aba 0a3e 2f53 b63d
00000190: 5279 0a3e 1923 f13d 0586 9f3d 4f5f 193e
000001a0: da67 1dbe e151 43be c33e c8bd 2e7e cebd
000001b0: 8ce3 3fbe ece5 74bd 13f5 063e 2a6c 943d
000001c0: d093 083e 364a 0abe eb91 faba c926 eebd
000001d0: 882c b537 0406 023e 4c79 863d 6477 153e
000001e0: c90c 293e bb11 c6bd 1049 2cbd 9ca0 a8bc
000001f0: 939e e4bd c55f 19be 58d2 b0bc 702e debd
00000200: 14db f33d 787c 5a3e ab9b 49bd 455d 93bd
00000210: b099 4f3d 6c0f e5bd 02b7 e63a 03b0 023d
00000220: de18 433e 4c9a 273e b022 603d 3432 393e
00000230: 5d08 1e3e 4061 95bd 0060 2dbe a518 42be
00000240: 64b0 08bd e2a5 1e3e 0b44 f53d e7c7 843d
00000250: a0ac 493e 82a6 0b3e dc7a 3fbe a8b8 4ebd
00000260: 5200 37be deec 12be ef59 78be 1a66 d53d
00000270: cf98 423d 703f f13d 8c30 36be 2d04 8d3d
00000280: c3db cf3c b88b 3bbe 8a0c bdbd fcbd 073e
00000290: f26d 13be c3ea 483e 369b fe3d ba17 fd3d
000002a0: e53d f0bc af52 06be 327e e03d e07b e93d
000002b0: b057 563b adf2 003d a4b5 f43d b5a2 78bd
000002c0: 6033 0c3e cbc6 48bd f9d2 463e d179 55be
000002d0: 8416 3cbe a632 1abd a2c2 143e 3ee5 2c3d
000002e0: f0df 523e a6e7 59be cf67 3d3e c6d8 e4bd
000002f0: 2bb3 1fbe 8e5d 083e e652 2d3e bc8d e93d
00000300: c13c 843c 1bd4 34bb 04d2 41be 634b e8bd
00000310: d209 5d3e 2ead 34bd 1eec c8bc 4cbd 95bc
00000320: 59ac 92bd 4f7f 3a3d baad e9bd ac47 e0bd
00000330: 81bf 163e 8180 ff3d 2554 6ebb 8c30 803d
00000340: f105 043c 4c31 0abe 024a 01bd 9da4 b33d
00000350: 2c52 d83d c9e2 973c b777 b7bd 3279 21be
00000360: 5bca debd f6ba 67bc 7e5c 3a3e f528 6d3b
00000370: 8e40 0ebe 5454 303c dce5 e33c d432 2ebe
00000380: 235f 0a3e 245d 9a3c 1050 fd3d e209 99bd
00000390: 1ee1 183e 6044 e0b9 807c d13d 64fe 193e
000003a0: f8c7 8a3c cd92 34be 17d6 563e 3411 2cbe
000003b0: 0b0c f3bc 695c b5bc c82c 513e 6551 ddbd
000003c0: e0b1 efbd e89a 0bbe bc92 8abd 30b8 debd
000003d0: e17e f1bd 8046 a7bc 0069 223e b173 b5bd
000003e0: 2021 acbd 3d9d 683e ea71 58bc bbbd 0ebb
000003f0: e9a6 80bd 9f58 d3bd 907a 7b3e e85d be3d
-0.106507204 0.13676062 0.18470405 0.07206054 0.21194181 -0.06876231 -0.14611863 0.019517113
0.08468972 -0.15271403 0.12016464 0.12466774 -0.089524396 -0.11663984 0.1369098 -0.050804283
-0.028154414 -0.012665786 0.19175453 -0.21726093 0.0468641 -0.0024851135 -0.10046775 0.06861934
-0.019854607 -0.17384498 -0.008371085 0.004114896 0.009528937 0.23057373 0.15299222 -0.0590307
0.028084574 0.13579033 -0.06308937 -0.15721385 -0.07143677 0.14586294 -0.077554464 0.13547143
-0.06911017 0.05155344 -0.18615314 0.18499027 -0.13603404 0.04146751 -0.057379875 0.15533271
-0.036772665 0.20995489 0.18600182 -0.14507326 0.11079575 -0.21065749 0.16485815 0.13056313
-0.030261649 -0.050629925 -0.055262927 0.22506967 -0.2075964 -0.12028057 -0.06474364 -0.12513347
-0.20369703 -0.051286608 0.046516523 -0.06819909 0.1591423 -0.18178016 -0.08107245 -0.11859223
0.0380281 0.14299016 -0.032495927 0.13349633 -0.10972983 -0.08502976 0.20830856 -0.11601205
-0.0026175748 0.19201556 -0.11780886 0.1022724 -0.21002913 0.18766876 -0.028392114 0.08537054
-0.020893345 -0.22884843 -0.02413597 0.0111753605 -0.0970458 -0.18873937 0.061375372 0.0058638435
-0.068967536 0.15550563 0.13547745 0.08902585 0.13522843 0.117742725 0.07789234 0.14977764
-0.15371647 -0.19074203 -0.09777596 -0.100826606 -0.18739146 -0.059789583 0.13179426 0.07247193
0.13337636 -0.13504872 -0.0019116973 -0.116284914 2.1597618e-05 0.12697607 0.06566104 0.14596325
0.16508783 -0.096713506 -0.042061865 -0.020584397 -0.11163058 -0.1497794 -0.021584675 -0.10848701
0.1190702 0.21336544 -0.049220722 -0.07195524 0.050683677 -0.11184582 0.0017602148 0.03190614
0.19052455 0.16367453 0.05472058 0.18085557 0.15432878 -0.072939396 -0.16931152 -0.18954714
-0.033371344 0.15492967 0.11975869 0.06483441 0.19694757 0.13637736 -0.18699211 -0.05046907
-0.17871216 -0.1434817 -0.24253057 0.10419865 0.04750901 0.11779678 -0.17791957 0.06885562
0.025373345 -0.18315017 -0.09230907 0.13256067 -0.1439741 0.19620804 0.12431948 0.12358041
-0.029326389 -0.13117479 0.1096157 0.114005804 0.0032706074 0.031481434 0.11948708 -0.060702045
0.13691473 -0.04901771 0.19416417 -0.2084725 -0.18367964 -0.03764596 0.14527372 0.04221081
0.20593238 -0.21279773 0.18496631 -0.11174159 -0.15595691 0.13316938 0.16926154 0.11403987
0.016142251 -0.0027592245 -0.18927771 -0.11342504 0.21585777 -0.04411047 -0.024526652 -0.01827874
-0.07161779 0.045531567 -0.11410089 -0.1095117 0.1472149 0.12475682 -0.0036366072 0.062592596
0.008058057 -0.13495368 -0.03156472 0.08771632 0.10562548 0.018540757 -0.08958381 -0.15768889
-0.1087844 -0.014143696 0.18199345 0.0036187742 -0.13891813 0.010762293 0.027819566 -0.17011577
0.13512854 0.018843241 0.12368786 -0.07472588 0.14929625 -0.00042775553 0.102288246 0.15038449
0.016941056 -0.17634125 0.20980106 -0.16803437 -0.029668828 -0.022138791 0.20427239 -0.108065404
-0.11703849 -0.13633311 -0.067662686 -0.10874975 -0.11791778 -0.02041936 0.15860367 -0.08859957
-0.084047556 0.22716232 -0.013210753 -0.0021780569 -0.062818356 -0.103196375 0.24558473 0.09295255

conv_layers.0.f_lin.2.weight f4 [128, 5]
00000000: 074f fb3c 4a59 d53d f723 b7bd 963c d7bc
00000010: 5d91 213e c831 433e c320 f2bd 7511 01be
00000020: 85fa fdbd 308c 4c3d dc50 0cbe d07f 5b3d
00000030: 3a6c 0e3e e6f7 9c3d 17e3 40be 315a dc3c
00000040: 4be3 fe3d 156f 193b 3622 13be e3e8 00bd
00000050: 5afb f9bc 06c9 9a3c c907 16be b991 26be
00000060: 851b 653e dfc0 4e3e 3acf 2c3e 65c5 9b3d
00000070: 007b 043e afa5 83bd 144c ebbc 8c37 09be
00000080: b449 03be ee2a 473e d079 273e 520f 043e
00000090: 177b 2fbe cb25 0bbe 1146 593c 92bf 0c3e
000000a0: 2d74 f9bc 321a 00bd 8649 4abe e429 eebd
000000b0: 6376 8dbd b254 ebbd 5fec 093d a972 213e
000000c0: 2ed8 8e3d 0095 28be 909c 74bd 355f 233e
000000d0: 16c5 13be 2e24 59be 6b18 353e 09b4 7cbe
000000e0: f9c8 18be 492e e7bd f288 643c 4a52 7b3d
000000f0: 0775 a33c 457e a13d 0941 243e 7293 913d
00000100: cb70 7c3c f12b 6bbe d9d5 f2bd 5e74 843c
00000110: c79f 463e 401a 69be bd20 913d 3c96 0d3e
00000120: 352e acbd 5465 c2bd 2c32 75bc cfa1 b13c
00000130: eeea 353e 01f5 d63d 2f80 31bd 36d7 2cbd
00000140: 9f22 baba 9716 463e 8526 45be 1083 25bd
00000150: 7151 c4bd bb10 61bd 7ec8 323e c265 dbbb
00000160: b980 a33d 6367 4fbe 4ba0 283e 43d7 9ebd
00000170: 8088 79bd 3c98 4ebd 28f6 3f3e fd11 febc
00000180: 8c3d 6ebe 0c87 b5bd 1750 e3bc 53f8 2dbe
00000190: 8056 be3d 09f0 76bc 8c73 2ebe fa92 143d
000001a0: aabc 48bd aeae 5f3e ecad 013e 2230 2d3e
000001b0: 111b 0fbe d618 013e b70a dd3d 1340 a7bd
000001c0: 6688 1c3e 9528 4bbd 84d3 0ebe 3f35 b33d
000001d0: 8cad 383e 3b69 1bbe d019 873b 8416 ea3d
000001e0: 6f95 edbd 5f4f a2bc cac7 883d 614a 18be
000001f0: 4b6d 203e 663d 33be 0f04 47be 89a8 08be
00000200: 7781 9bbd cc99 263e bacf 4f3e 5b11 16be
00000210: 0ed3 60bd 09bc 62bd 88a4 f1bd 3541 cdbb
00000220: 187f 213e 0aec 11bc bdf7 7e3d bb4c 8cbd
00000230: 295a ca3d 3ba1 cd3d b056 d13c 18f1 bdbd
00000240: 5aa7 293d 03ac 123e 3224 46be 7bce 5abb
00000250: 61c5 4dbe e0a9 24be 4213 133e a8b7 4b3e
00000260: 4011 573e 31ee 48be 9301 44be 6f0c c13c
00000270: f998 ee3d c58f 3d3d 089c 8f3d 4056 33be
00000280: 98f0 3b3b 246b 4a3e 6ce6 48be 8e9d ee3c
00000290: fcc9 86bd fc50 aabd 53e6 36be 335f 2d3e
000002a0: 2c1d b9bd 449b b03c 2192 3ebe 905e 9ebd
000002b0: 36b2 07be a8c3 4dbe 331a 2e3e 5347 0b3e
000002c0: cbfc 24be 704b 403e 21b1 e23d 9217 68be
000002d0: 9649 61be ee9b 2bbd 314c 543e d661 0c3e
000002e0: 7def 3ebe 2715 0f3e 89bc 973d c579 16be
000002f0: 3576 eebd 0287 393e 63ec fd3d 4884 c83c
00000300: d777 8b3d de31 12be 5486 1fbe edbc 22bc
00000310: 698f 60be 0359 ebbb 67d2 113e fad9 d0bd
00000320: 9784 9f3d 851b 83bb 5c10 2d3e 5dff 2fbc
00000330: 1d55 0ebd 4107 823c 0c69 2d3e d94a 273e
00000340: 086a 21be 9bfc 133e 94bc 403e 3568 32be
00000350: 5e8a b23c efe6 2ebe 92bc ab3c f682 b83d
00000360: 3cf1 07be 31c5 90bd c797 233e 50a8 64bc
00000370: 44ae 1f3e 862a adbd c961 0bbe f0ac 373d
00000380: 41f6 673d 6a68 9abd bd3b 4a3e 5079 b4bd
00000390: 285a ad3d c56d d43d b372 823d 476c 133e
000003a0: c50d e63c a475 65bd f6b5 213e f583 0f3e
000003b0: d109 31be 5978 b03d dad9 343e ee30 be3d
000003c0: 2c88 333d 4a3c c3bd e9e8 c8bd 1cb7 a7bd
000003d0: f21b 0a3c 6130 74bd 6f9f 1e3e 1910 1f3e
000003e0: 38ef 0d3e e601 b73d 5e1c b3bd d5ae 3d3c
000003f0: 8bf2 b6bd f6c1 1d3e dcb0 cabd 7e27 ddbc
0.030677332 0.10417421 -0.089424066 -0.026274007 0.15778108 0.19061959 -0.11822655 -0.12604316
-0.124012984 0.04993838 -0.1370272 0.05358869 0.13908473 0.076644704 -0.18836628 0.026898475
0.124456964 0.0023412157 -0.14368519 -0.031472098 -0.030515362 0.018894684 -0.14651407 -0.16266526
0.22373779 0.20190762 0.16875926 0.076060094 0.12937546 -0.06428086 -0.0287228 -0.13400096
-0.12821084 0.1944997 0.16355062 0.12896469 -0.17136799 -0.13588636 0.013261334 0.13744953
-0.030450905 -0.03127498 -0.1975461 -0.11629084 -0.06907346 -0.11490764 0.033672687 0.15766396
0.06974827 -0.16463089 -0.059719622 0.15954287 -0.14430651 -0.21205208 0.17685096 -0.24678053
-0.14920415 -0.11288125 0.013948666 0.061357774 0.019953264 0.07885412 0.16040434 0.07108201
0.015407751 -0.22965981 -0.118571945 0.01616877 0.19396888 -0.2276392 0.070863225 0.13826841
-0.08407251 -0.09491983 -0.014965575 0.021683602 0.177654 0.104959495 -0.043335136 -0.04219743
-0.0014200992 0.19344555 -0.19252975 -0.040408194 -0.09585846 -0.054947596 0.17459294 -0.00669548
0.07983536 -0.20254283 0.16467397 -0.07755902 -0.060921192 -0.05043815 0.18746245 -0.031014437
-0.23265666 -0.08863649 -0.02774815 -0.1698926 0.09293842 -0.015071877 -0.17036265 0.03627298
-0.04900805 0.21843979 0.12664002 0.16912892 -0.13975169 0.1260713 0.10793059 -0.08166518
0.15286407 -0.04959925 -0.13947874 0.0875039 0.18034953 -0.15176861 0.00412295 0.11430076
-0.11600768 -0.019813238 0.06678732 -0.14872123 0.15666692 -0.1750389 -0.19435142 -0.13345541
-0.07593053 0.16269606 0.20294085 -0.14655058 -0.054888777 -0.055355106 -0.1179896 -0.006263877
0.15771139 -0.008906374 0.06224798 -0.06850573 0.09880478 0.10040518 0.025554031 -0.092745006
0.041419365 0.1432343 -0.19349745 -0.0033387232 -0.20094825 -0.16080427 0.14362815 0.19894278
0.21002674 -0.19622113 -0.19141226 0.0235655 0.11650271 0.046279687 0.070121825 -0.1751337
0.002867734 0.19767433 -0.19619149 0.029127862 -0.06581494 -0.08316228 -0.17861299 0.16930847
-0.09038767 0.021558411 -0.18610431 -0.0773288 -0.13251576 -0.20094168 0.17002182 0.13601427
-0.16112058 0.18778777 0.11068941 -0.22665241 -0.22000727 -0.041896753 0.2073219 0.13709196
-0.18646045 0.13972913 0.07409007 -0.14694889 -0.1164364 0.18117908 0.12398603 0.02447714
0.06809967 -0.14276835 -0.15578586 -0.009932739 -0.21929707 -0.007182242 0.14240418 -0.10197826
0.077889614 -0.0040010833 0.16900772 -0.010742036 -0.03474914 0.0158726 0.16934603 0.16337146
-0.15763104 0.1445183 0.18821937 -0.17422564 0.021794494 -0.17080282 0.02096394 0.09009354
-0.13275617 -0.07068861 0.15975867 -0.013956144 0.15593821 -0.08455376 -0.13611521 0.04484266
0.05663133 -0.07539447 0.19749351 -0.08812201 0.084644616 0.103724994 0.063695334 0.14396773
0.028082738 -0.056020394 0.15792069 0.14015181 -0.17288901 0.086167045 0.17661229 0.09286676
0.043831035 -0.095329836 -0.09810049 -0.08189222 0.008429514 -0.05961645 0.15490507 0.15533485
0.13860786 0.08935909 -0.08745645 0.011577328 -0.0893298 0.15406021 -0.098970145 -0.02699637

conv_layers.0.params.0 f4 [128]
00000000: 5a2e 98bb eaec 91bc 6e57 023b afcc f73a
00000010: 789d 153b 8448 b93b 146d 11ba 8cca 54bc
00000020: a484 98bb 8c76 fdba 4cbe c0ba 716e d5ba
00000030: 301f ec39 c58c e13b 375b 03bb 3105 20bc
00000040: d1e4 bcba 91ee feba 6bd1 e0bc b3eb 8f3b
00000050: 78a5 8f3b ed56 e43c 59a8 35bc 5541 023c
00000060: 4e83 80bc fa23 6dbc ec4f 063d 46c8 81bc
00000070: 1a48 4e3b edfd 7dbc e9e4 073c b2bb 9eba
00000080: 224b 893c f98c a3bc d5bf 3e3b d469 663c
00000090: d45d 293a 8665 d03b 1b53 0f3c ae0a edbb
000000a0: ff88 22bc 6a89 ea3b 334f a13b 90b4 efbb
000000b0: e7ee 4aba 0d35 e53c a4a3 1abd d586 77bc
000000c0: 8f58 babb 1fd8 993b 8dc7 983c 6b57 88bc
000000d0: 376d 5a3c a00a 77bc b7cc a2bc 66b3 46bc
000000e0: 5cb7 37bc d395 313a 9246 19bc 1033 b93c
000000f0: d23a 86bb 04ac 1bb9 0091 a4bb fa70 45bc
00000100: 9556 383c da27 a6bb d79a 0c3c f027 9c3c
00000110: 77d8 ea3c dcb4 1ebb f894 143d 7543 baba
00000120: 03a3 323c 3d0c 7cbc b6cd d2bc f52c 2cbc
00000130: 2f41 d73b 3229 69bc 23e9 77ba 9d99 3cbc
00000140: 84c0 32b9 3b14 dbbb 003a ddbc 3912 6abc
00000150: 8186 e83c c1ff 11bc fc2d 38bc 51d7 b03c
00000160: 5d2b 2a3c 2460 153c dfc3 a3bb 5f20 5eba
00000170: 1b0a 043d 4359 19bc 3ef8 163c ab5c c3bb
00000180: db60 5a3c bc58 703c 7e5c a33c cff6 16bc
00000190: 687e f5b9 65b9 f2bc 019f 8cbc c1dd 283c
000001a0: 44ec 603c 82d0 79bc 0fe7 0f3b 742a 00bb
000001b0: 1f37 a63c 419e 94bc be13 c5bc 61cb e23b
000001c0: 3649 0a3b f5b7 5fbc dffc 603c 98e3 72bc
000001d0: c09e 79bb 3e7f 0bbc 196e a4ba 3312 69bc
000001e0: a639 c5bb 1328 d23c 2d55 693c 0f60 c339
000001f0: cfd0 95ba 7e4d 78bc 3fd7 9bbb 1d89 4cbc
-0.0046441974 -0.017813165 0.0019888538 0.0018905605 0.0022829454 0.0056543965 -0.0005547565 -0.012987744
-0.004654484 -0.0019337698 -0.001470515 -0.0016283524 0.00045036664 0.006883236 -0.0020043382 -0.009766863
-0.0014411454 -0.001944976 -0.027443608 0.004392111 0.004383739 0.02787348 -0.0110875005 0.007950147
-0.015687611 -0.0144739095 0.032791063 -0.015842568 0.0031476081 -0.015502435 0.0082943225 -0.0012110381
0.016759459 -0.019964682 0.002910604 0.014063317 0.000646082 0.006359759 0.008747841 -0.007233939
-0.009920358 0.0071574943 0.0049227714 -0.007315226 -0.00077412877 0.027979398 -0.037753716 -0.01510783
-0.0056868265 0.004694953 0.01864984 -0.016643247 0.013331703 -0.015078217 -0.019873006 -0.012127733
-0.01121315 0.00067743397 -0.009355204 0.022607356 -0.0040963674 -0.00014846033 -0.005022168 -0.0120508615
0.0112511115 -0.0050706686 0.008581839 0.019062012 0.028667672 -0.0024216687 0.03627488 -0.0014210778
0.010903123 -0.015383777 -0.025732856 -0.0105087655 0.00656905 -0.014231013 -0.00094570423 -0.011511234
-0.0001704712 -0.0066857613 -0.027005196 -0.014286571 0.028384449 -0.008911074 -0.011241432 0.021587046
0.010386315 0.00911716 -0.004997715 -0.00084734516 0.0322362 -0.009359661 0.009214459 -0.0059619746
0.013328756 0.014669593 0.019941565 -0.009214117 -0.00046824221 -0.029629419 -0.017165663 0.0103067765
0.013728205 -0.015247466 0.002195779 -0.0019556554 0.020289956 -0.018141868 -0.024057265 0.0069212173
0.0021100766 -0.013654699 0.013732164 -0.01482477 -0.0038089007 -0.008514224 -0.0012545019 -0.01422553
-0.006018835 0.025653875 0.014241499 0.00037264868 -0.0011430028 -0.015155194 -0.004755884 -0.012483862

conv_layers.0.params.1 f4 [128]
00000000: 2fdb 06bd cf10 d6ba 0457 c2b9 5477 2837
00000010: 850e 6438 9e52 04bc 23a9 a6ba 8c35 14bc
00000020: f468 8239 ac50 ccb5 8a49 6c3a bcdf 95ba
00000030: b26f 90b9 ca64 aebc 7dff 0bbc 91ed 2138
00000040: b079 a7b7 8f74 d5b9 58d5 26bd 4203 a139
00000050: da1d a6bb 1d44 05ba 0ae3 bdbc 554a 09bc
00000060: 2a56 c539 066f 52bc e43b e6bb 072d d1ba
00000070: 1742 a7b9 d0cd 81b7 4c0c 143a f880 42bb
00000080: a01d c1bc e53a d3b6 07cd 3c3a db82 35bc
00000090: 8c56 8f3a 55d3 6fbc 20f3 f8bb c625 39bc
000000a0: 4510 73b7 31df 12b7 acd5 8f3a 1191 b7bb
000000b0: 0ca6 2f3a 6766 803a 1af6 0d39 80ce 84bc
000000c0: bd41 f039 a95f eaba 9d1a 87bb 80d4 a73a
000000d0: 72eb 6eba 5948 1ebc 9bce d8ba 8ff2 17bc
000000e0: 2219 0dbb 4590 2039 915d 4339 6a70 acbc
000000f0: 0114 f0bc 967f 7739 ab9a c139 53cb 9039
00000100: bf31 bfba 6e57 e5bb 1e69 e3bb 6a3d 03bd
00000110: 751d d939 2ce0 70b7 1c08 7dbc a826 28bc
00000120: 0e63 e639 cbdd b0b8 4c06 04b8 c777 7ebc
00000130: a39e 2d38 8c10 abbb 182d 51b7 f221 343a
00000140: 5e65 8cb2 52fa 50bc f3cf 5fb7 55cd dcbc
00000150: e728 3739 8fcb 19ba e7f5 3f3a 74ba 79bb
00000160: 7bfb 6abc ea8a a8bc beb4 bd39 b96e 58bb
00000170: 7896 9ab7 67b9 d33a d06a 333a a583 ebbc
00000180: 6aa7 003a e91d a8bb 84f8 8fbc ec71 cabc
00000190: eb2e 6a3a b4f4 263a 28c0 babb 6f1f 1dbb
000001a0: a703 7cbc 0959 8839 030d b839 35db 903a
000001b0: 31be f8b6 f7eb 6f39 4a1c d439 cc6a e8bb
000001c0: c4cb a6ba 73bf 18b7 1ac6 c2b7 be47 03bc
000001d0: 14c5 2839 1b1d 96b9 20df 93bc 8595 e6b6
000001e0: d592 45b7 b8e0 c3bc 76a7 bcbb 29fd 833a
000001f0: 8a72 613a 4240 ec35 7375 85b6 4603 c839
-0.032923874 -0.0016331914 -0.00037067395 1.0041364e-05 5.437296e-05 -0.008076338 -0.0012715202 -0.00904597
0.00024873728 -1.5222663e-06 0.0009013644 -0.0011434476 -0.0002754904 -0.021288294 -0.0085448 3.8606642e-05
-1.9964617e-05 -0.0004071337 -0.040730804 0.0003071074 -0.0050694766 -0.0005083697 -0.02317955 -0.008379539
0.00037638965 -0.012843853 -0.0070261825 -0.0015958854 -0.00031901963 -1.5473837e-05 0.00056475843 -0.0029678922
-0.023573697 -6.2951462e-06 0.00072021823 -0.011078562 0.0010935827 -0.014637788 -0.007597342 -0.01130051
-1.4487717e-05 -8.754244e-06 0.0010973713 -0.00560201 0.0006700463 0.0009796143 0.00013538488 -0.016211748
0.00045825346 -0.0017881292 -0.0041230456 0.0012804419 -0.00091140636 -0.009660804 -0.0016541065 -0.009274139
-0.0021529873 0.00015312534 0.00018631505 -0.021049697 -0.029306414 0.00023603285 0.00036927065 0.0002761731
-0.0014586969 -0.006998948 -0.006940021 -0.03204099 0.00041411413 -1.4357309e-05 -0.015443828 -0.010263123
0.0004394282 -8.433646e-05 -3.1477117e-05 -0.015531487 4.1394156e-05 -0.0052204784 -1.246787e-05 0.00068715133
-1.6344242e-08 -0.0127549935 -1.3340253e-05 -0.026953379 0.00017467477 -0.00058668194 0.0007322714 -0.003810552
-0.014342184 -0.020574052 0.00036183553 -0.003302498 -1.8428298e-05 0.0016153277 0.00068442244 -0.028749296
0.0004907759 -0.0051305187 -0.017574556 -0.024712525 0.0008933383 0.0006368861 -0.0056991763 -0.0023975035
-0.01538173 0.00026006278 0.0003510491 0.0011051657 -7.413117e-06 0.0002288072 0.00040456868 -0.0070928093
-0.0012725522 -9.104481e-06 -2.321885e-05 -0.00801271 0.00016095146 -0.00028631915 -0.01805073 -6.8719405e-06
-1.1776302e-05 -0.023910865 -0.0057572676 0.0010069954 0.00086001365 1.7602072e-06 -3.9773818e-06 0.00038149412

conv_layers.0.params.2 f4 [128]
00000000: 9927 9eb9 a383 9dbb e8d9 a3bc 6c1c 17ba
00000010: 1bd9 77bc aaac 2bbd dae3 a6bc 979a 4a39
00000020: 3872 64ba 0f24 803a 491d 6bbc 0556 8e39
00000030: 7a6f d939 7a4a 8ab7 ff18 d1bb 8a74 13b7
00000040: f389 39bc 44d3 c4b7 fe22 43bc e71d 4eb7
00000050: 3af2 9abc 1827 b3bc 854d c8bc e766 573a
00000060: de7d c33a c183 74b5 2701 3fbc 19d1 10bb
00000070: a1da d139 530b 6f3a 2aa2 9d3a 81a0 fab9
00000080: 8b8b f7bc 293e 0f39 de5e afbc d2f8 ac39
00000090: 7436 a139 fedc 79bc 7236 bbb8 4f46 bd38
000000a0: f293 7fb7 b924 8639 3806 57bb de62 adbc
000000b0: 9dc4 3b3a dc4b d9b7 df61 c439 9171 29b7
000000c0: d404 c0bc 6410 a3bb fc16 81bc edfd 3abb
000000d0: 3e85 2dbc f393 dbbb ab78 2ebb 4106 773a
000000e0: 21e8 beb9 3377 033a cdef 893a 86fa 723a
000000f0: dd0a 6abc 285d 353a 777c dc39 feb3 9639
00000100: 3121 12bd 0bc7 9cb7 09f7 6ebc 8361 26bc
00000110: ce20 743a 4bf4 56bc 6a19 7339 feef 4cbb
00000120: def8 c4b7 69e2 56bc 2421 92bc dd0c 05bd
00000130: f9fc 7fba e98e 023a 8874 94b5 7e0f 06b8
00000140: ba33 d339 87f3 50ba a484 25bc 575e 7fb7
00000150: cc99 87b7 bb57 8fb7 bb4a abbc efd7 ad3a
00000160: 5002 263a 753e 433a bddf aabc bfc0 1ab7
00000170: 4877 81bc 7942 46ba e8cf c0b7 2507 0dbd
00000180: 174c d2bb ed4d 7c3a d2ce e137 23ed e538
00000190: ec14 3fb6 441a d7b8 7b3d 7abc 5c45 c3bb
000001a0: bb40 1ebc f441 7d39 5b89 4f3a 0951 e4bc
000001b0: e7b1 36b7 b428 4abb 4179 203a e40c e7b6
000001c0: ea15 0b3a c9e4 0cbd c40f dbbc 0897 94bc
000001d0: d84e 6abb 1728 4f3a 5d00 eaba 4a62 46bc
000001e0: 4e8f 4dbc 5655 643a af97 c5b7 2bf0 0539
000001f0: 7ece 0eb8 9f22 f8bb b7e9 333a b6d1 96b9
-0.0003016561 -0.004806952 -0.020001367 -0.0005764428 -0.015127446 -0.041912712 -0.02037232 0.0001932181
-0.00087145297 0.0009776371 -0.014350244 0.0002714844 0.00041472522 -1.6485563e-05 -0.0063811536 -8.789017e-06
-0.011324394 -2.3463399e-05 -0.011910198 -1.2285519e-05 -0.01891433 -0.021869227 -0.024451027 0.0008216933
0.0014914831 -9.108881e-07 -0.01165799 -0.0022097288 0.00040026478 0.0009118814 0.0012026478 -0.000478033
-0.030217906 0.00013660699 -0.02140754 0.00032991782 0.00030748884 -0.015250443 -8.926996e-05 9.025318e-05
-1.5233631e-05 0.00025585832 -0.0032810103 -0.021165308 0.00071627815 -2.590374e-05 0.00037456953 -1.0099627e-05
-0.023439802 -0.004976319 -0.01575803 -0.00285327 -0.010590849 -0.0067009865 -0.0026622217 0.0009423234
-0.00036412574 0.00050150155 0.0010523737 0.0009268898 -0.014284817 0.00069184834 0.00042054403 0.00028744334
-0.035676185 -1.8689336e-05 -0.014585265 -0.010155085 0.00093127496 -0.013119767 0.00023183753 -0.0031270976
-2.3480909e-05 -0.013115504 -0.017838068 -0.03248297 -0.0009765174 0.0004980402 -1.1060774e-06 -3.1962518e-05
0.00040283595 -0.0007970859 -0.010102425 -1.522115e-05 -1.6164871e-05 -1.7087781e-05 -0.020909658 0.0013263206
0.0006332742 0.00074479665 -0.02085864 -9.2239925e-06 -0.015803948 -0.0007563006 -2.2984997e-05 -0.03443064
-0.006417762 0.0009624649 2.6918398e-05 0.00010963741 -2.8473396e-06 -0.00010256891 -0.015273447 -0.005959196
-0.009658988 0.0002415253 0.0007916891 -0.027870672 -1.08894665e-05 -0.0030847015 0.0006121584 -6.885837e-06
0.00053056946 -0.034397874 -0.026740916 -0.018138424 -0.003575256 0.0007902397 -0.0017852891 -0.012108395
-0.0125463735 0.0008710226 -2.3554863e-05 0.00012773338 -3.404775e-05 -0.0075724865 0.00068631343 -0.00028766476

conv_layers.0.params.3 f4 [128]
00000000: cddb b43a 8ec4 3dbc c98b 16bc 08a9 7a3c
00000010: 3221 3d3b bc1c 483c ace4 22bc 73ba 3abc
00000020: 1d5f f73b d5da 4a3c 9eb0 043c 8632 5f3b
00000030: cbea 443c 4420 31bc a0e4 17bc 2f97 6bbc
00000040: 4902 34bc 0a95 673a 9809 7fbc acf2 d53b
00000050: 5fd6 f03b 22b8 a63b 941f 903b 6aea de3b
00000060: 23dd fcbb 9b53 6fba 63a5 353c 0d42 dbba
00000070: a50e e2bb 0c60 fbbb 2466 223c 76cd 02bc
00000080: 0b26 3e3c 89dc 1dbc 8883 393c e45d de3b
00000090: 2923 a2bb ecc9 eebb 34f3 c9bb 7839 2a3c
000000a0: 370c 103c a58c 9a3a 588f 143c a3f7 37bb
000000b0: 10e3 93bb f5c6 3b3c 6cab 8ebc 250c eebb
000000c0: 4d7b 13bc 5d15 aa3a 58f4 383c 2d0d 1ebb
000000d0: 45b2 293c 2293 ffbb e671 14bc 639c 0bbc
000000e0: 9472 c7bb ab59 983b 7781 2a3c 4c32 593c
000000f0: 73f0 fcbb 9e79 3e3c 3291 d2bb 87dd 463c
00000100: 9644 2e3c fb25 77bc b308 233c 659d 5c3c
00000110: 0e0e 733c 6261 ecbb 1fc1 413c 9ed1 493c
00000120: 1bde 10bc 8d7f 15bc 6ba7 12bc d6af f23b
00000130: 11e9 283b 58f8 56bc 5f11 57bb 873a e1bb
00000140: 3fe0 bf3b b03e f2bb aa9e cdbb a243 2dbc
00000150: 636f f13b 339f 7b3b 9747 64bc 2c36 0d3c
00000160: 0815 083c dedf 8f3c db89 5ebc cdc5 9e3b
00000170: 4b21 323c 6ebc 1ebc 7948 6c3b d408 a1b9
00000180: c2d4 2a3c d5b4 ee3b 9f79 873a d8eb 01bc
00000190: 891f 1fbc 229f 51bc ac8a f2bb f80e 8839
000001a0: e8f4 b83b 58d0 14bb d8d5 6c3c d907 b6ba
000001b0: 67c9 2b3b 3a19 3dbc 55f1 d33b 8875 a23b
000001c0: 58bf 8a3b 6555 25bb b8d5 4c3c c26e 35bc
000001d0: 28e3 023c 11fe 93bb 4e10 29bc af13 86bc
000001e0: 07dc 33bb b34a 303c 2be4 a73a a6e1 e8b7
000001f0: 0943 16bc c3cb ffbb 4ecb 84bb 19e3 eebb
0.0013798416 -0.011582507 -0.009188601 0.015299089 0.0028858897 0.012213882 -0.009942215 -0.011396992
0.00754918 0.012381275 0.008098749 0.0034057214 0.01201887 -0.010810915 -0.009270817 -0.014379307
-0.010986873 0.0008834159 -0.015566252 0.006529173 0.007349774 0.0050878683 0.0043982957 0.0068028467
-0.0077167912 -0.00091295847 0.011086795 -0.0016728059 -0.0068987184 -0.007671362 0.009912048 -0.007983556
0.01160575 -0.009635099 0.011322863 0.006786095 -0.004948039 -0.0072872546 -0.0061630253 0.010389678
0.008791975 0.0011791183 0.009067379 -0.0028071187 -0.004513152 0.011461009 -0.017415725 -0.0072646313
-0.009001565 0.0012976337 0.011288725 -0.002411674 0.010357444 -0.007799522 -0.009060359 -0.008521172
-0.006086657 0.004649361 0.010406843 0.013256621 -0.0077190935 0.0116256755 -0.006426 0.012137777
0.010636469 -0.015084739 0.0099508045 0.01346526 0.014834894 -0.0072137574 0.011825829 0.012318043
-0.008842017 -0.009124649 -0.008951048 0.007406215 0.0025773684 -0.013120733 -0.003281675 -0.006873432
0.0058555896 -0.007392727 -0.0062750177 -0.010575207 0.0073680147 0.003839445 -0.013933084 0.008618873
0.0083057955 0.017562803 -0.013582672 0.004845357 0.0108721955 -0.00968848 0.003605394 -0.0003071489
0.010426702 0.0072847405 0.0010335929 -0.007929765 -0.009712108 -0.012794288 -0.007401785 0.00025951094
0.0056444295 -0.002270719 0.014455281 -0.0013887837 0.0026212574 -0.011541659 0.006467978 0.0049578585
0.0042342357 -0.00252279 0.012502126 -0.01107377 0.007988729 -0.004516371 -0.010318829 -0.016366808
-0.002744438 0.010759997 0.0012809088 -2.7761631e-05 -0.009171256 -0.0078062727 -0.004052556 -0.0072902557

conv_layers.0.params.4 f4 [128]
00000000: 968c e1bb 4563 34b9 565c c43b 8ab0 97bb
00000010: 52fb 99bb 6c97 8bbb 7e62 34bc 244a db3b
00000020: bdf5 dc3b 4c87 1dbc 3e50 203c ded5 aabb
00000030: 7e3d af3a 36f6 43bc 2eaa 833b e904 d1bb
00000040: dccf 5f3c c059 55b8 6a3b 5cbc aac8 10bb
00000050: 3362 2dbc 296d 013c e788 20bc 19d7 803a
00000060: 97ef fc3b 6e4c f7bb 1e38 37bc c8d5 06bc
00000070: f9a4 fc3a 4278 00bc 8fa9 343c ace5 84bc
00000080: 1deb 203b b838 5bbc 8c1a 64bb 80d9 6b3b
00000090: 2a53 893c 6cd7 563a a201 e2ba 6c85 283b
000000a0: 0d78 7ebb 5ef7 80bc adda 27bc 2832 003c
000000b0: 94a4 e23b a588 293c f92d d53b 3186 133c
000000c0: 9cd4 303c e34f 9bbb 7dbc 703b 4953 e43b
000000d0: 6126 d2bb 8b40 1dbc fe1c a5b8 c077 523c
000000e0: d458 a63b c29c 1c3c ecbb 673c 79f0 00bc
000000f0: 1f0f 213b 1722 fb3b 03d2 d3bb 21b6 493c
00000100: a414 73bc 3cee 00bc 421e 55bc 3f78 babb
00000110: e8fe 2a3b 26f6 0fbc affa b7bc d947 b03b
00000120: 2c2b 723c 0b4f 22bb d60b ecbb b393 34bc
00000130: 5cd2 a6bb 3a21 fbbb 06a4 723c ccd9 9d3c
00000140: 6589 45bc b8d5 a9ba d5b9 863c 9802 1bbc
00000150: 7a89 2c3c 5ffc 283c 7de6 113c 4bf6 0fbc
00000160: d298 113c 6532 55bc a25b 223c 5d8e 07bc
00000170: 34cf eebb 6bbf 563c e9f1 2ebc 7bcf 55bc
00000180: 5cc6 213c 967d 3d3c a39e 04bc ec8b bbbb
00000190: 6356 5a3c 55fc e4bb 7134 41bc b58c 37bc
000001a0: 8a7a 20bc 3bfa 7c3c 728c 313c 593a 233c
000001b0: e395 053c e2e5 df3b ddca a43b 684c 2cbc
000001c0: f0b9 23bc e6dc 27bc 1d73 b73b 6b4b 58bc
000001d0: e07c 3bbc 1a20 f8bb 7564 19bc c074 04bc
000001e0: 9be1 de3b 80ea 973b 4a8b 32bc 5c7d 7f3c
000001f0: 9e82 9a3b 17fa a8bb d016 dfbb 61fd 073b
-0.006883214 -0.00017203118 0.0059924526 -0.0046291994 -0.004699149 -0.0042599943 -0.0110098105 0.006692188
0.0067431615 -0.009614777 0.009784756 -0.0052134832 0.0013369767 -0.011960557 0.0040180897 -0.006378759
0.013660397 -5.0866744e-05 -0.0134419 -0.0022092261 -0.010582495 0.007899561 -0.009798265 0.0009829729
0.007718991 -0.007546953 -0.011182813 -0.00822968 0.001927524 -0.007841172 0.011026754 -0.016222797
0.00245542 -0.013380222 -0.0034805862 0.0035987794 0.016763289 0.00081955525 -0.0017242918 0.0025714291
-0.003882888 -0.015742954 -0.010245007 0.007824458 0.006916592 0.01034752 0.0065057245 0.009004162
0.0107928775 -0.004739748 0.0036733442 0.006967936 -0.0064132665 -0.009597908 -7.873213e-05 0.012845933
0.005076507 0.009558858 0.014143925 -0.007869833 0.0024575663 0.007663976 -0.0064642443 0.012311489
-0.014836464 -0.0078692995 -0.013007702 -0.005690604 0.0026091877 -0.008786714 -0.022458402 0.0053796587
0.014780801 -0.0024766352 -0.0072035594 -0.011021542 -0.0050909948 -0.007663873 0.014809614 0.019268893
-0.012056683 -0.001295737 0.016446033 -0.009461068 0.010530824 0.010314076 0.00890505 -0.008786748
0.008886533 -0.013012503 0.009909542 -0.008273688 -0.007287884 0.013107161 -0.010677793 -0.0130499555
0.009873953 0.011565587 -0.008094463 -0.005723467 0.01332626 -0.006988088 -0.011792288 -0.011202981
-0.009794841 0.015440519 0.010836707 0.009962642 0.008153412 0.006832824 0.005029066 -0.010516264
-0.009993061 -0.010245537 0.0055984394 -0.013201575 -0.011443347 -0.007572186 -0.00936233 -0.008084476
0.0068017966 0.004636109 -0.010897467 0.015593853 0.004715278 -0.005156766 -0.0068081394 0.002075039

conv_layers.0.params.5 f4 [128]
00000000: 0167 85bc 741c fbba 2423 c5bb 2e93 68bc
00000010: 4f84 2bbc e649 38bc 32f1 c23b 6bdc 0f3c
00000020: 726b 1abc ef66 593c b483 c1bb 78ea 5c3c
00000030: 35d3 d83b 4706 2a3c 9f67 a2bb 9307 55bc
00000040: 8d01 043c b4cc 133c 1482 74bb bef8 ba3b
00000050: b883 82bc 32e0 a9bb 33ac 5fbc e0bc 163c
00000060: e2f5 833c 39d9 9d3c a0aa 26bc 7257 dfbb
00000070: c333 1f3c 5daa 923c 3d3d 293c 1296 04bc
00000080: e6af 54bc 362d f03b a74f 02bc 790d 2abb
00000090: e66a 633c c7dc 13bc 3bcd 0dbc 98b4 313c
000000a0: 74ed 5bbc 6d6d 59bc 55db 84bb 303c 28bc
000000b0: fb56 d03b b112 b2ba 379f c7bb 7750 9bba
000000c0: 4782 19bc a475 1b3c dc36 a9bc 230e c1bb
000000d0: 4962 f2bb 53bc bf3b 9fda 32bc 45ca 943c
000000e0: e4a5 29bc b9cc e63b a99b 3a3c abd1 c5bb
000000f0: 1e6e abba 5e4d feb8 bff3 1ebc f4bb 1e3c
00000100: 1172 78bc 244e 09bc 3c56 2cbc 9f67 7cbc
00000110: 7002 2b3c aaeb 4fbc 8275 0b3c 8998 2b3c
00000120: d4bb 91bb c036 47bc 8d30 d2bc 48db 3dbc
00000130: 59a6 49bc 8402 433c 23f9 09bc f807 13bc
00000140: 2a2a 363c 414d bb3b a542 643b ab5e 1bbc
00000150: 83bb fcbb 0724 2fbc 85ae 0c3b 4642 303c
00000160: e6eb a13b 9cb9 173c 52f2 49bc 0e03 11bc
00000170: b0b5 fa3a 2edc 5bbc f8cb 13bc bc74 9abb
00000180: 43ce 28bc c185 213c 49bb 6fbb ef2f 5e3c
00000190: a2fa 57bc 5b7b 3bbc f5c5 44bc 1865 1abc
000001a0: cfef 0cbc 877c 21bc dd75 bfbb 13e1 c8bb
000001b0: c9c6 3fbc e403 81bc b419 903c da6b 04bc
000001c0: 4185 a53b 8957 33bb 139e 2a3c eacc 33bc
000001d0: 17b6 02bc 65fc 08bc b157 d5bb b99c 37bc
000001e0: af27 f9bb 0a08 983c 1a03 b0bb 0551 88bb
000001f0: 2e72 383b 80d1 ec3a 6332 ec3b 4e03 20bc
-0.016284468 -0.001915826 -0.006016152 -0.014195247 -0.010468557 -0.0112480875 0.005949163 0.008780579
-0.009425031 0.01326917 -0.005905593 0.013483636 0.0066169747 0.010377473 -0.0049562003 -0.013002294
0.00805701 0.009020973 -0.0037308978 0.005705922 -0.015931949 -0.005184197 -0.013651895 0.009200305
0.016108457 0.019268619 -0.010172516 -0.006815844 0.009716931 0.017903501 0.010329542 -0.00809242
-0.012981391 0.0073296083 -0.007953561 -0.0025947972 0.013880467 -0.009024805 -0.008654888 0.01084628
-0.013423312 -0.013270718 -0.0040544667 -0.010268256 0.006358025 -0.0013585893 -0.006091978 -0.0011849542
-0.009369439 0.009488497 -0.020656042 -0.005891578 -0.0073969704 0.0058513074 -0.010916381 0.018162856
-0.010354493 0.007043448 0.011389651 -0.0060369573 -0.0013079082 -0.000121260746 -0.009701668 0.009688366
-0.015163914 -0.008380447 -0.010518607 -0.015405565 0.010437593 -0.012690464 0.008511903 0.010473379
-0.0044474397 -0.0121590495 -0.025657916 -0.011587925 -0.012307727 0.011902455 -0.008421215 -0.008974068
0.011118451 0.0057159965 0.0034829762 -0.00948302 -0.007712783 -0.010689742 0.0021466326 0.010757988
0.0049414514 0.009260561 -0.01232584 -0.008850826 0.0019127633 -0.013419194 -0.009020798 -0.004713623
-0.010303083 0.00985855 -0.0036580137 0.013561233 -0.013182314 -0.011442984 -0.012010087 -0.009423517
-0.008602097 -0.00985635 -0.005842908 -0.0061303466 -0.011705109 -0.015748926 0.017590381 -0.008082354
0.0050512855 -0.0027365407 0.010413664 -0.010974148 -0.007977984 -0.008360957 -0.006510698 -0.011206799
-0.0076036076 0.01855852 -0.0053714635 -0.004160049 0.0028144228 0.0018067807 0.007208155 -0.009766413

conv_layers.0.params.6 f4 [128]
00000000: 12e4 803f e1a3 803f 9c00 7e3f 0ed7 7f3f
00000010: 35f1 813f 9f81 7f3f 38f3 813f 0e18 7c3f
00000020: cb61 803f 2b13 803f 8965 7f3f 92b4 7e3f
00000030: 40e7 813f 0835 823f e788 7f3f 4081 823f
00000040: 6716 7c3f bdac 7f3f 4b91 823f d4e3 803f
00000050: 194c 7f3f 4ea0 813f 1f1b 7f3f 795b 7f3f
00000060: e4cd 7f3f 0a3c 803f f884 813f fd45 7b3f
00000070: 5b38 803f fafd 7c3f 1763 803f e8d6 813f
00000080: 70de 803f b7cc 813f d014 7c3f 6a77 7e3f
00000090: 9843 813f 9b7a 803f 5917 813f 65fd 7e3f
000000a0: 39c8 7d3f 4a24 803f dd02 803f 9cf4 803f
000000b0: 08f2 803f 6081 823f b759 7e3f c2d1 7e3f
000000c0: 3554 803f fd8b 7c3f bf12 803f 074f 7f3f
000000d0: 2dcc 803f 2937 813f e353 7e3f d132 7c3f
000000e0: 6688 803f c7a8 7d3f 943b 813f 6a7c 813f
000000f0: ca83 7f3f 1ccd 803f 1109 803f 83c0 7a3f
00000100: 19ac 803f 4c3d 803f c10e 803f 96b6 813f
00000110: b6d7 7d3f 79ef 803f 2036 823f 82a6 813f
00000120: 5b7b 803f e8b2 823f c0d1 7f3f f39d 7d3f
00000130: 1bd8 813f eca2 7f3f 449f 7e3f 8144 803f
00000140: 84fa 7e3f a2a2 833f 3ad4 7e3f 5aff 7d3f
00000150: 71a2 7f3f 115c 7d3f f7bb 803f c23c 823f
00000160: 3564 813f bedb 7d3f fd9d 7e3f d4b4 7f3f
00000170: ad6d 813f d103 813f 6697 7f3f 3d67 7b3f
00000180: 1c1a 803f 3d04 803f cc46 813f b543 813f
00000190: 0bba 803f 0c31 7d3f c0e0 7f3f f551 7f3f
000001a0: 979e 803f ed82 7c3f 011f 823f 3e3c 7b3f
000001b0: 17dc 7c3f f8f0 813f 2aa5 7c3f f832 7f3f
000001c0: 25b3 813f 299d 813f 4963 813f 5e45 803f
000001d0: cf07 803f 557b 7e3f f248 813f 6f14 823f
000001e0: e7e8 813f 5569 813f 16be 7d3f efaa 7c3f
000001f0: 6c97 813f 682e 803f 6a27 803f 0689 7f3f
1.0069602 1.0050012 0.9921968 0.9993752 1.0151736 0.9980716 1.015235 0.98474205
1.0029844 1.000585 0.99764305 0.9949428 1.0148697 1.0172434 0.9981827 1.0195694
0.98471683 0.9987295 1.020059 1.0069528 0.9972549 1.0127046 0.9965076 0.9974895
0.9992354 1.0018322 1.0118704 0.9815367 1.0017198 0.9882504 1.003024 1.0143709
1.0067883 1.0140599 0.9846926 0.9940096 1.0098753 1.0037416 1.008525 0.996054
0.9913364 1.0011075 1.0000874 1.0074649 1.0073862 1.0195732 0.99355644 0.99538815
1.0025698 0.98651105 1.0005721 0.9972996 1.006231 1.0094959 0.9934675 0.9851504
1.0041625 0.9908566 1.0096307 1.0116093 0.9981047 1.0062594 1.0002767 0.9795
1.005252 1.0018706 1.0004503 1.0133846 0.99157274 1.0073081 1.0172768 1.0128939
1.0037645 1.0210848 0.9992943 0.99069136 1.0144075 0.99857974 0.9946177 1.0020906
0.99601007 1.0284007 0.9954258 0.9921776 0.9985724 0.9896861 1.0057362 1.0174792
1.0108706 0.99163425 0.9945982 0.99885297 1.0111595 1.007929 0.9984039 0.98204404
1.0007968 1.0001293 1.009973 1.0098788 1.0056776 0.98902965 0.99952316 0.9973443
1.0048398 0.98637277 1.0165712 0.981388 0.9877333 1.0151663 0.9868952 0.9968715
1.0132796 1.0126086 1.0108424 1.0021169 1.0002383 0.9940694 1.0100386 1.0162486
1.0149201 1.011027 0.99118173 0.98698324 1.0124335 1.0014162 1.0012028 0.99818456

conv_layers.0.params.7 f4 [128]
00000000: e3fe 7a3f 563e 7d3f 3bc4 7a3f c19c 813f
00000010: f128 7e3f 3f22 823f ee63 803f 9fdc 7d3f
00000020: b8b8 7f3f 3ec9 7f3f 0b1d 7e3f e3f0 813f
00000030: 22ad 7d3f 17ab 7e3f 9dd4 7f3f 0c5f 7e3f
00000040: 4f51 813f 8209 7d3f 032a 7f3f c781 7e3f
00000050: e049 7e3f 6b14 7c3f b026 823f c582 7f3f
00000060: 6ef3 7e3f 7b9d 803f 3f54 813f b2e8 803f
00000070: ab01 803f 2256 813f c568 803f 8af0 7a3f
00000080: 2491 7e3f de98 7e3f 732a 803f 3ed3 813f
00000090: 8db9 7e3f 51d9 803f 474c 813f f082 813f
000000a0: 8732 813f 3aaa 823f debf 7c3f 9409 813f
000000b0: 29b4 7c3f 916c 7c3f 5938 7f3f b828 7e3f
000000c0: 945d 7d3f 499f 7f3f a01d 803f 56b3 7d3f
000000d0: 9321 803f a31a 7f3f 6f6a 7f3f f472 803f
000000e0: 40b9 7f3f 834b 813f 2a21 813f c23f 803f
000000f0: 5c41 7e3f 7f5e 7d3f 786d 7f3f 60a1 7e3f
00000100: 9b45 803f 96c8 7a3f cccb 803f 50d4 813f
00000110: fc2a 7f3f 1f3b 803f 3500 7e3f 7871 803f
00000120: 778a 7e3f 2253 7d3f 0b9d 7f3f fbf9 813f
00000130: 5296 7d3f d7d3 7f3f b20a 803f d2b3 7b3f
00000140: 924a 7c3f af5a 803f 705a 7d3f 5172 7f3f
00000150: d7cd 813f e3c2 813f f0fa 7c3f 2943 823f
00000160: e20c 813f e247 803f 40d6 7e3f e640 7f3f
00000170: 0ce7 7d3f 9da0 7e3f 251a 803f 6cc0 803f
00000180: c630 7f3f 6a92 803f 6e8f 7f3f a211 7b3f
00000190: 343e 803f 1c57 7f3f be5f 7e3f 62d0 813f
000001a0: 1bf5 7e3f f63d 7f3f 7e1d 7f3f a18e 7d3f
000001b0: 41d2 7d3f 148e 803f c3f2 803f 429e 813f
000001c0: 058e 813f adaf 803f d834 803f e740 823f
000001d0: ca2a 803f 702e 7e3f f3fc 803f 0151 803f
000001e0: 13f7 7e3f 595e 803f bf16 803f 0296 7e3f
000001f0: 3a64 7d3f 9707 803f fe6e 7d3f 553c 7c3f
0.98045176 0.9892324 0.97955674 1.0125962 0.9928122 1.0166701 1.0030496 0.99164766
0.99891233 0.99916446 0.99263066 1.0151638 0.99092305 0.9947981 0.999338 0.9936378
1.0102938 0.9884263 0.9967348 0.99416775 0.99331474 0.98468655 1.0168056 0.99808913
0.99590194 1.0048059 1.0103835 1.0071013 1.0000509 1.0104411 1.0031973 0.98023283
0.99440217 0.99452007 1.0012954 1.0142591 0.9950188 1.006632 1.0101403 1.0118084
1.0093545 1.0208199 0.98730266 1.0081048 0.987124 0.9860316 0.99695355 0.9928088
0.98970914 0.99852425 1.0009041 0.9910177 1.0010246 0.9965002 0.9977178 1.0035081
0.99892044 1.0101169 1.0088246 1.0019457 0.9931848 0.98972315 0.9977641 0.9946499
1.0021242 0.9796232 1.0062194 1.0142918 0.99674964 1.0018042 0.99219066 1.0034628
0.9943003 0.98954976 0.99849004 1.0154413 0.99057496 0.99932617 1.0003264 0.9832126
0.98551285 1.0027674 0.9896612 0.9978381 1.0140942 1.01376 0.988204 1.0176746
1.0082057 1.0021937 0.9954567 0.997084 0.99180675 0.99463826 1.0007979 1.0058722
0.996838 1.0044682 0.9982823 0.9807378 1.0018983 0.99742293 0.9936484 1.0141718
0.9959275 0.9970392 0.99654377 0.9904576 0.99148947 1.0043359 1.0074085 1.0126421
1.0121466 1.0053612 1.0016127 1.0176057 1.0013058 0.9928961 1.0077194 1.002472
0.99595755 1.0028793 1.0006942 0.99447644 0.9898106 1.0002316 0.98997486 0.9852956

conv_layers.0.params.8 f4 [128]
00000000: 24cd 813f 9e1c 803f 35ab 783f 7bbb 803f
00000010: bc55 803f 32d4 7c3f 3df3 7b3f 6bde 7b3f
00000020: 12de 7f3f ab0c 803f ac60 7f3f 484d 803f
00000030: 04a9 803f be1d 7d3f 2a3b 7f3f ffcd 803f
00000040: 07a0 803f 894a 803f 7d46 7f3f 381e 813f
00000050: 6e58 813f 1ccf 7d3f b5d8 7f3f b9f3 7f3f
00000060: 0ee5 7c3f 44af 793f a943 803f ca6c 813f
00000070: 9ef8 7a3f ac3a 7e3f 3b55 803f 8772 803f
00000080: 7073 803f 1ae1 7e3f df27 7f3f 6c5d 803f
00000090: 3163 7f3f 85be 803f ab32 803f 3f6c 7e3f
000000a0: 90fe 803f 7c02 813f 0bd2 7c3f a37f 7e3f
000000b0: 5701 803f 7849 803f 69f3 803f 2271 7e3f
000000c0: ec51 7f3f f1ac 7c3f ce4b 7e3f c08c 7e3f
000000d0: f5d9 7d3f fd17 803f c054 813f 1831 7f3f
000000e0: a6bf 803f 54df 7c3f a76e 7f3f 20fc 7f3f
000000f0: 996c 7b3f 0c8f 7e3f 3396 813f 2bc9 7b3f
00000100: ea03 7e3f f6db 803f dd5a 7c3f 2a1e 803f
00000110: 25c4 7f3f 5f07 833f f5cf 803f 674b 813f
00000120: a7b5 7f3f 3fb6 813f 586c 823f 60c6 803f
00000130: d47e 7d3f a739 7e3f 62d0 7d3f d4bb 7a3f
00000140: 1f66 803f c334 7f3f e3b8 7d3f 14c7 7f3f
00000150: 51f5 803f 783b 7d3f 3ac2 803f ba7c 7f3f
00000160: 7653 7e3f 8687 803f ef49 813f ba07 813f
00000170: 4b51 7f3f 493b 803f e248 813f d256 7e3f
00000180: 48ce 803f a212 7e3f 19f5 7b3f bd68 803f
00000190: 6bb2 813f 5ed7 813f e64f 803f 837c 803f
000001a0: 6e73 803f f948 7d3f dff2 803f 10e4 7d3f
000001b0: 6141 813f 1581 813f ec29 7d3f 5f61 813f
000001c0: 48b6 7f3f 3c70 7d3f a468 7b3f b34d 803f
000001d0: ca89 793f 4b56 803f 34e8 803f 513c 813f
000001e0: 0012 803f 04cf 7c3f 75ec 7e3f b021 7c3f
000001f0: c51c 7e3f 5d80 7c3f d67a 7f3f fd13 803f
1.0140729 1.0008733 0.9713624 1.0057214 1.0026164 0.98761284 0.9841803 0.9838626
0.9994823 1.0003866 0.99756885 1.0023584 1.005158 0.9887351 0.9969965 1.0062865
1.0048836 1.0022746 0.9971693 1.0087347 1.0105112 0.9914415 0.99940044 0.99981266
0.9878701 0.9753306 1.0020648 1.0111325 0.9803561 0.99308276 1.002601 1.0034951
1.0035229 0.9956223 0.99670213 1.002851 0.9976073 1.0058142 1.0015463 0.9938392
1.0077686 1.0078883 0.98758 0.9941351 1.0000409 1.0022421 1.0074283 0.99391377
0.9973438 0.9870139 0.9933442 0.9943352 0.991607 1.0007321 1.0103989 0.99684286
1.0058486 0.9877827 0.9977822 0.9999409 0.9821258 0.9943702 1.0123962 0.9835383
0.9922472 1.0067127 0.98576146 1.0009205 0.9990867 1.0236624 1.0063463 1.0101136
0.99886554 1.0133742 1.0189314 1.0060539 0.9902165 0.9930672 0.9914609 0.9794285
1.0031165 0.99689883 0.9911024 0.99913144 1.0074865 0.9891887 1.0059273 0.9979969
0.993461 1.0041358 1.0100688 1.0080483 0.9973342 1.0018092 1.0100367 0.9935123
1.0062952 0.9924718 0.98420864 1.0031964 1.0132574 1.014385 1.0024383 1.0037998
1.0035226 0.9893947 1.0074118 0.9917612 1.0098077 1.0117518 0.9889209 1.010784
0.99887514 0.9899938 0.98206544 1.0023712 0.97475874 1.0026335 1.0070863 1.0096532
1.0005493 0.9875338 0.99579555 0.98488903 0.9926265 0.98633367 0.9979681 1.00061
