trained_model/2025-06-19_15-59-34/saved_model_2025-06-19_15-59-34.pkl (torch, 820950 bytes, 54 tensors)

conv_layers.0.f_lin.0.weight f4 [128, 5]
000000 c5 22 84 bd 84 fd 2b 3e fb 01 a5 3d 2d 3a 5c bd
       -0.06451944 0.16795927 0.08057018 -0.05376642
000010 00 7a c4 bd a0 55 d6 3d ad f7 fe bd 57 ed 3e be
       -0.09593582 0.104655504 -0.12449584 -0.18645225
000020 08 a9 00 3e 9a aa b2 bd 89 85 a4 bd 00 2a 5e bb
       0.1256448 -0.08723946 -0.08033282 -0.0033899546
000030 90 2a b1 bd ab ee 0f bd 46 49 09 bd 4e d3 3f be
       -0.08650696 -0.03513972 -0.033517145 -0.1873295
000040 b5 f9 9c bd 8b 17 3d 3e e3 29 39 be 97 c7 c8 bd
       -0.07664815 0.18466012 -0.18082385 -0.09803694
000050 7f 5e 18 be 0d 25 17 be 0a 33 f8 3d 30 d6 d0 3d
       -0.14879797 -0.14760228 0.1211911 0.10197103
000060 bc 2a 1e be 06 af e6 3d 30 c7 1e 3e c8 f6 34 be
       -0.1544599 0.11263852 0.15505672 -0.17672265
000070 ed 9d 2a bb 18 b7 33 3d 97 a0 89 bd d4 b9 04 be
       -0.0026034073 0.043875784 -0.06720083 -0.12961513
000080 b0 1c a3 3d 70 1c 0c bd e6 2f 34 3d c9 04 c7 b6
       0.07964456 -0.034206808 0.043990992 -5.931219e-06
000090 c9 c5 e8 3c 07 9f 18 3e 43 f6 1c bd b1 b5 3f be
       0.028414624 0.14904414 -0.03832079 -0.18721654
0000a0 d9 a3 82 3d 23 83 4a be fe 87 b0 3c dc e0 0b be
       0.06378908 -0.19776587 0.021549221 -0.13659996
0000b0 78 43 cc 3d aa 13 2d 3e 36 1a be 3d 84 b3 15 3e
       0.09973806 0.16902032 0.09282343 0.14619261
0000c0 03 93 cb 3c f9 03 0d be 81 47 40 bd 8c 17 61 be
       0.024850374 -0.13771047 -0.04694319 -0.21981639
0000d0 98 a7 fc 3d 09 d3 55 bd 5f 01 57 be d8 ef 8a 3d
       0.123366535 -0.052203212 -0.20996617 0.06784028
0000e0 d4 f4 39 3e 5b d8 52 3c ce c0 da bd 7a ab b5 bd
       0.18159801 0.012868966 -0.10681306 -0.08870597
0000f0 bb 46 14 be 20 71 ac bd e4 c7 fb bd 4b ef 9c 3d
       -0.14480107 -0.084200144 -0.122939855 0.07662829
000100 04 a0 c0 3b e3 3c e7 3d 3d 13 9a bd 17 00 3a be
       0.0058784503 0.1129091 -0.07523201 -0.18164097
000110 db cd bb 3d 99 1e c3 bd f4 7d e0 bd f4 c8 6b bd
       0.09170123 -0.095273204 -0.10961524 -0.05756469
000120 07 66 c6 bd dd 21 90 bd b6 b5 32 be fa 48 d6 3d
       -0.09687429 -0.07037709 -0.1745213 0.10463138
000130 21 ac 4a 3d a9 1d 0f 3e 56 61 35 3d bc 4c 0c be
       0.04948056 0.13976158 0.04428228 -0.13701147
000140 f9 87 bc 3d 4a 00 38 3e 70 c2 85 bd fe db 38 3e
       0.09205622 0.1796886 -0.06531227 0.1805267
000150 c7 94 57 be 8f bc ba bd 11 58 72 be e9 ba 68 3d
       -0.21052848 -0.09117996 -0.23666407 0.056818876
000160 04 58 04 bd ef 4f 07 be 2a c3 a9 3b cf a3 25 be
       -0.0323105 -0.13214086 0.005180736 -0.1617577
000170 b2 1b ca bd 72 bb 79 bd 7f 06 49 3e 0b d7 1c be
       -0.09868564 -0.060969777 0.19631384 -0.15316407
000180 5f 3b 12 3d ba 0b 8b 3d e7 fe ad 3c 28 90 63 3e
       0.035701152 0.06789346 0.021239711 0.2222296
000190 ee a3 31 3e 0c c2 a1 3d 01 99 86 bd a6 ac cc bd
       0.1734769 0.0789834 -0.06572152 -0.099938676
0001a0 31 91 ff 3c db 72 1e be 09 06 a1 bc e1 6f 5e 3d
       0.031197162 -0.15473501 -0.019656198 0.054305915
0001b0 9f 78 69 3d b7 1e 96 bd 3b 24 8c bd 4e 5d 5a 3e
       0.0569998 -0.07330077 -0.06842848 0.21324655
0001c0 54 1e 15 3e 6b 2c 3d 3d 1e 52 e9 bd e7 f1 f7 3d
       0.1456235 0.04618494 -0.11392616 0.12106686
0001d0 f0 c0 1d 3e 8f f5 10 be fc e7 9e bd 4a 07 ae 3d
       0.15405631 -0.14156173 -0.07759091 0.08497484
0001e0 14 b3 28 3d f5 24 b8 3d 48 43 d4 bc f3 19 78 bd
       0.041186407 0.08991424 -0.025910988 -0.060571622
0001f0 22 bb 43 3d d1 8b f9 bd 37 47 c6 bd 7d 18 da 3c
       0.047785886 -0.12184871 -0.09681552 0.026623005
000200 e6 5a 28 3e 56 0f 4a be b7 4d 5d bd 42 5e eb 3d
       0.16440925 -0.19732413 -0.054029193 0.114925876
000210 1c d9 94 3d 71 38 58 bd fa 6f 32 3e 66 33 3c bd
       0.07267973 -0.0527882 0.17425528 -0.045947455
000220 72 a3 27 bd 7c ef c5 3d 5e 0c eb bd 32 f7 75 3c
       -0.040927358 0.09664819 -0.11476968 0.015012549
000230 84 d2 5e 3c 0b d5 58 3e 02 bf 0e be 48 1e 13 bd
       0.0135999955 0.2117502 -0.13940051 -0.03591755
000240 2f db 2a 3e 26 4b ff 3d 80 50 22 be a5 e9 f0 bd
       0.16685174 0.12465505 -0.15851021 -0.11763314
000250 bc f8 ec 3d a2 77 0c be 34 d9 cd 3c 05 6e 4e 3e
       0.1157088 -0.13717511 0.025127985 0.20159157
000260 dd e8 e2 3c 48 07 f3 3b f5 6b d3 bd 94 ff cb bc
       0.027698928 0.0074166395 -0.103233255 -0.024902143
000270 fe a7 27 3e b7 42 44 be 8a a4 09 3e 8f 2c 0b 3e
       0.16372678 -0.19166075 0.13441673 0.13591217
000280 71 b1 a8 3d 3e a6 3d 3e 9e 61 20 3e d6 61 00 bd
       0.08236969 0.18520448 0.15662238 -0.031343304
000290 75 d7 4c bd ef b9 bf 3d 0a e5 0a 3e e9 a8 0e 3e
       -0.050010163 0.09361636 0.13563934 0.13931622
0002a0 72 1a 62 bd 87 20 46 3e c7 0e 96 bc 64 3b 28 be
       -0.055201 0.19348346 -0.018317593 -0.16428906
0002b0 fb e7 19 be 97 6f 32 3d 20 7a 47 3e 24 5c d8 bd
       -0.150299 0.04356345 0.1948018 -0.105644494
0002c0 0a fd 6b be 14 30 d6 bd ee 01 a9 bd ed 56 2a 3e
       -0.23045745 -0.10458389 -0.08252321 0.16634722
0002d0 d9 90 26 3d a6 fd 80 bc 1f 34 88 bd d4 31 ba bd
       0.04066548 -0.015745949 -0.06650566 -0.09091535
0002e0 df bd 02 be 98 58 8f bd 3e 0c 4d bd bc 1f 96 bd
       -0.12767743 -0.0699932 -0.050060503 -0.073302716
0002f0 6b dc 6f 3b ee 68 53 3e 2b 16 80 3d cb 40 4b 3e
       0.0036599885 0.20645496 0.06254228 0.19848935
000300 e7 57 7d 3d c6 5f c8 3d 7b 16 04 3d 83 10 e1 3d
       0.06185141 0.09783892 0.032248 0.109894775
000310 69 da 33 bd a7 55 61 bd 41 87 83 bd 3e d3 6b bd
       -0.043909464 -0.055013325 -0.06422282 -0.057574503
000320 ea 9e 11 be 60 54 a2 bd ba 12 40 3c ff 19 41 bd
       -0.14220777 -0.079262495 0.011723215 -0.047143932
000330 43 f9 8a 3c fd 3a 37 3c 02 89 b6 bd c1 ec 74 bc
       0.01696456 0.0111834975 -0.08912851 -0.014949025
000340 fa 21 2a be 3d 55 52 3d a7 a5 7f 3d b6 23 df 3c
       -0.16614524 0.05135082 0.062413838 0.027238708
000350 3b 95 fd bd 78 09 27 3e e7 57 0e be c0 a9 ff bd
       -0.12381979 0.16312206 -0.1390072 -0.12483549
000360 f3 7c 45 be 76 a8 ee 3d 35 de 06 3e 23 46 30 bc
       -0.19285946 0.11653225 0.13170703 -0.010758909
000370 90 55 37 3e 70 05 06 3d c8 e9 11 be a3 69 c1 3d
       0.17903733 0.03272003 -0.14249337 0.09443977
000380 f6 9e 21 bd 4d 0b a0 bd 01 e5 b1 3b 6d da d3 bd
       -0.039458238 -0.078146555 0.0054289107 -0.10344396
000390 e5 25 e7 3d 7e de 67 3e e2 5c 3a be 97 75 4f be
       0.11286525 0.22643468 -0.18199494 -0.202597
0003a0 8b 4e ef bd f7 b4 1d 3e 1a 89 32 be bf d0 f1 bd
       -0.11684903 0.15401064 -0.17435113 -0.11807393
0003b0 97 c6 1d be ca 0e 2c 3e 4b 43 c8 3c a5 bb 4e be
       -0.15407787 0.16802517 0.02444615 -0.20188768
0003c0 50 56 44 3e 25 1e f4 bd 9f 09 09 be cf 91 91 bd
       0.1917355 -0.11919812 -0.13382576 -0.07107889
0003d0 8b 1a 07 3e 39 37 7a bd 94 01 dc 3c b0 3f d3 3d
       0.13193719 -0.06108782 0.026856221 0.10314882
0003e0 2d 7a a5 bd b3 86 c5 3d 31 cc 33 3e 09 ab 2d 3b
       -0.08079944 0.096448325 0.17558362 0.002649965
0003f0 a1 83 50 3e ce 9b 4b 3e c5 3b e5 bc 3f 9c 2e 3e
       0.20362712 0.19883654 -0.027982602 0.1705179

conv_layers.0.f_lin.1.weight f4 [128, 5]
000000 45 77 90 ba e1 c7 b9 3c 41 28 d9 3c 34 60 05 3e
       -0.0011021873 0.022678318 0.026508452 0.1302498
000010 15 59 39 3e d8 89 09 be 8e 1c 29 bd 78 e3 12 bd
       0.18100388 -0.1343149 -0.041286997 -0.035861462
000020 64 1f c5 bd b0 1b 6d bd 16 c7 3d 3e 38 db 0a be
       -0.09625128 -0.057887733 0.18532977 -0.13560188
000030 d8 58 e5 bc 70 72 47 3c 21 70 17 3e 59 5c 8a bd
       -0.027996466 0.01217328 0.14788868 -0.06755895
000040 6b 5b 23 be e9 c2 93 3d c9 fa 85 bd e2 9b 42 be
       -0.15952842 0.072149105 -0.06541974 -0.19004777
000050 4c 0f 1f be 36 94 a8 3d 76 a3 45 be 29 28 a2 3d
       -0.15533179 0.08231394 -0.19300637 0.07917816
000060 c8 7f 5b be 95 fe 48 be 45 8e 38 3e 3f 99 1d 3e
       -0.21435463 -0.19628365 0.18023022 0.1539049
000070 81 3a 4a bd b4 b4 c8 3c 8c 88 1a 3e c9 34 8c 3d
       -0.0493722 0.024500228 0.15091151 0.068460055
000080 77 61 ca 3d 43 3e 4c bd 5f ed a1 3d c5 1b 4c bd
       0.09881871 -0.049864065 0.07906603 -0.04983117
000090 4f a4 52 be 56 ba 66 3a 0a 1e 96 3d 5b 9e 04 3d
       -0.20570491 0.000880157 0.07329948 0.032377582
0000a0 eb a1 c8 ba 42 48 10 bd b7 7e 4e 3e 73 33 8e bd
       -0.0015307044 -0.03522516 0.20165525 -0.06943407
0000b0 b7 57 05 be 30 19 52 be 39 8e 39 be e7 11 40 be
       -0.13021742 -0.20517421 -0.1812066 -0.18756829
0000c0 6d 81 a6 3d 99 7c 63 be 49 c5 0a 3e 50 d3 62 be
       0.08130155 -0.22215499 0.13551821 -0.22150922
0000d0 54 5e 7d bc 9e df 00 3e 1e 34 79 bd 4d a3 14 3e
       -0.015464384 0.12585303 -0.06084072 0.1451542
0000e0 e0 05 5a be 62 69 c6 bd 49 2e df 3d cc 70 14 3c
       -0.21291304 -0.09688069 0.108975 0.009060096
0000f0 66 a8 57 be 26 dd aa bd c6 f1 c5 bd 40 75 ed 3d
       -0.21060333 -0.08342962 -0.09665255 0.11594629
000100 06 76 3e be 72 0c 43 3c 66 47 83 bc 5b 18 33 be
       -0.1859971 0.011904823 -0.016025256 -0.1748976
000110 06 38 bc 3c 2a 77 b5 3d fb b8 c6 3b fd a1 5c be
       0.022975933 0.08860619 0.006064532 -0.21546169
000120 57 f8 74 3d 00 7d 18 3e 07 9d 52 3d b4 97 c9 3d
       0.059807148 0.14891434 0.051419284 0.09843388
000130 ed 7f d0 ba 6a 32 90 bd b9 ac 68 bd aa 5e a7 3c
       -0.0015907265 -0.07040866 -0.056805346 0.020430882
000140 27 cd fb bd 7d e7 eb 3d 06 95 47 be c2 ef e4 3d
       -0.12294989 0.11518762 -0.19490442 0.11178543
000150 58 8f 15 3d b9 db 21 3e 76 7f 55 bb f9 22 7b 3d
       0.036513656 0.15806474 -0.0032577193 0.06131265
000160 65 d0 ef bd 05 ef b7 3d 16 52 99 3d d5 b5 07 3e
       -0.1170967 0.08981136 0.0748636 0.13252957
000170 1e d3 3f 3e c3 b9 40 3d b3 c7 27 3e c6 7d 56 bb
       0.18732879 0.047052156 0.16384773 -0.0032728775
000180 70 c3 0c 3e 7f 42 5b bd f7 23 54 be 2c f8 68 3e
       0.13746428 -0.053530212 -0.20716844 0.2275092
000190 24 3e b3 3c 29 4b 1e 3e 51 44 c0 3d 42 05 00 be
       0.021880217 0.15458359 0.0938803 -0.12502006
0001a0 2f 3d 02 be 2d d6 3a bd 3d ba 57 bd 58 71 02 3d
       -0.12718652 -0.04561441 -0.052667845 0.031846374
0001b0 ab f4 00 be 9b 59 a5 ba e7 12 6e bc ef 31 42 3e
       -0.12593333 -0.0012615205 -0.014530874 0.1896436
0001c0 79 8e 82 3b 32 88 80 3d 0b f1 51 3e 28 c6 bf 3c
       0.003984269 0.06275977 0.20502107 0.023409918
0001d0 ec 87 3c 3e a1 4b 35 be 84 54 cf 3d 45 66 51 3e
       0.18411225 -0.17704631 0.10123542 0.20449169
0001e0 3c be 2b 3e ea d4 3a be fd 91 6a 3d 77 46 77 3d
       0.16771787 -0.18245283 0.05726813 0.060369935
0001f0 b8 d1 39 be 6a 51 7d 3d ed 45 4b be f3 6c 51 3e
       -0.18146408 0.06184522 -0.19850893 0.20451717
000200 6f 97 2f be d1 6f 89 3d 5d 05 ba 3d 52 58 82 3d
       -0.17147611 0.067107804 0.09083054 0.06364502
000210 54 45 67 be 32 e3 8e 3d 0f 35 d3 3d 34 4f cc bd
       -0.2258504 0.06976928 0.103128545 -0.09976044
000220 c2 7b 1c 3e cc 77 94 3c 15 cb 80 3d e1 19 5c 3e
       0.15281585 0.01812353 0.06288735 0.21494247
000230 25 89 4a 3b 27 ed 28 be bd bd d6 bd a4 f4 b6 3d
       0.0030904498 -0.16496716 -0.104854085 0.0893338
000240 7e 78 79 be 6a 03 02 be 17 3c d3 3c 47 24 0d be
       -0.2436237 -0.12696615 0.025785489 -0.1378337
000250 12 3b 32 3e a9 1c 3a 3e 40 4c 4e 3e 1b 59 89 bd
       0.17405346 0.18174995 0.20146275 -0.06706449
000260 19 e2 49 bd 7d d3 f9 3d 51 35 43 be be 66 eb bd
       -0.04928789 0.12198541 -0.19063307 -0.11494206
000270 c4 a4 b0 3d 62 35 26 be 3e 69 94 3d 93 f3 1a be
       0.086251765 -0.16231301 0.07246636 -0.15131979
000280 db 37 a3 3a 13 02 15 bd 09 38 38 3e f9 1c 35 be
       0.0012452559 -0.03637893 0.17990126 -0.17686833
000290 3f bd 18 be 70 14 a6 3d 3a f1 64 bd 38 d9 8a bd
       -0.14915942 0.08109367 -0.055894114 -0.067797124
0002a0 12 26 bd bd f9 7f 0d 3e 9b a7 01 be f3 b8 aa 3d
       -0.09235777 0.13818349 -0.12661593 0.083360575
0002b0 b0 ec 7c 3d 86 b0 29 3e 91 0c 70 3e a5 db 3b be
       0.06174916 0.16571245 0.23442294 -0.18345506
0002c0 b0 b6 a2 bd 28 f3 fd 3d b3 9e 10 be fc 7b b9 3d
       -0.07945001 0.12399894 -0.14123039 0.09056851
0002d0 77 9b 29 3d 2c c9 88 bd d2 0b 8c 3d 6f 5e 55 3e
       0.04140803 -0.066789955 0.06838192 0.20836805
0002e0 28 f6 80 3b 18 72 b2 bd a4 16 a6 3d 20 7c 4a be
       0.003935594 -0.08713168 0.08109787 -0.19773912
0002f0 12 ba a5 3d a6 b6 8b bd ad 01 17 be d4 15 60 3e
       0.08092131 -0.06821947 -0.14746733 0.21883327
000300 da ea dd bd 42 3c 08 be b7 8b 4a be 7b 80 45 3d
       -0.1083581 -0.13304237 -0.1977986 0.04821823
000310 61 6d ea 3c db b7 11 3e 93 3d ce bd 61 c0 be bd
       0.028616609 0.14230292 -0.10070338 -0.09314037
000320 34 4d c7 3d ea 67 ae 3d 97 ff e7 3c 80 ed 23 3e
       0.09731522 0.08515914 0.028320117 0.16008568
000330 c7 9a 1f 3e 25 8b 11 3e 15 c6 33 3c ad 12 34 3e
       0.15586387 0.14213236 0.010972519 0.17585249
000340 61 d6 c5 bb 46 ec 3d 3e f7 63 41 be 7e 3e 8f 3d
       -0.006037519 0.18547162 -0.1888579 0.06994341
000350 03 75 39 3d b8 a8 d4 3d 90 0c e9 bd db ee 37 3e
       0.045277607 0.10383743 -0.11379349 0.1796221
000360 64 dc d5 3d 83 1d 59 be 28 03 05 3e d7 21 23 3d
       0.10442427 -0.21202664 0.12989485 0.039827194
000370 d3 78 4d bc 41 06 c8 bd 02 c5 57 be de a3 c0 bd
       -0.012541014 -0.09766818 -0.21071246 -0.09406255
000380 5f 83 1a 3e 47 2a 05 be ff 5e 28 3e d1 59 5e be
       0.15089177 -0.13004409 0.16442488 -0.2171395
000390 92 07 62 bd 77 12 0c bb 76 bd 2e 3d a6 9b e7 bb
       -0.055183 -0.002137331 0.042661153 -0.0070681153
0003a0 5d b4 46 be b6 57 9b bd 5c de 2f be 3e e0 ae bd
       -0.1940474 -0.07585089 -0.17174667 -0.085388646
0003b0 ba aa 05 be 4d 28 1d 3e 47 80 cb bd c6 e4 c4 3c
       -0.13053408 0.15347405 -0.09936576 0.024034869
0003c0 70 d3 ce 3d 27 f4 0a bd 4d 0a c8 3d 5c b6 e4 bd
       0.10098922 -0.033924248 0.0976759 -0.11167595
0003d0 af 71 c9 bd e7 c7 fd bb 10 f0 42 3d 6b 8d 8f 3d
       -0.098361365 -0.0077447775 0.047592223 0.07009395
0003e0 e9 c5 3c 3e e9 93 af 3d a9 9f f1 bc 27 73 2e 3e
       0.18434872 0.085731335 -0.029495077 0.17036115
0003f0 cd ba 23 be 8b 49 26 3d c4 12 b1 3d 2a 6c f7 3d
       -0.15989228 0.04059748 0.086461574 0.120811775

conv_layers.0.f_lin.2.weight f4 [128, 5]
000000 c4 cf 28 3e ee 28 bb bd 10 b9 f8 3d 7b 24 23 be
       0.16485506 -0.09138666 0.12144673 -0.15931885
000010 db c1 e4 3d 37 ed 0b be 8e c1 f0 bc 74 42 00 3e
       0.111697875 -0.13664709 -0.029389169 0.1252535
000020 6e e9 34 3e ac db 90 bd bb 48 e7 3d af 06 25 be
       0.17667171 -0.07073149 0.11293169 -0.16115831
000030 a6 c0 90 3c f0 fd 44 be 6e 77 c5 bd 53 92 b6 bd
       0.017669987 -0.19237494 -0.0964192 -0.08914628
000040 ea f1 ab bd 82 84 b3 bd b9 6d b9 bd f9 93 12 bd
       -0.08395751 -0.08765508 -0.09054131 -0.03578565
000050 85 b4 82 bd 80 65 fb bd e3 53 cf 3c 6b 77 15 3e
       -0.063820876 -0.12275219 0.025308555 0.14596336
000060 a8 da 01 3d 14 df 3c be 37 9e bc 3d ed 70 0f be
       0.031702667 -0.18444473 0.092098646 -0.14007922
000070 cb 23 57 be 43 b8 d3 bd d8 0a 21 be 9b e9 b0 bd
       -0.21009748 -0.103378795 -0.15726793 -0.08638307
000080 06 41 24 3e da 83 25 3e f4 38 2c be d5 bb d5 3d
       0.1604043 0.16163579 -0.16818601 0.10436217
000090 5a a5 15 be de c9 b4 ba 1a 2b 4b 3e 1f 32 77 be
       -0.14613858 -0.0013793071 0.1984066 -0.24140213
0000a0 ed 81 b9 3d 16 9e eb bd 04 b7 40 3e 5b f4 10 3e
       0.090579845 -0.11504762 0.18819815 0.14155714
0000b0 4e b2 39 3b d0 01 58 be 60 fa dc 3d ae 71 7e bd
       0.0028335038 -0.21094441 0.10789943 -0.062120132
0000c0 41 7e 07 bd d0 e2 c0 bc 40 ef 26 3e fb fe ef 3d
       -0.03307939 -0.023545653 0.16302204 0.117185555
0000d0 c3 64 dc 3d b6 ae 46 3e c5 8b e7 3d 26 75 a6 bd
       0.10761406 0.19402584 0.11305956 -0.08127813
0000e0 04 e2 22 3e d7 00 37 3c 2d 92 dd bd e5 81 18 bd
       0.1590653 0.011169634 -0.108188964 -0.037233252
0000f0 41 b4 ae 3c 97 aa 8a 3b aa 38 44 bd b8 68 bf 3c
       0.021326186 0.0042317617 -0.0479056 0.023365363
000100 15 85 40 be 9d 2a 15 3e e8 b0 b2 bd 83 61 00 3e
       -0.18800767 0.14567037 -0.087251484 0.12537198
000110 e0 a8 00 3e 24 97 d5 3d 27 8e 2c 3d e3 22 d3 bd
       0.1256442 0.104292184 0.042127755 -0.103093885
000120 cf 9d f9 3d c5 4a 35 be 1d 48 34 3e 52 09 44 be
       0.12188303 -0.17704304 0.17605634 -0.1914418
000130 d9 59 86 bd 3f 50 70 bd 73 6b 4e be 53 3e 2a 3e
       -0.06560106 -0.05867028 -0.20158176 0.16625337
000140 13 ce 42 bd 0e 50 ea 3d 99 15 01 be f2 c1 3d bd
       -0.04755981 0.114410505 -0.12605895 -0.04632754
000150 da ab 3d 3e a3 1b 27 3e d7 45 27 bd 8d f3 2f be
       0.18522587 0.16319136 -0.04083809 -0.17182751
000160 3a fe b9 3d e7 da 1b bd db 93 4a be e7 90 16 bd
       0.09081693 -0.03805056 -0.19782965 -0.036759283
000170 b4 a4 79 3d dd 03 45 bd 17 a7 23 be a1 f6 f8 bc
       0.06094809 -0.048099387 -0.15981708 -0.03039104
000180 78 ff 62 3d aa 03 bb ba c5 31 31 3e fc 7d 51 3e
       0.055419415 -0.001426806 0.17304142 0.20458215
000190 93 ce d6 bd 66 c9 3e be 4a a6 14 3e 21 dc 2c be
       -0.1048862 -0.18631515 0.14516559 -0.16880848
0001a0 0e e3 9a 3d 72 6a 9d bc 35 62 b1 bd d5 7f 00 be
       0.075628385 -0.019215796 -0.0866131 -0.12548764
0001b0 e9 53 40 be b1 86 a3 3b 94 99 05 3e fc 88 17 3e
       -0.18782009 0.0049904217 0.13046867 0.14798349
0001c0 67 e9 00 3e ab b7 ab 3d 0c 1c c2 3d 29 02 69 bc
       0.12589036 0.08384641 0.09478006 -0.014221706
0001d0 a7 c7 e7 bd 76 ff bb 3d 65 09 50 be 5b d0 19 3e
       -0.113173775 0.09179585 -0.20316084 0.15020888
0001e0 06 c4 1d 3e 46 a0 05 be 14 47 1e 3e 39 c6 22 3e
       0.15406808 -0.1304942 0.15456802 0.15895928
0001f0 bc bc 59 bd 57 c3 36 bd 30 19 26 3e ed fe ab bd
       -0.053158507 -0.044619884 0.16220546 -0.083982326
000200 fe dd 00 be 02 dc 4a be 39 79 3e be f3 b6 14 3d
       -0.12584683 -0.19810489 -0.1860093 0.036307286
000210 a8 36 9e bd df e2 16 3e 90 b7 e5 3d 88 09 43 be
       -0.077252686 0.14734982 0.112166524 -0.19046605
000220 33 a2 40 3e 03 f4 3a be 7c cd d1 3d a7 a8 a2 bd
       0.18811874 -0.18257146 0.10244271 -0.07942324
000230 a7 df 4f bd 50 5a 0d be 1c f5 14 be c3 35 85 bd
       -0.0507504 -0.13803983 -0.14546627 -0.06504395
000240 d4 72 2d 3e ca 7c 86 bc 55 5c 11 3e 6e 20 3c be
       0.16938335 -0.016416926 0.14195378 -0.18371746
000250 c7 4d 78 bd 18 0f 5d 3c f4 96 38 3e ed 54 5b 3e
       -0.06062105 0.013492368 0.18026334 0.21419115
000260 f7 45 f3 bd 12 11 d3 bd ee a8 c1 bd ce 92 06 be
       -0.11878579 -0.1030599 -0.09456049 -0.13141939
000270 06 52 72 bc 23 c6 d2 3c fd d7 e0 bd 50 d3 1f bd
       -0.014790064 0.025729245 -0.109786965 -0.039019883
000280 3b 76 56 bd eb 89 2c be d9 8a 08 be f1 ad 89 3d
       -0.052358847 -0.16849487 -0.13334216 0.0672263
000290 99 34 f5 bd 85 f0 68 be d5 b2 1c 3d 9d fe ba 3c
       -0.11972923 -0.22748001 0.038256485 0.022826487
0002a0 9f a8 35 3e 43 64 3f be 29 5d 40 3e a5 5b 8a 3d
       0.17740105 -0.1869059 0.18785538 0.06755761
0002b0 28 83 ca bd 39 6e 06 3e 16 1b 20 be 7a ef 0b 3d
       -0.09888297 0.13127984 -0.15635332 0.03416393
0002c0 b1 c3 61 3d 37 ab 84 3d 6c 60 47 3e b3 e1 5c 3e
       0.055118266 0.06477969 0.19470376 0.21570472
0002d0 82 a7 7b 3d 58 5a 04 bd a5 3c 70 3c 2b a0 92 bc
       0.061439045 -0.03231272 0.014662896 -0.01789864
0002e0 04 36 4b 3e 30 6e 52 be 68 80 a0 3d af 40 b7 3d
       0.19844824 -0.20549846 0.078369915 0.08947884
0002f0 b4 29 57 be 47 62 09 3e 03 29 06 be 03 24 ed 3d
       -0.21012002 0.13416396 -0.13101582 0.11579134
000300 50 77 18 3c 28 07 00 3e 75 b4 3d 3e f7 44 b6 3c
       0.00930579 0.1250273 0.1852587 0.022249682
000310 a7 c7 31 be 07 1c cc bd 56 b1 4a 3c 6f 34 5c 3e
       -0.17361318 -0.09966283 0.012371382 0.21504377
000320 98 e2 48 3e a2 71 43 be 17 ee 69 3d fd 21 51 3e
       0.19617689 -0.19086316 0.057111826 0.20423122
000330 90 23 a8 bd d3 e3 e0 bd be cf ea bd ee f1 c5 bd
       -0.08209908 -0.10980954 -0.11465405 -0.09665285
000340 d4 e0 42 bd 84 4f e6 bd 2e ae 99 bd f1 ca 03 3e
       -0.047577694 -0.11245635 -0.07503925 0.12870385
000350 98 ce 01 be 6a 68 4c 3e 17 12 73 3c a8 3f 25 3c
       -0.12676466 0.19961706 0.014835856 0.010085978
000360 4a d6 d5 bd f8 dd 97 bd 7c f3 f5 3d bc 4a 52 bc
       -0.10441263 -0.07415384 0.120093316 -0.012835201
000370 a6 8e 95 bd 1a 4f 49 3e 63 f3 1a be ec b3 2e 3e
       -0.07302599 0.19659081 -0.15131907 0.17060822
000380 dc 8b 01 3e e5 19 3b be ce 74 07 3e cd 49 13 be
       0.12651008 -0.18271597 0.13228151 -0.14383622
000390 53 04 79 bd 80 32 de bd 79 d6 01 be 7b bd 19 3b
       -0.06079514 -0.10849476 -0.12679471 0.0023458886
0003a0 19 51 51 bd 41 46 37 3e af dc 28 3d c3 60 10 3e
       -0.05110273 0.17897893 0.041226085 0.14099412
0003b0 2d 12 b6 bd f4 d2 1c 3e b3 e4 6e 3d 5b 24 17 be
       -0.088901855 0.15314847 0.058323573 -0.14759962
0003c0 dd 2b 05 3e 66 f3 05 3d 34 66 3d 3e 25 0d b3 3c
       0.13005014 0.032702826 0.18496019 0.021856854
0003d0 8e 82 04 be 54 ac 79 bd 05 d1 d5 bd dc 4a 1d be
       -0.12940428 -0.06095536 -0.10440258 -0.15360588
0003e0 39 06 40 3e bf 18 85 bd 0f f8 c1 bd f5 58 15 be
       0.18752374 -0.064988606 -0.094711415 -0.14584716
0003f0 9b d7 de bd 03 69 10 be 8c 3e 07 3d 67 1e 21 3e
       -0.10880967 -0.14102559 0.033018634 0.15734254

conv_layers.0.params.0 f4 [128]
000000 97 bf 90 bc a9 3e a5 3c 63 ac 09 bb ba 5a 90 3b
       -0.017669482 0.02017148 -0.0021007292 0.0044053467
000010 91 9b b3 bb 54 14 6a 3b 36 32 a5 3c 0f 6f 63 bc
       -0.0054811914 0.0035717683 0.020165544 -0.013881459
000020 e5 c6 5d 3c 88 0c 3f bc 04 13 c2 3c 75 50 05 3c
       0.01353619 -0.0116607025 0.023690708 0.008136858
000030 b5 6a f3 bb a7 0f 56 3c 2b a0 97 3b 0c db 13 bc
       -0.007428492 0.013065255 0.004627248 -0.009024393
000040 79 79 b1 bb c6 ad a0 3c b5 74 96 bc 0d 47 e8 3b
       -0.005416092 0.019614112 -0.018366197 0.007088548
000050 7c fd 96 bb 38 e7 3f bc 0d 83 86 bc e0 a9 85 3c
       -0.0046078544 -0.011712842 -0.016419912 0.016316354
000060 98 e5 33 3c 3f 0f 9d 3c b2 ef 46 3b a8 a2 b6 bc
       0.010980032 0.019172309 0.0030355272 -0.022294357
000070 6c 0a a3 37 5d 85 08 3d 0b 0d 60 bc 03 16 28 bc
       1.9435967e-05 0.03333031 -0.013674985 -0.010259154
000080 aa 8f c7 bc 6b aa a3 bb 3d ac b2 bc 2a f9 aa 3c
       -0.024360497 -0.0049946806 -0.021810645 0.020870764
000090 b4 a3 8f 3c 62 5e f2 3c 6d 79 6f bc fb c7 8c 3c
       0.017534114 0.02958602 -0.0146163525 0.017185202
0000a0 2c 57 4b 3c ad ae 32 bc c1 c3 eb 3b 5b 1d 0e bc
       0.01241092 -0.010905904 0.0071949665 -0.008673991
0000b0 0e f3 20 3c 27 ed 15 3c b8 00 89 bc e8 1e ff 3b
       0.009823574 0.00915078 -0.016723976 0.0077856667
0000c0 98 02 ad ba 1e ef ae bc bb 78 89 bb 31 ff e1 3c
       -0.0013199626 -0.021354254 -0.0041953004 0.027587505
0000d0 33 dd dc bb 3f 5a ef bb 5e 1c 82 bc 9c 70 6f bb
       -0.006740236 -0.0073044593 -0.015882667 -0.0036535626
0000e0 a5 64 a0 3b f1 01 8a 3c 87 7e 94 bc 0b ea c3 3c
       0.0048948103 0.016846629 -0.01812674 0.023915311
0000f0 e1 eb 84 bb 6e 06 e0 bc 9a 36 7e 3c 75 88 b1 bb
       -0.0040564393 -0.027346816 0.015515948 -0.0054178783
000100 35 8e 11 3c 52 2a b6 bb 68 c6 80 bc d5 33 eb 3b
       0.008884002 -0.005559244 -0.015719607 0.0071778097
000110 56 26 ea bb 52 d8 b4 bc ed 49 1d bc 01 5b 48 bc
       -0.0071456833 -0.022075806 -0.009600145 -0.012228728
000120 29 12 8f 3b 4f 21 86 bc cb 49 e0 bb 2a ea 1a 3c
       0.0043661785 -0.016373305 -0.0068447343 0.009455243
000130 bc 2d 3e 3c c4 a7 f6 3b d5 11 48 bc 05 f1 0b 3c
       0.011607584 0.0075273234 -0.012211283 0.00854135
000140 21 66 91 3c f9 e2 82 b9 04 1d 0b 3c ab b0 17 3c
       0.017748894 -0.0002496464 0.008490805 0.0092584295
000150 19 85 07 bc a1 99 a6 bc e6 bb 00 bc 2f 74 73 3c
       -0.008271479 -0.020336928 -0.0078572985 0.014859243
000160 10 98 bb 3c 5f 16 18 bc a3 52 8e 3b df 15 e2 3b
       0.022899657 -0.009282677 0.004343347 0.00689958
000170 fc 10 0d 3b ce 03 11 bc 51 82 92 3c 60 7b 86 bb
       0.0021525016 -0.008851005 0.017884405 -0.004104063
000180 f0 11 ab 3b 39 a5 26 3c d6 7e be 3b 10 9e e0 3c
       0.005220644 0.010171228 0.00581346 0.02741912
000190 e1 7b 4e bc d2 26 1f bc 3d 88 b4 3c 05 28 14 bc
       -0.012602777 -0.009713845 0.02203762 -0.0090427445
0001a0 ab 9d 03 bc e1 5d 3a bb 04 be 1d bc 77 eb 94 bc
       -0.008033196 -0.0028437304 -0.009627823 -0.018178685
0001b0 e6 19 8b bc af 8b 15 3c 7c 59 4a 3c 69 3f df bc
       -0.016980123 0.009127541 0.012350436 -0.027251916
0001c0 01 20 db bb 34 8b 0c ba de 39 5b bc bd 97 c8 3c
       -0.006687165 -0.0005361319 -0.013380496 0.024486417
0001d0 dc d1 c0 bb 12 73 08 3c 6f 76 b4 bb d0 72 64 bc
       -0.005884392 0.008328216 -0.0055072824 -0.013943389
0001e0 40 1c 19 bb cd df c9 bc 11 7e be bb c3 c1 a1 bc
       -0.0023362786 -0.02464285 -0.005813368 -0.019745713
0001f0 22 12 93 b8 77 f1 c8 3c fe 84 83 3c 28 f4 ba 3b
       -7.012884e-05 0.024529202 0.016054627 0.005705375

conv_layers.0.params.1 f4 [128]
000000 75 eb 14 bb 77 2d d8 bb 9a 3e f3 b7 41 3a e5 38
       -0.002272335 -0.0065972167 -2.8997008e-05 0.000109304216
000010 c4 0d e4 bb 23 c2 e1 39 85 50 9e b7 35 34 0a b8
       -0.006959649 0.00043059987 -1.8872563e-05 -3.2950386e-05
000020 0c 68 80 3a 8b 37 8e 39 d0 c7 8f 3a 71 47 5b bc
       0.0009796633 0.00027125733 0.0010969583 -0.013383732
000030 8e d0 2e bb 71 e2 be bb 05 0d d0 ba 20 f0 82 bc
       -0.0026674601 -0.0058253338 -0.0015873021 -0.015983641
000040 a8 d7 06 3a ea a0 cd bb 76 be 63 bc 74 c7 4a bc
       0.00051438296 -0.006275286 -0.01390039 -0.012376655
000050 3b 50 6c bc 65 49 a4 bb 09 20 5b 3a 41 f5 84 bc
       -0.014423425 -0.005013632 0.00083589606 -0.016230227
000060 c8 66 00 3a 05 8c 89 39 83 e0 8d bc 5f ae c8 bc
       0.0004898128 0.00026235 -0.01731897 -0.02449721
000070 b4 56 d3 b9 07 9f 68 3a 67 f8 3a b7 e3 c0 eb bb
       -0.00040309655 0.00088737946 -1.11443e-05 -0.0071946247
000080 3e 23 a7 bc 11 42 0d b9 f5 43 2c 38 5d e4 3d bc
       -0.020402547 -0.0001347142 4.1071286e-05 -0.011590091
000090 de 2d 1d bc 7d 4b fd 39 da 90 d1 38 a8 d8 c3 b8
       -0.009593455 0.00048312164 9.992877e-05 -9.33868e-05
0000a0 5a 4a 78 b3 e8 88 c0 bc df 0d 0d bc 55 38 e1 bb
       -5.7809622e-08 -0.023502782 -0.008609264 -0.0068731704
0000b0 64 7d 13 bb 83 cd 0b 3a f7 9b 85 b6 e9 2f 73 38
       -0.0022505159 0.0005333053 -3.9818656e-06 5.7980335e-05
0000c0 3f 85 e8 b7 14 d5 8c 3a d6 80 52 b7 e1 86 f2 b6
       -2.7718603e-05 0.0010744655 -1.2546972e-05 -7.227864e-06
0000d0 a8 df 29 ba 2a b8 30 bc 1b 95 9b b7 8a 8e e7 39
       -0.0006480166 -0.010786096 -1.8546873e-05 0.00044165953
0000e0 ec 80 53 3a 4d ba 1c 39 01 36 22 bc dc f6 04 39
       0.0008068222 0.00014946722 -0.009900571 0.00012680463
0000f0 0b 4e 41 b7 77 36 4d 3a 5b d1 28 bc 69 1e 99 bc
       -1.1521867e-05 0.0007828245 -0.0103038205 -0.018691259
000100 a4 da d1 bb 89 82 07 b7 76 0b ca 37 7b 52 68 bc
       -0.006404238 -8.07702e-06 2.4085613e-05 -0.014179821
000110 c0 76 70 bc 54 6c cf 38 61 2d a3 bc a7 19 97 b6
       -0.01467675 9.890707e-05 -0.0199191 -4.503137e-06
000120 f4 d1 0b bb c5 8a 56 bb 2e ba eb bb 61 12 6b ba
       -0.0021334859 -0.0032736522 -0.007193825 -0.0008967277
000130 13 dc bb bb 22 ca 80 bb a2 37 84 bc b2 98 51 b7
       -0.005733022 -0.003930346 -0.016139809 -1.2492923e-05
000140 a8 6f 62 3a 56 6d 06 b7 a4 4e a1 b6 ea 8a a6 bc
       0.0008637854 -8.012479e-06 -4.807329e-06 -0.020329911
000150 53 aa dd bb 09 27 b5 bb f4 27 37 39 16 0c 67 bb
       -0.006764689 -0.005528335 0.00017467124 -0.0035255007
000160 a8 f4 85 3a 2a 91 0b bc 69 64 7e bc ee fa 37 b5
       0.0010220008 -0.0085184965 -0.015526869 -6.8537963e-07
000170 b9 77 f3 38 55 6a fd bb 85 7e 1d 3a 80 8f 77 39
       0.00011609443 -0.007733623 0.00060079276 0.00023609214
000180 54 a0 f1 ba ab 74 68 39 0c 98 07 b7 75 10 13 ba
       -0.0018434622 0.00022168706 -8.082028e-06 -0.0005610057
000190 a1 94 27 b7 0a c5 8a b7 10 1b af bc 1e dd b6 b6
       -9.988581e-06 -1.6542635e-05 -0.02137521 -5.449764e-06
0001a0 ac 92 a0 bc 0f d8 2f 3a 31 ac 8c b7 ff f0 67 3a
       -0.019601189 0.00067079155 -1.6769483e-05 0.0008847862
0001b0 bd 35 9c b7 03 24 69 bc 48 86 68 bc 6c ff 81 3a
       -1.8621673e-05 -0.014229777 -0.014192171 0.0009918041
0001c0 e6 b4 91 bb 50 72 7d 39 57 87 6d 3a 73 3e 24 bc
       -0.0044466136 0.00024170545 0.0009061 -0.010024655
0001d0 b4 e6 bb bc 86 b0 8a bc ac af 07 b7 99 a4 92 b6
       -0.022937156 -0.016929876 -8.087529e-06 -4.3703008e-06
0001e0 4b ac 1d 3a b1 2b 02 b7 9c 10 e0 bc 34 36 dd 39
       0.00060147484 -7.7587765e-06 -0.02735167 0.0004219279
0001f0 35 d6 c4 bb d6 dc 20 3a bc 86 a7 ba 33 04 4c bc
       -0.006006981 0.0006136423 -0.0012781243 -0.012452173

conv_layers.0.params.2 f4 [128]
000000 98 0d 14 bc 42 75 25 3a 1b 15 f2 39 53 b7 31 bc
       -0.009036444 0.0006311723 0.00046173562 -0.010846931
000010 a9 07 9d bc 39 a5 d4 b6 ec 57 b2 b8 5c 9b a5 3a
       -0.019168692 -6.337327e-06 -8.504078e-05 0.0012634802
000020 4c c0 55 bc c3 68 83 39 82 cb 0b 3a ea df db bb
       -0.013046335 0.0002506432 0.0005332754 -0.0067100422
000030 27 19 56 bc a8 0d 8a bc a4 24 6d 3a a8 d4 23 b7
       -0.01306752 -0.016852215 0.00090462924 -9.76507e-06
000040 f5 43 90 bc af 31 25 b7 dd d3 0e bb f5 bd a4 bb
       -0.01761053 -9.846334e-06 -0.002179376 -0.0050275275
000050 2d a3 0a 3a c9 01 04 b6 be 56 c3 b6 1d 59 2b bc
       0.00052885973 -1.9670572e-06 -5.821551e-06 -0.010458258
000060 98 a9 15 bc 17 f1 c1 bc 31 51 c5 bc 37 52 f3 ba
       -0.009134673 -0.02367453 -0.024086567 -0.0018563931
000070 1d 54 17 bc 80 fd bd bc 29 c2 39 3a 1c 61 07 bc
       -0.009236363 -0.023192167 0.0007086122 -0.008262899
000080 55 1c 25 bc 54 20 58 3a 6e fa 58 38 fc 97 eb bb
       -0.010077556 0.00082445634 5.1731644e-05 -0.007189749
000090 4a ab 00 ba 49 f5 91 bb 42 24 3e b6 52 67 b0 bb
       -0.00049083366 -0.004454289 -2.833331e-06 -0.0053834105
0000a0 19 db b2 39 e3 6e 06 39 49 58 d0 39 74 bb 23 bc
       0.00034114046 0.00012820544 0.0003973863 -0.009993423
0000b0 71 fe a2 bc e5 d8 ad bc 9f 57 e1 b7 68 ce 34 b6
       -0.019896718 -0.021221587 -2.6862892e-05 -2.6942234e-06
0000c0 61 7f 7e b7 ac 77 85 bc af 62 b9 b7 53 9a f3 b7
       -1.51692375e-05 -0.016292416 -2.2099672e-05 -2.903972e-05
0000d0 00 51 7a bb 5f 02 9b 39 92 41 93 bb 40 df 7e ba
       -0.0038195252 0.0002956567 -0.0044939006 -0.0009722598
0000e0 89 f7 00 39 e5 1c ec bb 6f 94 4a 39 2d 64 29 bc
       0.00012299245 -0.007205593 0.00019319517 -0.010338825
0000f0 c4 a1 3e bc 09 b7 66 bb 34 18 0c 3a fb 18 ba 39
       -0.011635248 -0.0035204312 0.0005344183 0.00035495296
000100 a3 02 62 bb c7 03 6a 39 87 c9 46 39 bb c5 f9 39
       -0.0034486435 0.00022317386 0.00018957826 0.00047640302
000110 af aa 98 b6 cb de 54 bc d3 e9 d5 b7 fd 77 30 bb
       -4.549823e-06 -0.012992571 -2.5500462e-05 -0.0026926987
000120 03 d4 a6 bb d2 90 02 bd d8 ba 2e bc bf 65 07 3a
       -0.0050911917 -0.031876393 -0.010664664 0.00051650027
000130 cc 44 35 bc 80 9b 30 b7 dc b6 ec bb 75 07 99 3a
       -0.011063766 -1.0526623e-05 -0.007223947 0.0011675196
000140 41 f6 4a bc e2 37 84 bc 58 7c 95 bc 31 6e a0 b7
       -0.012387813 -0.016139928 -0.018247768 -1.9124798e-05
000150 a4 b4 ac bc f7 97 36 3a c5 59 46 bc de 3b 1b bb
       -0.02108223 0.00069653935 -0.012106364 -0.0023686807
000160 52 b4 b4 39 dc 1a f5 bc b9 a3 55 3a 4c 5c 61 3a
       0.00034466624 -0.029920034 0.0008149702 0.0008596822
000170 ed 50 0f 3a d6 61 01 bc 22 64 14 ba d7 4b 91 b7
       0.0005467076 -0.007896861 -0.0005660673 -1.7320663e-05
000180 ab 84 e8 bc 57 29 77 39 eb f2 77 bc ff e5 d8 b7
       -0.028383574 0.00023571156 -0.0151336 -2.5856307e-05
000190 b5 d5 4b 38 0e 4b 45 3a 44 b8 fe bb d8 de 5a 3a
       4.8598e-05 0.00075261376 -0.007773431 0.00083492463
0001a0 33 78 e9 b7 84 17 37 ba a9 96 b3 3a 46 7f 68 3a
       -2.7831737e-05 -0.00069844 0.0013701516 0.0008869063
0001b0 a0 ee 35 bc 74 ad 0b 3a c4 ac 45 bc 36 e4 dd 39
       -0.011104256 0.0005328276 -0.012065116 0.00042322435
0001c0 73 34 5a 39 6b 6b 7f bc 68 5b 57 bc 54 51 65 bb
       0.00020809639 -0.015589575 -0.013144352 -0.0034991102
0001d0 e5 70 75 3a 06 c5 b6 39 1b 74 cf bc 21 4f 94 b8
       0.0009362831 0.0003486054 -0.025323918 -7.071929e-05
0001e0 7d e8 52 b7 e8 4b 21 bc 26 c6 0d b8 c4 af 80 bc
       -1.2571106e-05 -0.009844758 -3.380156e-05 -0.015708812
0001f0 68 be c0 39 a9 d5 75 b6 98 c4 6f bc d2 b2 77 3a
       0.00036762957 -3.6632212e-06 -0.014634274 0.00094489485

conv_layers.0.params.3 f4 [128]
000000 70 34 09 bc 73 8d ba 3b 0a a1 27 bc c2 63 b1 3a
       -0.0083743185 0.0056931316 -0.010231266 0.0013533758
000010 36 e3 35 3c 4c 3f 21 3c 65 22 13 bc b5 90 1c bc
       0.011101535 0.009841751 -0.008980368 -0.009555985
000020 4a 1a 68 3b c4 f8 14 bc 75 8e 14 3c 50 dc 99 ba
       0.003541606 -0.0090925135 0.0090671675 -0.0011738632
000030 7b 42 0a 3c 92 84 57 3c 6d 4a 98 bb 3c e2 ff ba
       0.008438702 0.013154166 -0.004647544 -0.0019522379
000040 0b 38 86 3a 84 e2 f4 3b 12 cc 3c bc 03 4a 1d bc
       0.0010240091 0.007473292 -0.0115232635 -0.009600165
000050 38 01 4b bc 36 3e 2e bc 13 52 d7 3b 44 f0 0a 3c
       -0.012390427 -0.010634949 0.0065710633 0.008480135
000060 77 26 48 bc bd 10 22 3c 96 08 22 bc 7a 49 0d bc
       -0.012216202 0.009891686 -0.009889742 -0.008623475
000070 a1 3a ed 3b 42 3b 03 3c 2a c8 94 3b d1 a1 aa bb
       0.007239655 0.008009734 0.004540463 -0.0052072783
000080 a0 82 c7 bb db 98 21 bc e1 70 3e bc 98 e4 04 3c
       -0.0060885698 -0.009863104 -0.011623592 0.008111142
000090 69 a2 7f 3c b9 61 34 3b 24 f6 d9 bb 7e 8c 0d 3c
       0.015602686 0.0027524068 -0.0066516567 0.008639453
0000a0 ee 08 fa 3b 5b 6b 5e bc 54 51 4f 3b 85 15 e3 bb
       0.007630459 -0.0135754 0.0031634169 -0.0069300556
0000b0 c3 57 d5 3b 5b 16 1f bc 56 bd 17 3c 0e 42 5f 3c
       0.006510706 -0.00970992 0.00926145 0.0136265885
0000c0 9c e4 3f 3c f1 64 8d bc be 9c 27 3b 07 50 4c 3c
       0.01171222 -0.017260047 0.0025575603 0.012470252
0000d0 83 de c1 3b 75 26 1a bc 00 17 14 bc ca f1 fb bb
       0.005916418 -0.009408583 -0.009038687 -0.0076887356
0000e0 f0 4f 68 bb db 93 15 3b 2c 61 8f 3c f5 d2 0b 3c
       -0.0035448037 0.0022823724 0.01750239 0.008534183
0000f0 38 12 51 3b 77 93 44 bb bd 72 43 bc 31 bc 33 bc
       0.0031901728 -0.0029995122 -0.011929211 -0.010970161
000100 e9 68 77 3b c7 d9 bc bb a0 f0 94 b9 68 79 91 3b
       0.003775174 -0.005763266 -0.0002840804 0.0044395216
000110 b8 67 00 bb 8a 1c f0 ba 38 6d b5 ba d6 18 e0 bb
       -0.0019593071 -0.0018319052 -0.0013841754 -0.006838898
000120 92 27 1c ba 83 68 ee 3b 25 fd 00 bc 4a aa 49 3c
       -0.0005956824 0.0072756424 -0.007872854 0.0123086665
000130 d1 e7 45 3c e1 73 2f bc ff a5 1f 3b 29 44 33 3c
       0.012079195 -0.01070878 0.0024360416 0.010941544
000140 e5 1f 1a 3c b3 d5 1e bc 5e 7c 5e 3b 8c f6 e7 3b
       0.009407018 -0.009694505 0.003394864 0.007078951
000150 1e 96 e3 bb ee ab 8c 3a fc 23 25 bc ae 02 8e 3b
       -0.0069453856 0.0010732391 -0.01007938 0.0043338155
000160 84 4d 3f 3c c3 86 46 3c 8e 47 65 3b 6a b1 26 bb
       0.011676196 0.012117091 0.0034985277 -0.0025435337
000170 8e 4b 28 bc e5 4b 99 3b 23 c6 6f bb e1 c0 fd 3b
       -0.01027192 0.004678237 -0.0036586605 0.00774394
000180 8f ab 6e 3b 77 8e 38 bc 0a 21 d6 3b 23 8e ab 3b
       0.0036418175 -0.011264435 0.0065347003 0.00523545
000190 08 93 81 bb 3f cd 33 bc 5b be 1b 3c 1a e9 57 bc
       -0.003954295 -0.010974227 0.0095058335 -0.013178134
0001a0 0f b5 32 3c 8e 39 2b 3c 9d ec 5b bc 1a bb 23 bc
       0.010907426 0.010450734 -0.013423112 -0.009993339
0001b0 0f 14 78 bc f9 25 1d 3c 13 7d 87 3b 76 b5 b5 bb
       -0.015141501 0.009591573 0.004134783 -0.0055453135
0001c0 f1 95 d1 bb 9b 12 90 3b 67 11 0b 3b 07 a6 70 3c
       -0.0063960482 0.004396749 0.002122009 0.0146880215
0001d0 dc b7 0d 3c 8c 3b 28 3c 1c 3f 6b bb 9f 2b c1 3b
       0.0086497925 0.010268103 -0.003589577 0.0058950926
0001e0 e0 1e f2 ba 8f 9f 22 bc fa 87 49 bc 9d 16 63 bb
       -0.0018472336 -0.009925737 -0.012300486 -0.003465093
0001f0 d2 bd fd bb 9f 34 d6 3b c9 f1 2b 3c 92 48 31 3c
       -0.0077435756 0.0065370346 0.010494658 0.010820525

conv_layers.0.params.4 f4 [128]
000000 91 cf 00 bc f8 8f 14 bc 20 e4 3a bc dc 38 9b bb
       -0.007861988 -0.009067528 -0.011406928 -0.004737003
000010 c6 ff f9 3b a8 d4 31 3c ab e5 21 bc 15 a6 20 3c
       0.0076293675 0.010853924 -0.009881417 0.009805222
000020 9f 86 01 3c b9 b5 67 3c f2 3a 8f 3c 39 b1 a5 bb
       0.007905631 0.014142447 0.017484162 -0.005056527
000030 fa 98 1c 3c cb c9 18 bc 7c d5 08 3c c5 6a 71 bc
       0.009557957 -0.009325455 0.00835168 -0.0147349285
000040 f3 af 35 3c 9f d2 fd bb 93 af 3c bc b7 5c 9e bb
       0.011089313 -0.0077460553 -0.0115164695 -0.00483283
000050 d5 ee 29 bc a4 a6 30 bc 0c 07 b3 b9 c6 64 cd 3b
       -0.010371883 -0.010781918 -0.0003414679 0.0062681166
000060 f7 27 ba 3b f9 f8 b0 3a c9 b8 9e bb 3b d5 f6 bb
       0.0056810337 0.0013501934 -0.0048438055 -0.0075327433
000070 aa d0 fe 3b 2e a3 b0 3b 1d 0a 2e 3c 11 cd 11 3b
       0.0077763395 0.0053905463 0.010622528 0.0022247473
000080 10 3e 5d 3b c0 7c 25 bc ca a4 67 3c 53 d0 44 3c
       0.0033758916 -0.0101005435 0.01413841 0.012012559
000090 80 3d 79 3b a4 a4 6c 3c ea ad 17 3c 4b 45 26 bc
       0.0038031042 0.01444355 0.009257773 -0.010148357
0000a0 64 ce 35 bc 2f 96 01 bc be 1e 0f 3c 27 50 0b 3c
       -0.011096571 -0.007909342 0.008735357 0.0085029965
0000b0 9e 2d 25 3c 8b b3 ab 3b d8 f9 ad bb b2 50 07 3c
       0.010081677 0.005239909 -0.0053093247 0.008258985
0000c0 e1 e8 0c 3b 99 89 4c 3b ab 3d d8 bb 96 37 22 bc
       0.0021501111 0.0031209944 -0.0065991483 -0.009900948
0000d0 dc c0 5a 3a 03 07 d0 bb da 3d 45 bc de 74 2d 3c
       0.00083447783 -0.006348492 -0.012038672 0.010586945
0000e0 10 7d 93 3a 7a 9b 0a 3c ba c2 65 bb 0a aa af bb
       0.0011252481 0.00845992 -0.0035058693 -0.0053608464
0000f0 f6 a7 51 bc 9d 96 37 3c 4b 0e 19 3c 02 70 00 3c
       -0.012796393 0.011205343 0.009341787 0.007839205
000100 2f 0f e8 bb af e0 2f bc 9e f5 ed bb 44 dd bf bb
       -0.007081888 -0.010734721 -0.007261946 -0.0058552343
000110 df 7d 60 bc 23 f1 d8 3a fd 6d 41 bb ae 46 0a bc
       -0.013701885 0.0016551357 -0.002951502 -0.008439703
000120 e9 c6 47 bc d3 a3 cb bb d8 69 b7 bb 4d 8d 70 bc
       -0.01219342 -0.0062145977 -0.0055973344 -0.014682126
000130 b2 62 9a bc 1d a5 4d 3c 32 75 5e 3c c7 a4 20 bc
       -0.01884589 0.012551573 0.013577746 -0.009804911
000140 cf ac 01 3c 89 c5 22 bc 06 de 82 3a 2e fa b0 3a
       0.007914736 -0.009934791 0.0009984381 0.0013502294
000150 ff d9 c5 3b 8e 63 45 bc ae 93 da bb 45 4a 97 bb
       0.00603795 -0.0120476615 -0.006670437 -0.004617008
000160 83 eb 01 3c 1e 3a 29 bc 4b 4b 4e 3c 1f 8c 33 bc
       0.0079296855 -0.010328798 0.012591193 -0.0109587
000170 a5 28 50 39 9c 1b 42 3b 05 7e 00 3c 02 c1 c5 bb
       0.00019851567 0.0029618507 0.007842545 -0.006034971
000180 3b 42 fe 3b f6 08 45 3c fb 67 2d bb eb 88 81 3c
       0.00775936 0.012026062 -0.0026459682 0.015812358
000190 04 87 19 bc 36 cb 02 bc 75 e1 ad 3b 95 b5 92 ba
       -0.009370569 -0.00798302 0.0053064176 -0.0011193032
0001a0 55 22 0a bc b5 bc 33 3c fa 25 a4 bb 85 e2 4f 3b
       -0.008431037 0.010970284 -0.00500941 0.003172071
0001b0 ab 99 e0 bb 35 17 f6 3a 16 76 21 3b d7 9b 17 bc
       -0.006854256 0.0018775227 0.0024637035 -0.009253464
0001c0 01 2b 8c bb b4 14 e3 3b cf a7 2e 3c 46 bc 34 bc
       -0.0042775874 0.0069299582 0.010660126 -0.011031216
0001d0 a0 4b d2 ba 04 9b 4e 3b e1 00 df bb a4 84 1e bc
       -0.0016044267 0.0031525502 -0.0068055247 -0.009675179
0001e0 78 33 f6 3b 25 71 15 bb e4 10 73 bc aa c2 f9 3b
       0.00751346 -0.0022803035 -0.01483557 0.0076220827
0001f0 f1 e0 a8 ba 71 34 37 3c 12 9e 2a 3c e7 56 52 3c
       -0.001288442 0.011181937 0.010413663 0.012838102

conv_layers.0.params.5 f4 [128]
000000 a9 66 c9 bb b2 44 77 3c 88 5b 3c 3c 40 61 3e bc
       -0.0061462712 0.015092062 0.011496432 -0.011619866
000010 43 cf 12 bc 9f d3 88 3b 36 96 d9 3b e5 4f 38 3c
       -0.008960548 0.004175618 0.006640221 0.011249517
000020 f8 0a 41 3c 54 16 37 3c 5e 88 b1 3b 57 0a 35 bc
       0.0117824 0.011174757 0.0054178676 -0.0110498285
000030 5c c8 41 bc a2 c8 31 bc df 92 1e 3c 2f 98 04 bc
       -0.011827555 -0.010851057 0.0096785715 -0.008092924
000040 f0 34 cf bb 49 32 32 3c b8 81 37 bc 37 b9 25 3b
       -0.0063234493 0.010876247 -0.011200361 0.0025287399
000050 fe 88 47 3c fa 9b 04 3c 91 dc 13 bc eb c7 c6 ba
       0.012178658 0.008093828 -0.009024755 -0.0015165781
000060 1e 36 b5 bb bf 2d cf bb 25 23 3f bb 14 38 f7 3b
       -0.005530133 -0.006322592 -0.0029165235 0.007544527
000070 a3 c7 2d bc f7 ba 78 bc 07 54 dc 3b a0 03 08 ba
       -0.010606679 -0.015181295 0.006723884 -0.00051885284
000080 f7 37 85 bc 60 17 48 3c de 0b 5f bb 44 1e 13 bc
       -0.016262038 0.012212604 -0.0034034173 -0.008979384
000090 fd 32 50 bc ab 17 23 3c 42 1c 99 bb 15 dd d8 bb
       -0.012707469 0.009954373 -0.004672558 -0.006618152
0000a0 63 ab 2e 3c 71 1c 4d ba 09 04 76 3c 58 ee 52 bc
       0.010660979 -0.00078243675 0.0150156105 -0.012874208
0000b0 94 d7 10 3c 5a 7c 0b bc 73 2e 74 3b 6a 00 c7 3b
       0.00884046 -0.008513534 0.0037259131 0.0060730474
0000c0 ef a2 f2 bb b8 34 4a 3b 06 64 23 bc 12 ca 1b 3c
       -0.007404677 0.0030854177 -0.009972578 0.009508627
0000d0 ef 17 cd bb 2b c0 dd ba 44 48 e1 bb 11 57 1a bc
       -0.0062589566 -0.0016918232 -0.00687507 -0.009420172
0000e0 60 e3 77 3a d9 50 88 bc 4f a8 10 bc 8e ad 06 bc
       0.0009456184 -0.016640114 -0.00882919 -0.00822009
0000f0 54 c9 d6 3b 82 b2 c2 bb 28 eb d8 3b 1f 53 22 3c
       0.006554762 -0.00594169 0.0066198297 0.009907513
000100 23 a1 e6 bb a0 7a 8a bb 8e 3f 84 3c 11 aa 87 3c
       -0.007038252 -0.004226044 0.016143586 0.016560586
000110 b4 e1 77 bb c4 28 20 bc 6b 0a 95 3b a6 2d ef 3b
       -0.0037823739 -0.009775344 0.004548361 0.007299143
000120 99 54 b0 b9 9d 93 cc bb a0 4c 41 3c 54 21 3f 3c
       -0.00033632366 -0.006243183 0.011798054 0.011665661
000130 32 12 e9 bb 80 86 fc bb 47 ed 3e ba 8c f9 36 3c
       -0.0071127648 -0.0077064633 -0.0007283282 0.011167895
000140 e1 63 4c 3b 66 ad 0d bb 23 62 43 bb b3 aa 01 bc
       0.0031187462 -0.0021618246 -0.0029813133 -0.007914233
000150 fc d9 bc b7 b7 72 dc 3b c3 68 67 bc a6 e5 eb bb
       -2.2512853e-05 0.0067275423 -0.014124098 -0.007199007
000160 01 f5 22 3c 65 3b a2 bb d1 28 30 3c f7 c3 53 3c
       0.009946109 -0.004950928 0.010751919 0.01292514
000170 a8 2e 10 3c ab 61 09 bc 31 ce a7 3b 92 9f b8 bb
       0.008800186 -0.008385102 0.0051210155 -0.0056342566
000180 55 74 4c ba 66 77 45 3c dc f4 33 bb a2 7c d5 3b
       -0.0007799317 0.012052393 -0.002745918 0.0065151015
000190 ee 19 15 3c 04 10 1e 3c 2d 18 ae ba 19 4f 5f bc
       0.00910042 0.009647373 -0.0013282351 -0.013629698
0001a0 c1 db 1c bc ce 4a dd bb fb fd 48 ba 4d 78 65 3b
       -0.009573878 -0.006753302 -0.00076672406 0.0035014332
0001b0 31 3a 93 3b 57 b4 a9 3b 0d 6a e1 bb 17 52 d7 3b
       0.004493021 0.005178969 -0.0068790973 0.006571065
0001c0 40 45 d7 3b bd 2a 91 bb 46 5d 31 bc 0f 73 c2 39
       0.0065695345 -0.0044301436 -0.010825461 0.0003708829
0001d0 cb ee 4b 3c 1c 21 a6 3a 15 39 1c bc d4 19 81 3b
       0.012447069 0.0012674662 -0.009535094 0.0039398465
0001e0 c7 c6 2f bc 33 c8 ce bb 29 f5 06 3c 21 4a 45 bc
       -0.010728545 -0.0063104867 0.008237162 -0.0120415995
0001f0 ac 5d 39 3c fb 21 24 bc 68 4d ae bb 03 85 41 ba
       0.011313837 -0.010017867 -0.005319286 -0.0007382186

conv_layers.0.params.6 f4 [128]
000000 aa b3 7e 3f cc 9c 82 3f 52 69 81 3f c4 3b 7d 3f
       0.99492896 1.0204101 1.0110266 0.9891932
000010 0e ff 7a 3f a6 33 7d 3f 98 a6 81 3f d5 95 80 3f
       0.9804543 0.98906934 1.0128965 1.0045725
000020 ed 62 80 3f 5f 26 7e 3f 2f be 81 3f 1c df 7e 3f
       1.003019 0.992773 1.0136164 0.9955919
000030 12 0d 80 3f fb 40 7d 3f ae 58 7d 3f d0 a7 81 3f
       1.0003989 0.9892728 0.9896344 1.0129337
000040 72 9f 7f 3f c8 10 81 3f 9d 96 81 3f ff 31 7e 3f
       0.9985267 1.0083246 1.0124089 0.9929504
000050 ef dc 7e 3f 2c b2 7f 3f bc 8f 7d 3f 4f 5e 81 3f
       0.9955587 0.99881244 0.99047446 1.0106906
000060 7e 22 82 3f 5a da 80 3f df 52 81 3f f0 7a 80 3f
       1.0166776 1.0066636 1.0103415 1.0037518
000070 62 1e 80 3f c8 7e 80 3f 76 27 81 3f d0 f9 82 3f
       1.0009272 1.003869 1.0090168 1.0232487
000080 ae 9f 80 3f 45 2e 81 3f 29 e9 80 3f 6b f9 7f 3f
       1.004873 1.0092245 1.0071155 0.99989957
000090 a2 7c 7b 3f 3d 39 7d 3f c2 2e 7f 3f 99 51 80 3f
       0.9823705 0.98915464 0.9968072 1.0024902
0000a0 ca 18 7f 3f c8 e6 7d 3f 07 e4 7e 3f 13 29 80 3f
       0.996472 0.9918027 0.9956669 1.0012535
0000b0 21 25 7f 3f a8 bc 81 3f d8 a5 7d 3f e7 7d 7b 3f
       0.9966603 1.0135698 0.9908118 0.98238987
0000c0 ba e0 7c 3f 86 bc 7e 3f dc d9 80 3f ea 1b 7f 3f
       0.98780406 0.99506414 1.0066485 0.9965197
0000d0 65 f3 7d 3f 1f 96 80 3f 5c d5 7e 3f 29 2f 7f 3f
       0.99199516 1.0045813 0.9954431 0.99681336
0000e0 8c ad 80 3f 4b c1 81 3f a1 6d 7b 3f 6f 72 7f 3f
       1.0052962 1.0137113 0.98214155 0.99783987
0000f0 c5 46 82 3f b5 b4 80 3f fe fe 81 3f 2d 67 80 3f
       1.0177847 1.0055147 1.0155942 1.0031487
000100 83 e4 80 3f c2 9b 80 3f 80 bf 7e 3f 70 2c 80 3f
       1.0069736 1.0047534 0.99510956 1.0013561
000110 9a 4c 7f 3f d6 23 7d 3f c4 f9 82 3f 0c dc 81 3f
       0.9972626 0.98882806 1.0232472 1.0145278
000120 fe 10 7f 3f 73 da 7d 3f aa 4a 80 3f 0f b9 80 3f
       0.99635303 0.9916145 1.0022786 1.0056475
000130 c9 f5 7e 3f 2a 6a 81 3f 2c 4c 7c 3f 87 54 7f 3f
       0.9959379 1.0110524 0.9855373 0.99738353
000140 2e 8f 80 3f ae f5 7e 3f cd 4e 81 3f 33 05 82 3f
       1.0043695 0.9959363 1.0102173 1.0157837
000150 a4 36 7b 3f 50 da 81 3f fb 6b 81 3f 9b f6 81 3f
       0.9813025 1.0144749 1.0111078 1.0153383
000160 c1 a5 7d 3f a1 cb 7d 3f 09 11 83 3f fe ab 7f 3f
       0.99081045 0.9913884 1.0239574 0.99871814
000170 b4 e4 81 3f a2 18 81 3f b3 48 82 3f bf bd 7e 3f
       1.014792 1.0085642 1.0178436 0.9950828
000180 fe 1a 80 3f 0d de 80 3f 87 87 81 3f ba e8 7d 3f
       1.0008237 1.0067765 1.0119485 0.9918324
000190 01 53 80 3f 41 2b 81 3f 25 49 82 3f 2f 5a 7f 3f
       1.0025331 1.0091325 1.0178572 0.99746984
0001a0 71 09 80 3f 5a 84 80 3f c4 0f 7e 3f 1c 97 81 3f
       1.0002881 1.004039 0.99242806 1.012424
0001b0 1d 03 81 3f 73 31 7f 3f 27 9f 80 3f 1c 2a 7e 3f
       1.0079075 0.9968483 1.004857 0.99283004
0001c0 9a ca 82 3f ea 99 7f 3f d9 20 80 3f 1a e7 7a 3f
       1.0218079 0.9984423 1.0010024 0.98008883
0001d0 c9 4c 80 3f 2e 43 80 3f a2 6d 81 3f 9c f6 80 3f
       1.0023433 1.0020502 1.0111582 1.0075259
0001e0 0a 51 7e 3f f6 2b 80 3f 52 79 81 3f 3e de 82 3f
       0.99342406 1.0013416 1.0115149 1.0224073
0001f0 1e ff 80 3f 2f 16 80 3f cf 7f 82 3f b8 64 80 3f
       1.0077856 1.000677 1.0195254 1.0030737

conv_layers.0.params.7 f4 [128]
000000 39 1f 81 3f 98 2a 81 3f aa 0c 81 3f 99 3e 81 3f
       1.0087653 1.0091124 1.008199 1.0097228
000010 05 17 80 3f 4b 83 7c 3f 79 28 80 3f 13 ec 80 3f
       1.0007025 0.9863784 1.0012351 1.0072044
000020 e7 29 7d 3f 3c b8 80 3f eb c1 80 3f 08 6e 7d 3f
       0.9889206 1.0056224 1.0059179 0.9899602
000030 04 2e 7e 3f 6a d6 80 3f 99 23 80 3f 24 e5 81 3f
       0.99288964 1.0065434 1.0010864 1.0148053
000040 8f 0e 81 3f 2f c1 80 3f 94 3d 7e 3f 20 8c 80 3f
       1.0082568 1.0058955 0.9931271 1.0042763
000050 c2 f1 7b 3f b9 44 80 3f 23 48 80 3f c1 98 7c 3f
       0.9841577 1.0020972 1.0022014 0.98670584
000060 d1 b8 80 3f 10 5a 7e 3f 1e 9b 80 3f 8a 19 80 3f
       1.0056401 0.99356174 1.0047338 1.0007794
000070 fd 62 7d 3f 0b ad 7f 3f d8 42 80 3f 86 84 7e 3f
       0.9897917 0.9987342 1.0020399 0.99420965
000080 0d a4 80 3f 5b 07 81 3f 58 6e 81 3f 55 35 80 3f
       1.0050064 1.008037 1.0111799 1.0016276
000090 ce d5 80 3f da 7a 80 3f 74 1c 81 3f 42 b1 7f 3f
       1.0065248 1.0037491 1.0086808 0.9987985
0000a0 71 cb 81 3f 9f a8 7e 3f 15 b0 80 3f e7 d5 7d 3f
       1.014021 0.99476045 1.0053736 0.99154514
0000b0 ab 9a 7f 3f 41 29 7d 3f 54 f8 80 3f b2 78 7f 3f
       0.9984538 0.98891073 1.0075784 0.9979354
0000c0 d4 63 7b 3f 03 eb 7e 3f 30 5f 7e 3f af 79 81 3f
       0.981992 0.9957735 0.99363995 1.011526
0000d0 18 a9 82 3f 1a e3 81 3f 55 60 80 3f 78 62 7d 3f
       1.0207853 1.0147431 1.0029398 0.98978376
0000e0 ac 22 7c 3f cd f9 7a 3f 1f 69 81 3f c4 b3 80 3f
       0.98490405 0.98037416 1.0110205 1.005486
0000f0 ec 26 80 3f 29 47 80 3f 26 a5 7f 3f ed 55 81 3f
       1.0011878 1.0021716 0.9986137 1.0104347
000100 2e 26 80 3f 3f 87 81 3f 4e 45 7e 3f a8 ee 7b 3f
       1.0011652 1.0119399 0.993245 0.98411036
000110 27 a5 7e 3f 02 47 7f 3f 41 5d 7e 3f 49 17 81 3f
       0.9947075 0.99717724 0.99361044 1.0085231
000120 86 9c 81 3f b1 0f 7b 3f 8f fc 7d 3f 59 50 82 3f
       1.0125892 0.9807082 0.992135 1.018077
000130 65 52 83 3f 28 51 81 3f e4 b3 7e 3f fd 53 82 3f
       1.025952 1.0102892 0.9949324 1.0181881
000140 a6 60 81 3f 6a d6 80 3f 1b 8d 80 3f 78 8f 80 3f
       1.010762 1.0065434 1.0043062 1.0043783
000150 f6 57 7e 3f 8b 65 80 3f 73 cc 7b 3f 06 29 80 3f
       0.9935297 1.0030988 0.9835884 1.0012519
000160 ad fc 7c 3f 38 67 7d 3f d5 43 7b 3f 83 13 7e 3f
       0.9882305 0.98985624 0.9815038 0.9924852
000170 64 c9 80 3f ec 20 7d 3f 5f 19 80 3f 31 7d 7f 3f
       1.006146 0.9887836 1.0007743 0.998004
000180 24 67 7f 3f 9b fd 80 3f c9 79 7f 3f 32 76 7f 3f
       0.99766755 1.0077394 0.99795204 0.99789727
000190 0a 37 81 3f 6f 0d 7e 3f d3 03 80 3f e2 53 80 3f
       1.0094922 0.9923925 1.0001167 1.0025599
0001a0 8a 3b 80 3f 81 6a 80 3f 5d e5 7d 3f 92 b2 7f 3f
       1.001817 1.0032502 0.99178106 0.9988185
0001b0 c2 3e 80 3f be 07 80 3f 58 cf 7c 3f 7a 3b 7f 3f
       1.0019152 1.0002363 0.9875388 0.9970013
0001c0 bf 2f 80 3f 3e ed 7e 3f 51 37 7f 3f da f9 80 3f
       1.0014571 0.9958075 0.9969378 1.0076249
0001d0 09 73 81 3f 4f 3c 80 3f 8c 25 80 3f 90 cb 81 3f
       1.0113231 1.0018405 1.0011458 1.0140247
0001e0 cf b2 7f 3f 67 1b 81 3f 8f 68 80 3f 71 55 7e 3f
       0.99882215 1.0086488 1.0031909 0.99349123
0001f0 f0 f4 7f 3f 54 e3 7f 3f 3b e6 7b 3f ab 3d 80 3f
       0.9998312 0.9995625 0.9839818 1.001882
